models/CNN_Res_1666706517.5366518.pt (torch, 160422 bytes, 13 tensors)

conv1.weight f4 [64, 1, 3, 3]
-0.025751013 -0.20588121 0.23597597 0.27165252 -0.17726386 0.0046426263 -0.18163863 -0.070925556
0.18097384 -0.020575179 -0.14487287 0.0545144 0.30953598 -0.2924617 0.20975764 0.101744205
-0.22337538 0.2135075 -0.21647847 0.29387775 0.24448319 -0.20877549 0.27972507 -0.012175631
0.014086521 -0.11938227 0.06772486 -0.2155148 0.10062319 0.21825762 -0.20352796 0.19126706
-0.13407981 0.020649815 0.0525959 0.08241676 0.02635879 -0.30124196 -0.118555166 -0.12576567
-0.17220098 -0.2585455 -0.24738766 0.17204052 -0.0783671 0.11207098 0.08696272 0.08921795
0.26146188 -0.10749776 0.134969 -0.30731776 -0.057283614 -0.13549455 -0.1688759 0.27402037
-0.06714712 0.32304856 -0.11050895 0.0070649623 -0.08648824 -0.23264799 0.0045322007 0.12957649
0.0446177 -0.27764294 0.115116835 0.24826254 0.27157325 -0.2705978 -0.042561896 0.116382584
0.33606756 -0.26391208 -0.29721954 -0.10219734 -0.12072832 0.010253394 0.25545675 -0.33671227
-0.25342566 -0.051282242 0.024906635 0.009151638 -0.07268075 0.23475063 -0.22960424 -0.24088551
0.3145408 -0.11383348 0.18583563 -0.32311755 0.24197632 0.10314007 0.32948464 0.1908313
-0.086887926 0.054486595 0.06117852 0.2096316 0.29210845 -0.22230873 -0.2939446 -0.30069974
-0.17209537 0.25612527 -0.24717283 0.29218063 0.22755031 -0.26967347 -0.14031586 -0.19359943
0.18399179 -0.24529883 -0.1444531 0.28907675 0.17893898 -0.21724854 -0.28425133 -0.10010482
0.12310643 -0.011827089 0.048515856 -0.11385953 0.19871031 0.026559407 -0.11533737 0.07359046
0.104487605 -0.1096969 -0.18895797 0.21875711 -0.17330275 -0.0041765613 0.114486195 -0.104851976
0.028436728 -0.03249316 0.26104313 -0.20393507 -0.05075304 0.17233966 0.25302318 0.016675288
0.1821436 0.21080896 0.120520994 0.0029370482 0.19767231 0.14359064 -0.14245471 0.07402186
0.19686082 0.1575368 0.2824607 -0.26638886 -0.18036637 0.047165424 -0.06739738 0.070541106
-0.328417 0.046435386 -0.13926297 -0.056747153 -0.011809192 0.076535374 -0.28155193 -0.1931347
0.2996464 0.17862761 0.048781406 -0.23327306 -0.15215695 -0.21288282 -0.07673926 0.18158685
-0.2887783 -0.15127648 -0.25311086 0.011558038 -0.0041354396 -0.15953292 0.090439014 0.30983114
0.312077 0.241586 0.06891901 -0.3248523 0.11776228 0.040096845 -0.20316085 0.25728652
0.0032269682 0.095699504 -0.2558803 -0.1462797 0.25902405 -0.057764873 -0.079090975 0.29918087
-0.047367144 0.14801086 -0.081575476 -0.19310243 0.008345178 0.026401816 -0.06900822 0.11738975
-0.21609265 -0.29905826 -0.2904044 0.10746854 -0.029876033 0.054794457 0.15108979 0.17967473
0.13567714 -0.19880567 -0.21621561 -0.044530626 -0.24971795 0.13900259 0.10956407 0.121090956
0.06707154 0.27586037 0.21067949 -0.06586358 0.011613631 0.21529429 0.022977179 0.27115184
-0.17571959 -0.022160994 0.20632005 -0.32181168 -0.14146209 -0.01632218 0.30894676 -0.07753569
0.1025471 0.25255987 0.24078141 -0.3031853 -0.06669618 -0.27823678 -0.20682244 -0.06870477
-0.16778712 -0.118099734 -0.19265936 0.1683315 0.03971419 -0.2207417 0.13985537 -0.20246586
00000000: caf3 d2bc 86d2 52be afa3 713e 0a16 8b3e
00000010: a884 35be 2c21 983b 7aff 39be 6b41 91bd
00000020: 3551 393e 478d a8bc 8e59 14be 7e4a 5f3d
00000030: 807b 9e3e 8abd 95be b5ca 563e 445f d03d
00000040: 84bc 64be b6a1 5a3e 88ac 5dbe 2577 963e
00000050: cd59 7a3e 3ec9 55be 2038 8f3e 4c7c 47bc
00000060: 27cb 663c b17e f4bd 55b3 8a3d e9af 5cbe
00000070: 8813 ce3d ed7e 5f3e a269 50be 83db 433e
00000080: 384c 09be cd29 a93c cc6e 573d 1eca a83d
00000090: 64ee d73c 633c 9abe 0dcd f2bd b7c8 00be
000000a0: 7455 30be 1360 84be 3153 7dbe 642b 303e
000000b0: ee7e a0bd 7885 e53d 8319 b23d e7b7 b63d
000000c0: 55de 853e c927 dcbd 5035 0a3e c158 9dbe
000000d0: 39a2 6abd 15bf 0abe ceed 2cbe 664c 8c3e
000000e0: 6e84 89bd 9f66 a53e 8452 e2bd 3381 e73b
000000f0: bf20 b1bd 463b 6ebe db82 943b b3af 043e
00000100: 0dc1 363d 3727 8ebe 60c2 eb3d 8938 7e3e
00000110: a60b 8b3e cb8b 8abe 6255 2ebd fe59 ee3d
00000120: 0c11 ac3e 7c1f 87be 292d 98be d74c d1bd
00000130: 6940 f7bd dafd 273c 3acb 823e 8d65 acbe
00000140: 02c1 81be 540d 52bd 0009 cc3c c0f0 153c
00000150: a5d9 94bd 7862 703e 601d 6bbe b1aa 76be
00000160: 7e0b a13e 8721 e9bd b24b 3e3e aa6f a5be
00000170: a4c8 773e 1a3b d33d 36b2 a83e 4869 433e
00000180: 4cf2 b1bd 562d 5f3d 5496 7a3d aba9 563e
00000190: 3d8f 953e e6a4 63be e87f 96be 51f5 99be
000001a0: c539 30be da22 833e e01a 7dbe b398 953e
000001b0: f302 693e a412 8abe f6ae 0fbe ee3e 46be
000001c0: 5868 3c3e 9e2f 7bbe 83eb 13be de01 943e
000001d0: c83b 373e 6776 5ebe 6489 91be c203 cdbd
000001e0: 391f fc3d 68c6 41bc 90b8 463d 2f2f e9bd
000001f0: b77a 4b3e 1d93 d93c 0036 ecbd 98b6 963d
00000200: 99fd d53d c5a8 e0bd 337e 41be dd01 603e
00000210: 4776 31be 89db 88bb bd77 ea3d a2bc d6bd
00000220: 24f4 e83c 8c17 05bd 72a7 853e 5bd4 50be
00000230: 6be2 4fbd cf79 303e 418c 813e 9d9a 883c
00000240: da83 3a3e 4ede 573e b6d3 f63d 7e7b 403b
00000250: 9c6a 4a3e 6d09 133e a6df 11be c698 973d
00000260: e295 493e 5451 213e b09e 903e 1f64 88be
00000270: f6b1 38be 8830 413d a307 8abd db77 903d
00000280: 4626 a8be 0833 3e3d f49a 0ebe b46f 68bd
00000290: 577b 41bc 94be 9c3d 9327 90be 1ac5 45be
000002a0: 416b 993e 28ea 363e 03cf 473d 22df 6ebe
000002b0: 08cf 1bbe f4fd 59be 7929 9dbd e7f1 393e
000002c0: c0da 93be 39e8 1abe bf97 81be ed5d 3d3c
000002d0: 9582 87bb 995c 23be 1738 b93d 30a2 9e3e
000002e0: 8ec8 9f3e 5262 773e 6925 8d3d 0a53 a6be
000002f0: 5a2d f13d 973c 243d 6609 50be 0fbb 833e
00000300: 8b7b 533b 1afe c33d be02 83be 58ca 15be
00000310: cd9e 843e dc9a 6cbd 73fa a1bd 3c2e 993e
00000320: 0d04 42bd 2990 173e 0b11 a7bd a5bc 45be
00000330: 37ba 083c 9f48 d83c 2f54 8dbd 0a6a f03d
00000340: 6447 5dbe 2a1e 99be e3af 94be 7718 dc3d
00000350: 95be f4bc 2770 603d 48b7 1a3e a7fc 373e
00000360: f3ee 0a3e b793 4bbe a067 5dbe bf65 36bd
00000370: 10b6 7fbe b256 0e3e 2163 e03d 89fe f73d
00000380: ce5c 893d 923d 8d3e 5dbc 573e 7ce3 86bd
00000390: 1947 3e3c 1b76 5c3e a33a bc3c 6ad4 8a3e
000003a0: d6ef 33be f98a b5bc 9045 533e 80c4 a4be
000003b0: 70db 10be 18b6 85bc 452e 9e3e 08cb 9ebd
000003c0: 3704 d23d 874f 813e 678f 763e 1b3b 9bbe
000003d0: 0298 88bd 0d75 8ebe 43c9 53be 16b5 8cbd
000003e0: 63d0 2bbe 46de f1bd 7f48 45be 185f 2c3e
000003f0: 59ab 223d 1d0a 62be 3f36 0f3e 3653 4fbe

conv1.bias f4 [64]
-0.07545314 0.19643283 0.06736983 0.25300902 0.12962757 0.0071201776 -0.13784762 -0.16112512
-0.15129714 0.11619492 -0.17705199 0.006835512 0.16507377 0.062908985 0.18335901 -0.21093756
0.07242835 -0.22410811 0.15089618 0.22614735 -0.047584943 0.3011481 -0.1356485 0.16994026
-0.11859295 -0.11469237 -0.071394034 -0.30429718 0.11183653 -0.32938614 -0.19436994 0.09190571
0.30363348 -0.02401951 0.3044858 -0.020447744 -0.27061975 -0.026236305 0.3023935 -0.3266536
-0.30302295 0.025856737 -0.015286912 0.29495147 -0.0684716 0.1072639 0.30462244 0.16878745
0.05267456 -0.16764742 -0.19959481 -0.28677127 -0.3237669 0.027157813 -0.09963213 0.31968382
-0.17020743 0.020009847 -0.16126111 0.07001061 0.16522574 -0.3003225 -0.17902145 0.15499957
00000000: 2d87 9abd b025 493e 32f9 893d 668a 813e
00000010: 17bd 043e 6150 e93b ed27 0dbe fcfd 24be
00000020: a3ed 1abe 9af7 ed3d 1e4d 35be 6efc df3b
00000030: 1909 293e 6dd6 803d 77c2 3b3e 0400 58be
00000040: 5155 943d 997c 65be 8784 1a3e 2c93 673e
00000050: 6ee8 42bd 1530 9a3e 71e7 0abe d204 2e3e
00000060: dce0 f2bd d5e3 eabd 0937 92bd d7cc 9bbe
00000070: 8d0a e53d 4da5 a8be ea08 47be 1039 bc3d
00000080: d975 9b3e 90c4 c4bc 90e5 9b3e 0782 a7bc
00000090: ac8e 8abe 85ed d6bc 52d3 9a3e 243f a7be
000000a0: d325 9bbe 82d1 d33c f575 7abc e103 973e
000000b0: d73a 8cbd 2dad db3d 79f7 9b3e 9ed6 2c3e
000000c0: 48c1 573d c4ab 2bbe 9562 4cbe afd3 92be
000000d0: c6c4 a5be 107a de3c ee0b ccbd 99ad a33e
000000e0: db4a 2ebe b1eb a33c a221 25be b961 8f3d
000000f0: f030 293e dfc3 99be 6651 37be 35b8 1e3e

bn1.weight f4 [64]
0.99862635 1.008542 1.0000025 0.98821807 0.9944165 0.99467546 0.99053377 0.9911704
1.0061786 1.00282 1.0036743 1.0001333 0.9988603 1.014034 1.0000765 0.99468124
0.99436784 0.99462277 1.0072571 1.0006588 0.9919195 1.0005562 0.98490053 0.9982858
0.9890205 1.0115802 0.9877861 0.9993163 1.0070745 0.99943155 0.99061614 0.9940404
1.000612 1.0000958 1.0103778 1.0109243 0.9851009 0.99996644 0.9946162 0.9974574
0.9944643 1.0064957 0.98851484 1.006261 1.0143648 0.99715585 1.0077044 0.9907761
0.9942107 0.99217975 0.9934161 0.9829811 0.9899829 0.989096 0.99970347 1.0126028
1.0007626 1.0064154 0.9974508 0.9979569 1.0071634 0.987265 0.98648757 1.0039648
00000000: faa5 7f3f e717 813f 1500 803f dcfb 7c3f
00000010: 1492 7e3f 0da3 7e3f 9f93 7d3f 58bd 7d3f
00000020: 76ca 803f 685c 803f 6678 803f 5e04 803f
00000030: 4fb5 7f3f decb 813f 8202 803f 6ea3 7e3f
00000040: e48e 7e3f 999f 7e3f cded 803f 9615 803f
00000050: 70ee 7d3f 3a12 803f 7122 7c3f a88f 7f3f
00000060: 7330 7d3f 767b 813f 8ddf 7c3f 31d3 7f3f
00000070: d1e7 803f bfda 7f3f 0599 7d3f 6f79 7e3f
00000080: 0e14 803f 2403 803f 0f54 813f f865 813f
00000090: 932f 7c3f cdfd 7f3f 2b9f 7e3f 5e59 7f3f
000000a0: 3695 7e3f dad4 803f 4f0f 7d3f 29cd 803f
000000b0: b5d6 813f 9b45 7f3f 75fc 803f 81a3 7d3f
000000c0: 9884 7e3f 7eff 7d3f 8450 7e3f a6a4 7b3f
000000d0: 856f 7d3f 6535 7d3f 91ec 7f3f f89c 813f
000000e0: fd18 803f 38d2 803f f058 7f3f 1a7a 7f3f
000000f0: bbea 803f 66bd 7c3f 738a 7c3f eb81 803f

bn1.bias f4 [64]
0.010499565 0.013188823 0.009202701 -0.007138761 -0.006524779 -0.0029558134 0.009267921 -0.0012022661
-0.002866179 0.007311531 0.0016073189 -0.0011668156 -0.012257729 -0.0007243486 0.001965355 -0.0026993994
-0.0011284904 0.0027388716 -0.004058643 -0.0002941191 0.0071504046 0.006256773 0.0063352 -0.0066227913
0.001460557 0.0059478628 0.010993376 0.0068411846 -0.003996698 0.0044618016 0.000563046 0.0007746797
-0.004078393 -0.00011632257 0.0028324132 0.0019389037 0.0118645355 0.008460289 0.0070570917 0.007797604
0.0064025745 -0.00032731137 0.0016541069 0.015485676 -0.0041636648 0.008163001 -0.0040242323 -0.0015751816
-0.0028107367 -0.0025972056 0.0065655885 0.009104258 0.004880026 -0.015254988 0.005506925 0.020994633
-0.006332086 -0.0010859504 0.009176374 0.013858358 -0.0045661377 0.007663102 0.012185436 0.00048410674
00000000: 5e06 2c3c ef15 583c edc6 163c 45ec e9bb
00000010: d0cd d5bb 52b6 41bb 7ad8 173c 5b95 9dba
00000020: 81d6 3bbb 9195 ef3b acac d23a d6ef 98ba
00000030: a4d4 48bc 36e2 3dba 2fcd 003b 68e8 30bb
00000040: dbe9 93ba a47e 333b 5dfe 84bb ff33 9ab9
00000050: f14d ea3b 9e05 cd3b 8297 cf3b 0004 d9bb
00000060: 2970 bf3a 4ae6 c23b 901d 343c 042c e03b
00000070: bcf6 82bb 4e34 923b 6199 133a e013 4b3a
00000080: 0aa4 85bb 34f2 f3b8 02a0 393b d022 fe3a
00000090: 7863 423c 069d 0a3c 2d3f e73b 0b83 ff3b
000000a0: b0cc d13b fd9a abb9 9ece d83a a2b7 7d3c
000000b0: 5a6f 88bb 1cbe 053c b5dd 83bb 5376 ceba
000000c0: 5634 38bb e135 2abb 2624 d73b 072a 153c
000000d0: a0e8 9f3b 0ff0 79bc 6f73 b43b f0fc ab3c
000000e0: 637d cfbb 7356 8eba 8158 163c 2b0e 633c
000000f0: 8a9f 95bb c21a fb3b 6ca5 473c b5cf fd39

bn1.running_mean f4 [64]
0.0015499362 0.15271516 0.049957212 0.22453457 0.3544083 0.02009252 0.00052872894 0.004220544
0.09046362 0.14657958 0.014086921 0.059578065 0.18980056 0.13121274 0.18848856 0.0015115606
0.081181705 0.0012559058 0.16645433 0.45021856 0.026846204 0.3012348 0.00039538793 0.21006317
0.0049120034 0.019410213 0.022247717 0.106432386 0.110163644 0.0019583046 0.007868844 0.05627941
0.31699204 0.12828265 0.18862653 0.19636127 0.026729777 0.04840702 0.18843164 0.00518489
0.0022439077 0.044456165 0.035546172 0.26271182 0.005901259 0.10288065 0.31642598 0.102902696
0.13632783 0.0072910776 0.042686608 1.2378611e-07 0.009202379 0.0883337 0.008403582 0.24908103
0.094829865 0.058977216 0.010399445 0.050406322 0.19991444 0.066227466 0.00066927134 0.13799441
00000000: 3b27 cb3a 5d61 1c3e ef9f 4c3d 64ec 653e
00000010: 0175 b53e 1299 a43c 669a 0a3a 7d4c 8a3b
00000020: fe44 b93d f518 163e d4cc 663c 2108 743d
00000030: 145b 423e a25c 063e 2503 413e 8f1f c63a
00000040: 9842 a63d 359d a43a 0173 2a3e 0c83 e63e
00000050: 92ec db3c 733b 9a3e 124c cf39 cd1a 573e
00000060: dff4 a03b 2b02 9f3c d840 b63c 39f9 d93d
00000070: 7a9d e13d e656 003b 53ec 003c 3d85 663d
00000080: c84c a23e 875c 033e 5027 413e ee12 493e
00000090: 68f8 da3c 7046 463d 39f4 403e 02e6 a93b
000000a0: 860e 133b ab17 363d dd98 113d 2a82 863e
000000b0: 595f c13b 17b3 d23d 9602 a23e a6be d23d
000000c0: 8699 0b3e fee9 ee3b 27d8 2e3d 11ea 0434
000000d0: 93c5 163c 4de8 b43d 2daf 093c 190f 7f3e
000000e0: 2936 c23d 1892 713d 6f62 2a3c dc76 4e3d
000000f0: 5fb6 4c3e 44a2 873d 0a72 2f3a 684e 0d3e

bn1.running_var f4 [64]
0.014913855 0.020892834 0.021630114 0.01856165 0.07625402 0.01655833 0.0148297455 0.015382794
0.028306337 0.018153973 0.018374495 0.019465214 0.019865412 0.022757772 0.018406473 0.014924567
0.039778747 0.014887593 0.01933254 0.09203386 0.020635525 0.016405765 0.0148159675 0.022228416
0.0152460635 0.019557888 0.01966295 0.035143916 0.017957773 0.015104936 0.016220842 0.020198816
0.016913021 0.029602429 0.057483636 0.04443199 0.026324786 0.029148187 0.05150126 0.01563086
0.015238335 0.023846045 0.022688713 0.018788647 0.015538625 0.017619766 0.018346025 0.03206666
0.024003135 0.015979098 0.03501431 0.014780889 0.015852174 0.019959876 0.01556138 0.028290495
0.028708782 0.03161757 0.016877916 0.016751712 0.022893984 0.025118435 0.014814152 0.021583006
00000000: 3e59 743c 7327 ab3c a331 b13c 9a0e 983c
00000010: 112b 9c3d 56a5 873c 76f8 723c 1d08 7c3c
00000020: b1e2 e73c a4b7 943c 1c86 963c 8375 9f3c
00000030: cabc a23c 826e ba3c 2cc9 963c 2c86 743c
00000040: 0aef 223d 17eb 733c 465f 9e3c 407c bc3d
00000050: d50b a93c 6265 863c acbe 723c 5e18 b63c
00000060: a0ca 793c dd37 a03c 3214 a13c 11f3 0f3d
00000070: 2e1c 933c b27a 773c 92e1 843c fd77 a53c
00000080: 2d8d 8a3c cb80 f23c f673 6b3d 51fe 353d
00000090: 14a7 d73c 2ec8 ee3c fcf2 523d 4a0c 803c
000000a0: 36aa 793c c858 c33c aedd b93c a6ea 993c
000000b0: b895 7e3c 5457 903c 674a 963c 5458 033d
000000c0: 39a2 c43c 99e6 823c 2a6b 0f3d 8b2b 723c
000000d0: 6bdc 813c e582 a33c 29f5 7e3c 78c1 e73c
000000e0: ae2e eb3c 6d81 013d 8e43 8a3c e33a 893c
000000f0: 2a8c bb3c 2dc5 cd3c 0fb7 723c d8ce b03c

conv2.weight f4 [64, 64, 3, 3]
0.021109981 0.018298272 0.00261877 -0.038836315 0.005475761 0.0039166976 -0.011443171 -0.02813077
-0.008110786 -0.031143911 0.019561574 -0.029598536 0.031709053 -0.03044957 -0.039088737 -0.008911459
-0.003688856 0.0065996205 -0.016447881 -0.012913298 -0.013664566 -0.017090937 -0.0028665608 0.049316898
-0.012608276 0.0022792972 0.029695204 -0.01617195 -0.015920546 0.03644059 0.0010959548 0.002425615
0.037873458 0.009889367 0.03677314 -0.015077279 0.013882905 0.014892764 0.0137760965 -0.01597491
-0.047816657 -0.054253887 0.03087584 -0.035386674 -0.024587946 0.008201478 -0.02014256 0.04056478
0.00118479 0.033773325 -0.011982419 0.024633031 0.008795143 -0.03998525 -0.014947004 0.044975102
-0.008403971 0.047922786 -0.01981746 0.038164083 0.038305968 0.012273238 0.052192856 0.036249552
-0.035596307 0.016105957 -0.0041050385 -0.0033575543 -0.029669084 -0.032685563 0.017000526 0.02168898
0.018887999 0.015316775 -0.02534329 -0.018304465 -0.016854003 -0.00962903 0.03843807 0.011572063
0.002535347 0.025396036 0.020090295 -0.00849241 0.002386155 -0.026042316 -0.038324848 0.030864146
-0.029991053 -0.010708568 -0.0011941297 -0.0099300435 0.009349733 0.010080309 -0.0061041918 0.013709039
-0.01832615 -0.020688616 0.017793534 -0.019476928 0.017646058 -0.042476572 0.013761813 -0.0014950649
0.032728378 0.04215993 -0.015074769 0.025505854 0.039234325 -0.0079336725 -0.024237333 -0.044840056
0.032011718 -0.025204735 -0.025703019 0.012114281 0.02096151 -0.042864203 0.028163634 -0.001913787
-0.038947407 0.028330564 -0.019894095 0.0032740538 -0.02293986 0.011214511 -0.03109942 0.019562677
0.038514547 0.044872172 -0.014858914 0.028377073 0.013380953 -0.036095727 -0.03464918 -0.0031034285
-0.017457793 0.042517856 0.0030153187 0.023112861 0.017852738 0.019621324 0.008082746 0.043705955
0.041423388 -0.0223069 -0.0006346918 0.036436763 -0.00434141 0.040339038 0.050767228 0.038920376
-0.004590634 -0.0076736147 -0.0036659588 -0.032081164 0.009371193 0.029529465 -0.02227994 -0.0050385143
0.047293626 0.000439623 -0.028577471 -0.013828538 -0.015237313 0.037566654 0.03190617 0.0462296
0.03180307 -0.022476917 0.011046642 0.009297436 -0.0035749464 0.011742464 -0.0064734193 0.016338803
-0.011559589 -0.01940682 0.02757231 -0.012131577 0.04690653 0.005870069 0.019009888 -0.0039905836
-0.036656093 0.016449561 0.03072944 -0.0075992285 0.0011569014 0.0073456406 -0.0046266536 0.02826718
-0.0022605918 0.008976648 -0.0031270394 -0.022107452 0.042131547 -0.011428903 0.010545346 -0.013957379
0.032881223 0.039424602 0.037018973 -0.024078641 0.017640078 -0.018157741 -0.01521103 0.002638844
0.02393843 0.015738463 -0.0062599937 0.013588892 -1.2714561e-05 -0.026612008 -0.0068119676 0.020016043
0.0123471385 0.0021323173 -0.012118073 0.015670065 -0.013211777 0.029672513 -0.029499987 -0.011298378
0.042606585 0.053413447 0.008117115 0.012834898 0.0385833 0.00012233999 -0.0032551903 0.0055543534
-0.027493158 0.025172124 0.027193796 -0.024859363 0.024897354 0.0037086464 0.034829546 0.027154673
0.044116948 -0.0052239755 0.0010872189 0.019252932 0.027820414 0.008699336 -0.020106131 -0.0034206486
-0.026952684 0.008947619 -0.02532121 0.017037734 0.015160307 -0.030261744 -0.020869255 -0.033182807
00000000: d7ee ac3c 42e6 953c ac9f 2b3b d412 1fbd
00000010: 036e b33b a457 803b 237c 3bbc 8072 e6bc
00000020: 1ae3 04bc 8421 ffbc 983f a03c a178 f2bc
00000030: 5ae1 013d 6071 f9bc 831b 20bd 5e01 12bc
00000040: bcc0 71bb a141 d83b b5bd 86bc 4c92 53bc
00000050: 58e1 5fbc 4b02 8cbc e9dc 3bbb 8400 4a3d
00000060: f192 4ebc 4360 153b 5b43 f33c 0a7b 84bc
00000070: ce6b 82bc ba42 153d 24a6 8f3a 11f7 1e3b
00000080: 3321 1b3d 0307 223c 6f9f 163d b106 77bc
00000090: 2075 633c c800 743c 23b5 613c d1dd 82bc
000000a0: 66db 43bd 5339 5ebd 54ef fc3c 9ef1 10bd
000000b0: a96c c9bc 7e5f 063c 0302 a5bc 4127 263d
000000c0: f54a 9b3a e655 0a3d e851 44bc 36cb c93c
000000d0: 8119 103c 93c7 23bd 47e4 74bc d037 383d
000000e0: cfb0 09bc af4a 443d 3a58 a2bc f151 1c3d
000000f0: b8e6 1c3d b115 493c 2dc8 553d 697a 143d
00000100: 6fcd 11bd a4f0 833c 8f83 86bb 6a0a 5cbb
00000110: 940c f3bc 4ce1 05bd b044 8b3c 16ad b13c
00000120: 01bb 9a3c 36f3 7a3c bb9c cfbc 3ff3 95bc
00000130: 6811 8abc 14c3 1dbc 3d71 1d3d c098 3d3c
00000140: 1028 263b 590b d03c 6794 a43c c023 0bbc
00000150: 0a61 1c3b b256 d5bc 84fa 1cbd ced6 fc3c
00000160: ccaf f5bc fd72 2fbc 5884 9cba 9fb1 22bc
00000170: 9f2f 193c e127 253c ac05 c8bb e19b 603c
00000180: b920 96bc 2c7b a9bc bfc3 913c 148e 9fbc
00000190: 778e 903c eafb 2dbd 3a79 613c 0ef6 c3ba
000001a0: 310e 063d e4af 2c3d 2afc 76bc a7f1 d03c
000001b0: 2cb4 203d 3cfc 01bc 5f8d c6bc 35aa 37bd
000001c0: b81e 033d 297a cebc 238f d2bc fa7a 463c
000001d0: 79b7 ab3c 6092 2fbd 6cb7 e63c 09d8 faba
000001e0: 5187 1fbd 8015 e83c f1f8 a2bc 8291 563b
000001f0: 60ec bbbc 11bd 373c 36c4 febc e841 a03c
00000200: 6ec1 1d3d e2cb 373d cd72 73bc 0977 e83c
00000210: c93b 5b3c 1dd9 13bd 4cec 0dbd e462 4bbb
00000220: a503 8fbc 3427 2e3d a79c 453b 2f57 bd3c
00000230: e83f 923c e6bc a03c 7e6d 043c 0405 333d
00000240: 92ab 293d f6bc b6bc 7261 26ba b73e 153d
00000250: 6342 8ebb 8c3a 253d 4cf1 4f3d f96a 1f3d
00000260: 076d 96bb f272 fbbb 9540 70bb 8a67 03bd
00000270: a289 193c c7e7 f13c 6c84 b6bc 1f1a a5bb
00000280: f6b6 413d 337d e639 4d1b eabc 1891 62bc
00000290: eca5 79bc 7edf 193d 0bb0 023d 405b 3d3d
000002a0: f043 023d 8321 b8bc fafc 343c 4654 183c
000002b0: a649 6abb 7763 403c fa1e d4bb f4d8 853c
000002c0: 6e64 3dbc 0dfb 9ebc 53df e13c 86c3 46bc
000002d0: 1021 403d b559 c03b a0ba 9b3c 71c3 82bb
000002e0: b324 16bd 3bc1 863c 4ebc fb3c f302 f9bb
000002f0: 2ba3 973a b3b3 f03b 2f9b 97bb 9390 e73c
00000300: 7026 14bb ca12 133c 04ef 4cbb b01a b5bc
00000310: 2192 2c3d 4b40 3bbc 63c6 2c3c 7ead 64bc
00000320: 76ae 063d b17b 213d 35a1 173d 9240 c5bc
00000330: ed81 903c 8bbf 94bc af37 79bc 75f0 2c3b
00000340: 871a c43c f3ed 803c a220 cdbb f2a3 5e3c
00000350: a050 55b7 6d01 dabc ed36 dfbb aff8 a33c
00000360: a74b 4a3c 59be 0b3b e28a 46bc 825e 803c
00000370: 3676 58bc c513 f33c f5a9 f1bc d51c 39bc
00000380: 3e84 2e3d 0fc8 5a3d a6fd 043c 7749 523c
00000390: 8609 1e3d 6448 0039 0855 55bb 4b01 b63b
000003a0: 5539 e1bc c535 ce3c 86c5 de3c dda5 cbbc
000003b0: 89f5 cb3c c30c 733b 6da9 0e3d 7a73 de3c
000003c0: f9b3 343d e22d abbb 0381 8e3a 53b8 9d3c
000003d0: a3e7 e33c a987 0e3c 9db5 a4bc f62c 60bb
000003e0: e0cb dcbc 0999 123c 6d6e cfbc b892 8b3c
000003f0: f062 783c 7ae7 f7bc 00f6 aabc b2ea 07bd

conv2.bias f4 [64]
0.0051746587 -0.027761864 -0.024306424 -0.030210285 -0.033452325 -0.025817053 -0.0032740396 -0.031231677
0.018147076 0.018048922 -0.011155919 0.00014659544 0.039949123 0.016746411 -0.030106397 -0.017143322
0.037816294 0.03617303 0.0010283928 -0.021987498 0.010939414 -0.042277865 -0.011939503 -0.027654322
0.008046541 0.035636872 -0.013406159 -0.012645158 0.030426601 0.023119288 -0.030770972 0.037025306
0.021469465 0.047255002 -0.0061848154 0.0285486 -0.029561194 -0.014175961 0.044893626 0.048226453
0.023639565 -0.026999682 -0.0073435283 -0.036976032 -0.009343754 0.04584161 -0.007342284 -0.029958945
0.052941896 -0.012623131 -0.0062321075 0.015388975 0.029809942 0.0042826487 0.003368225 0.03806055
-0.01951777 -0.00971901 0.026617173 0.015872752 -0.024323894 -0.0040290225 0.015609637 -0.001854985
00000000: 2f90 a93b d96c e3bc 441e c7bc 8f7b f7bc
00000010: 4e05 09bd 497e d3bc 4591 56bb 93d9 ffbc
00000020: 2da9 943c 55db 933c 51c7 36bc 6ab7 1939
00000030: b1a1 233d c52f 893c b1a1 f6bc 2770 8cbc
00000040: 42e5 1a3d 2c2a 143d 23cb 863a 201f b4bc
00000050: 3a3b 333c 8e2b 2dbd e89d 43bc 518b e2bc
00000060: a4d5 033c f8f7 113d 82a5 5bbc a32d 4fbc
00000070: 3541 f93c a964 bd3c 6813 fcbc d9a7 173d
00000080: bbe0 af3c 768e 413d fea9 cabb c1de e93c
00000090: 512a f2bc 4a42 68bc 61e2 373d 1a89 453d
000000a0: c3a7 c13c 702e ddbc fba1 f0bb 2e74 17bd
000000b0: 8b16 19bc 69c4 3b3d 8b97 f0bb 766c f5bc
000000c0: 9ad9 583d 40d1 4ebc b536 ccbb 0a22 7c3c
000000d0: fb33 f43c 7655 8c3b 70bd 5c3b 61e5 1b3d
000000e0: bbe3 9fbc 7c3c 1fbc 420c da3c 9307 823c
000000f0: e742 c7bc e405 84bb 90bf 7f3c f822 f3ba

bn2.weight f4 [64]
1.0114627 1.0021362 1.0090954 1.0023903 1.0055493 0.98289156 0.99486244 1.0017031
0.9878789 0.9970054 1.0017403 0.9869186 1.0057851 0.9864052 1.0054374 1.0133929
1.0003092 1.0083655 0.9941615 1.0032492 1.0049976 0.98961085 0.99979085 0.98668283
0.98977786 0.9962053 1.0014207 1.0102167 0.9896194 1.0022703 1.0060136 1.0139419
1.0101475 1.0078712 0.98816055 1.0010841 0.99349 1.0018735 1.0008739 1.014223
0.9959791 0.9984139 1.0091454 1.001871 1.0101312 1.0018525 1.0071553 1.0003064
1.0121312 1.0029097 0.9867789 0.9949362 1.0007766 1.0035782 0.99749637 1.0015588
0.9913615 1.0094752 1.0094008 0.99154365 0.9926676 0.9982 0.99304354 1.0046334
00000000: 9c77 813f 0046 803f 0a2a 813f 534e 803f
00000010: d7b5 803f c89e 7b3f 4eaf 7e3f cf37 803f
00000020: a2e5 7c3f bf3b 7f3f 0739 803f b3a6 7c3f
00000030: 91bd 803f 0d85 7c3f 2cb2 803f dcb6 813f
00000040: 220a 803f 1f12 813f 5e81 7e3f 786a 803f
00000050: c3a3 803f 2357 7d3f 4bf2 7f3f 3f97 7c3f
00000060: 1562 7d3f 4f07 7f3f 8e2e 803f c84e 813f
00000070: b257 7d3f 654a 803f 0ec5 803f d9c8 813f
00000080: 834c 813f ec01 813f 17f8 7c3f 8623 803f
00000090: 5c55 7e3f 643d 803f a31c 803f 0fd2 813f
000000a0: 7cf8 7e3f 0e98 7f3f ad2b 813f 4f3d 803f
000000b0: fb4b 813f b43c 803f 77ea 803f 0a0a 803f
000000c0: 848d 813f 585f 803f 8b9d 7c3f 24b4 7e3f
000000d0: 7319 803f 4075 803f ec5b 7f3f 1433 803f
000000e0: dec9 7d3f 7c36 813f 0c34 813f ced5 7d3f
000000f0: 771f 7e3f 098a 7f3f 1a38 7e3f d497 803f

bn2.bias f4 [64]
-0.00871186 -0.008543352 -0.0033921492 -0.008112768 0.008396889 0.003160358 0.0071389587 0.008440009
0.0082970355 -0.008297508 -0.0038011884 0.00820678 0.0069439043 0.0018854737 0.009030494 -0.0031580129
-0.008483957 -0.0035941002 0.00073352375 0.0008356625 0.009569554 0.0070619844 -0.004367026 0.008306177
0.0029616412 0.004354613 -0.0031475308 -0.011679391 0.008769563 -0.008108434 -0.0032789055 -0.008937925
0.0031045119 0.008724311 0.0036063995 -0.0036231396 0.012762557 0.0031642169 0.009019801 -0.0036210432
0.009587817 -0.0030502086 -0.0036925715 -0.008021695 -0.0025317972 0.0031147315 0.0033631178 -0.0030833036
-0.00833103 -0.0061875978 0.0044981474 0.0030916631 0.0071152123 -0.0033460797 -0.0036976575 0.004123461
0.0030752993 -0.008426776 -0.008315308 -0.0008070568 0.0031250597 -0.0066563957 0.0031203618 -0.003319632
00000000: 30bc 0ebc 6af9 0bbc d24e 5ebb 6aeb 04bc
00000010: 1b93 093c 021e 4f3b eded e93b f747 0a3c
00000020: 4af0 073c 45f2 07bc 5c1d 79bb bb75 063c
00000030: b189 e33b 0022 f73a a3f4 133c aaf6 4ebb
00000040: 4b00 0bbc ff8a 6bbb f249 403a 5c10 5b3a
00000050: 9ec9 1c3c 3868 e73b 4519 8fbb a216 083c
00000060: 1818 423b 24b1 8e3b ce46 4ebb eb5a 3fbc
00000070: 37ae 0f3c 3dd9 04bc e8e2 56bb 6070 12bc
00000080: 1175 4b3b 6af0 0e3c 5859 6c3b 3272 6dbb
00000090: 0b1a 513c c05e 4f3b cac7 133c 064f 6dbb
000000a0: 3816 1d3c 02e6 47bb 12ff 71bb 6d6d 03bc
000000b0: 82ec 25bb 8620 4c3b c167 5c3b 4011 4abb
000000c0: df7e 08bc 55c1 cabb 3265 933b 809d 4a3b
000000d0: ba26 e93b e749 5bbb 6654 72bb 191e 873b
000000e0: f68a 493b 7610 0abc ee3c 08bc aa90 53ba
000000f0: cdcd 4c3b e51d dabb fc7e 4c3b 2f8e 59bb

bn2.running_mean f4 [64]
0.3297065 0.31681117 1.0069445 0.6912545 0.48898527 0.32195434 0.4450005 0.27290848
0.43445942 0.53156906 0.19575804 0.35779008 0.6108362 0.5067693 0.45716965 0.893812
0.42332694 0.25359613 0.33558482 0.3946099 0.6619575 0.17344864 0.45577812 0.6110896
0.7268736 0.5871952 0.7074778 0.30720592 0.76603776 0.53539175 0.5349085 0.3674357
0.764199 0.5634647 0.3709388 0.7077415 0.4877001 0.4242039 0.6370595 0.32998067
0.51351196 1.0940481 0.9488006 0.81176907 0.9027537 0.6682748 0.34147784 0.9329767
0.56564695 0.26112813 0.62283885 0.53963375 0.6162995 0.37563354 0.36731848 0.70836973
0.55232185 0.2664262 0.7273634 1.0686282 0.7333218 0.4857562 0.5544279 0.3391123
00000000: 4acf a83e 1335 a23e 8fe3 803f 0ef6 303f
00000010: 475c fa3e 33d7 a43e 1bd7 e33e a9ba 8b3e
00000020: 7771 de3e e914 083f cc74 483e 4330 b73e
00000030: c35f 1c3f a2bb 013f 2412 ea3e ddd0 643f
00000040: 4fbe d83e 5ad7 813e c6d1 ab3e 4f0a ca3e
00000050: 0c76 293f 859c 313e c05b e93e 5e70 1c3f
00000060: 6314 3a3f 6d52 163f 441d 353f 184a 9d3e
00000070: 0d1b 443f 6f0f 093f c3ef 083f 8820 bc3e
00000080: 8ca2 433f 393f 103f b1eb bd3e 8c2e 353f
00000090: d4b3 f93e 4131 d93e 5516 233f 3af3 a83e
000000a0: 8575 033f c509 8c3f 99e4 723f 19d0 4f3f
000000b0: de1a 673f 0f14 2b3f 2fd6 ae3e 90d7 6e3f
000000c0: 3dce 103f 96b2 853e 5e72 1f3f 7025 0a3f
000000d0: cec5 1d3f 0a53 c03e 2b11 bc3e b857 353f
000000e0: f764 0d3f 0469 883e 7d34 3a3f cfc8 883f
000000f0: faba 3b3f 09b5 f83e fdee 0d3f 21a0 ad3e

bn2.running_var f4 [64]
0.7968804 1.1219765 0.8287851 0.26766786 0.33093464 0.5877731 0.5356156 0.29745248
0.7816822 0.28855437 0.3152412 0.60180366 1.1979408 0.51403207 0.3533274 0.91987544
1.8304256 0.67492807 0.15195027 0.2784345 0.540959 0.314095 0.17363973 0.71874416
2.3442261 0.74044317 0.4082394 0.8559378 0.5307999 0.45174575 2.379995 1.6176008
0.7860793 0.46765426 1.8733702 0.85693765 0.48996183 0.2302903 0.6100552 0.7255153
0.50641316 0.8174332 0.62179124 0.8045727 0.78071636 0.41042033 0.8201805 1.1727967
0.2884441 0.17597494 2.0977523 0.57689583 0.604806 1.7535903 1.62759 1.1790285
0.7024548 0.77346265 0.28286594 0.8973987 1.0032654 1.9963131 0.75212467 1.2272457
00000000: 5b00 4c3f ed9c 8f3f 432b 543f c30b 893e
00000010: 4470 a93e 4c78 163f 1b1e 093f b14b 983e
00000020: 531c 483f 66bd 933e 4b67 a13e ce0f 1a3f
00000030: 2056 993f 9b97 033f 54e7 b43e f57c 6b3f
00000040: 634b ea3f 16c8 2c3f da98 1b3e f78e 8e3e
00000050: 4a7c 0a3f 0fd1 a03e 9dce 313e 9eff 373f
00000060: cd07 1640 af8d 3d3f c104 d13e bd1e 5b3f
00000070: 81e2 073f 384b e73e d751 1840 8b0d cf3f
00000080: 7e3c 493f 6170 ef3e 98ca ef3f 4460 5b3f
00000090: 47dc fa3e 38d1 6b3e 942c 1c3f 5fbb 393f
000000a0: 4ba4 013f 4d43 513f b62d 1f3f 7af8 4d3f
000000b0: 07dd 473f 9d22 d23e 59f7 513f 341e 963f
000000c0: f2ae 933e c632 343e 9341 0640 72af 133f
000000d0: 91d4 1a3f a675 e03f de54 d03f 68ea 963f
000000e0: 14d4 333f a601 463f ced3 903e ecbb 653f
000000f0: 006b 803f 3087 ff3f 3e8b 403f 6316 9d3f

conv3.weight f4 [1, 64, 3, 3]
-0.04488246 -0.01890365 0.0025079108 -0.0009312802 0.0041838903 -0.03206395 -0.007068708 -0.020165175
-0.003466035 -0.027630147 -0.03189295 -0.036055893 -0.003618158 -0.0015336571 -0.011463783 -0.030062532
0.011345803 0.012156747 0.02851005 -0.005941864 -0.007168565 -0.012642892 -0.03912478 0.018850101
-0.027156878 -0.030737435 -0.030520353 0.0062562786 -0.014133744 0.00086656807 -0.008448079 0.032806206
0.0029253406 0.0018939276 -0.01633099 -0.022733139 0.044141322 -0.014987343 0.05114789 0.033984423
-0.015830502 0.017163308 -0.023817847 0.010739388 0.027808635 -0.022614105 0.018147662 0.024089755
-0.0013880378 0.026092427 -0.03382566 -0.018508531 0.011475014 0.018833494 0.013327639 0.026329877
-0.03745505 -0.044990364 -0.0059689945 -0.042422373 0.020447612 -0.009546537 0.010523533 -0.02744337
0.03083988 0.0009188384 0.03624988 -0.045220446 -0.010750013 -0.037145548 -0.005435782 0.017375695
0.010670711 0.012269881 0.022403533 -0.022681847 -0.0081954375 0.028385414 -0.00234648 0.026411625
0.029892668 -0.02342178 0.015240131 -0.03316686 0.02337837 0.015500682 -0.03150348 0.0058524814
0.04056051 -0.035921387 -0.023909027 -0.024952514 0.033437714 0.026179302 0.017661508 -0.029540194
-0.01973882 -0.036770254 0.00028105523 0.01357157 0.028313868 -0.015813578 -0.021114264 -0.019313507
0.006742117 0.0031398665 -0.029703112 0.03177938 0.010294499 0.025619855 -0.010083385 -0.029663157
-0.0459448 -0.029414067 0.014787869 -0.014991488 0.02567847 -0.05264359 -0.018066103 -0.023216717
0.01125461 0.02548196 -0.0134325335 0.024695985 -0.033442758 0.03478896 0.03392018 0.033083174
-0.0046099885 0.03126332 -0.045675043 0.019866567 -0.033801485 0.025855368 -0.03149187 -0.028014075
-0.025923321 -0.03542937 -0.01817489 -0.044881493 0.009779562 0.016503291 -0.030422224 -0.035923816
-0.04214029 -0.0072129923 -0.03624884 0.033657704 -0.02972814 -0.00023450924 0.007591627 -0.04427982
-0.040010832 0.010883672 -0.033090953 -0.027593493 -0.020245917 -0.020083524 0.038054552 -0.046982538
-0.04470666 -0.0153321065 0.027012056 0.02695079 -0.0055422727 -0.031613935 0.011285015 0.01216843
0.005550315 -0.023771951 -0.029521432 -0.032693725 0.0044582933 0.03646581 0.010725253 0.04565084
-0.033695795 -0.036840405 0.014234977 0.0026808013 0.03911442 0.013649344 -0.023338748 0.006364632
-0.033820234 0.034100074 -0.0004305704 0.022419963 -0.026940674 0.02602594 -0.008224884 -0.034850914
-0.0231814 0.012558373 0.015919432 0.0024183935 0.0061539453 -0.029184137 -0.009501466 -0.04589534
0.018621095 0.028239587 -0.022985913 0.020556426 0.0056528733 0.0027032378 -0.0025761148 0.024272555
-0.031731244 -0.0010943987 0.0021436582 -0.0094661685 0.011194672 0.02758646 0.006359048 0.02279498
0.02492784 0.016235135 -0.007462024 -0.04901378 0.018787293 0.028575674 -0.020516433 -0.014901523
0.00854682 -0.01662426 0.004576903 -0.012634323 0.007728268 0.03257577 0.04329611 0.033369754
-0.0072576995 -0.025271345 -0.019281378 -0.0055424534 0.025481636 0.027151974 -0.0043771574 0.001382834
-0.0006807848 -0.026068673 -0.042906936 -0.045934666 0.018373108 -0.011219814 0.021297552 -0.04552161
0.020094123 -0.0332355 -0.0028948996 -0.015459581 0.014148273 -0.010129265 0.016155606 0.005729531
00000000: acd6 37bd d4db 9abc c35b 243b 2821 74ba
00000010: 0419 893b 7d55 03bd 9fa0 e7bb 7031 a5bc
00000020: 6b26 63bb 9e58 e2bc 2fa2 02bd 58af 13bd
00000030: 9e1e 6dbb fe04 c9ba 97d2 3bbc b345 f6bc
00000040: bfe3 393c 182d 473c e98d e93c f8b3 c2bb
00000050: 48e6 eabb 2224 4fbc 4e41 20bd 876b 9a3c
00000060: 1a78 debc 13cd fbbc d205 fabc 7801 cd3b
00000070: 3891 67bc 662a 633a d069 0abc cd5f 063d
00000080: 12b7 3f3b aa3d f83a 91c8 85bc d93a babc
00000090: 88cd 343d 798d 75bc 7380 513d 4033 0b3d
000000a0: f8ae 81bc 119a 8c3c a51d c3bc 42f4 2f3c
000000b0: efce e33c 3741 b9bc 68aa 943c e157 c53c
000000c0: d2ee b5ba c9bf d53c c68c 0abd 349f 97bc
000000d0: b201 3c3c b348 9a3c 2b5c 5a3c c1b1 d73c
000000e0: 776a 19bd d147 38bd 8e97 c3bb 15c3 2dbd
000000f0: c081 a73c 1469 1cbc e66a 2c3c ebd0 e0bc
00000100: eba3 fc3c 34de 703a c17a 143d 1339 39bd
00000110: d320 30bc ee25 18bd a51e b2bb 7957 8e3c
00000120: 35d4 2e3c 9c07 493c 9d87 b73c 48cf b9bc
00000130: 2846 06bc 8788 e83c 67c7 19bb 315d d83c
00000140: 78e1 f43c 08df bfbc beb1 793c f9d9 07bd
00000150: ff83 bf3c 93f6 7d3c cb09 01bd 2cc6 bf3b
00000160: c722 263d 4e22 13bd dddc c3bc 3769 ccbc
00000170: fcf5 083d fa75 d63c deae 903c 47fe f1bc
00000180: 4eb3 a1bc 689c 16bd 985a 9339 4a5b 5e3c
00000190: 7cf2 e73c 7a8b 81bc d2f7 acbc 5c37 9ebc
000001a0: faec dc3b 38c6 4d3b f153 f3bc 182b 023d
000001b0: 42aa 283c bbe0 d13c c834 25bc 2600 f3bc
000001c0: 9d30 3cbd c5f5 f0bc d148 723c dc9e 75bc
000001d0: a85b d23c cea0 57bd 5dff 93bc fc30 bebc
000001e0: 4165 383c 8bbf d03c 2114 5cbc 3c4f ca3c
000001f0: 46fb 08bd de7e 0e3d e3ef 0a3d 3982 073d
00000200: 630f 97bb f80d 003d c115 3bbd 36bf a23c
00000210: 6d73 0abd a3ce d33c 9efd 00bd c67d e5bc
00000220: 255d d4bc 631e 11bd 82e3 94bc a8d5 37bd
00000230: 753a 203c e931 873c 0738 f9bc da24 13bd
00000240: 4c9b 2cbd f75a ecbb aa79 14bd a9dc 093d
00000250: 6e88 f3bc 98e6 75b9 2fc3 f83b c25e 35bd
00000260: 66e2 23bd 6e51 323c 618a 07bd c00b e2bc
00000270: c4da a5bc 3486 a4bc 17df 1b3d c370 40bd
00000280: 551e 37bd 8433 7bbc 6348 dd3c e7c7 dc3c
00000290: f49b b5bb 9d7d 01bd c9e4 383c 185e 473c
000002a0: 6bdf b53b 65bd c2bc eed6 f1bc dbe9 05bd
000002b0: e016 923b 2c5d 153d f9b8 2f3c 60fc 3a3d
000002c0: 9a04 0abd f7e5 16bd d239 693c 62b0 2f3b
000002d0: 7136 203d 80a1 5f3c e730 bfbc 678e d03b
000002e0: 1687 0abd 85ac 0b3d 2ebe e1b9 12aa b73c
000002f0: b0b2 dcbc 5a34 d53c aac1 06bc d5bf 0ebd
00000300: ebe6 bdbc a2c1 4d3c 7869 823c e97d 1e3b
00000310: 09a7 c93b 9213 efbc 09ac 1bbc c1fc 3bbd
00000320: 448b 983c b556 e73c f44c bcbc f365 a83c
00000330: bd3b b93b ce28 313b 09d4 28bb 3dd7 c63c
00000340: 9ff8 01bd ed71 8fba 9e7c 0c3b fd17 1bbc
00000350: dc69 373c 00fd e13c 905f d03b 8abc ba3c
00000360: 7835 cc3c 8cff 843c ff83 f4bb acc2 48bd
00000370: cfe7 993c 8817 ea3c 1412 a8bc 8425 74bc
00000380: f607 0c3c 9a2f 88bc d8f9 953b 3100 4fbc
00000390: 693d fd3b 2c6e 053d 4357 313d b9ae 083d
000003a0: ffd1 edbb da05 cfbc fbf3 9dbc 789d b5bb
000003b0: ddbe d03c d16d de3c 426e 8fbb 3640 b53a
000003c0: b276 32ba f88d d5bc 2fbf 2fbd fd25 3cbd
000003d0: 3383 963c 50d3 37bc 3478 ae3c de74 3abd
000003e0: 6e9c a43c f321 08bd 5bb8 3dbb 2f4a 7dbc
000003f0: 28ce 673c 37f5 25bc c358 843c cabe bb3b
