models/CNN_Res_1666706761.669866.pt (torch, 160422 bytes, 13 tensors)

conv1.weight f4 [64, 1, 3, 3]
0.19667143 0.0013669706 -0.033092782 -0.1988767 0.32385352 0.045697913 0.19847326 0.18615468
-0.061387137 -0.14255051 0.2617385 0.24218734 0.005480969 0.29150257 -0.3217092 0.054346215
0.04678361 0.07052777 0.105596565 0.28515142 -0.0678843 0.29389778 0.18569036 0.06574759
-0.32181016 -0.22187556 -0.2802221 -0.23230845 -0.13040112 0.26170522 0.30822587 -0.087381884
0.30036956 -0.27722618 0.15367293 0.15335977 -0.3144375 -0.26462436 0.29213464 0.02711036
-0.20416045 0.11115882 0.31528786 0.29403248 -0.11948774 0.049654547 0.15829314 0.05784253
0.15684067 0.14715202 -0.33723372 0.045834944 0.03152395 -0.037873685 0.26415548 0.091433145
-0.14333658 -0.0031599803 -0.016323196 -0.20416263 -0.12662283 -0.25692958 0.24886385 -0.22447154
0.07487779 0.18306057 0.018521423 -0.3258174 -0.027423196 0.01005115 -0.26627785 -0.2001942
0.23621453 -0.048076253 -0.105462 -0.11705859 -0.23893248 0.28763178 -0.2743174 0.19936022
0.2905951 0.16781695 0.005412723 -0.16270348 -0.044183463 0.258656 -0.31118315 0.00612607
-0.021832287 0.23900382 -0.11583017 0.02022509 0.14109203 0.27279806 0.026804248 -0.17048906
-0.22196652 0.30451044 0.15416642 -0.26372764 -0.1414646 -0.10140842 -0.053744208 0.1193872
-0.069114365 0.14911094 0.13041908 0.31453228 0.3107621 0.1487964 -0.05231624 -0.158611
0.20810248 0.15903261 -0.11614353 -0.21241604 -0.3187769 -0.055754922 -0.24288587 -0.15848403
0.29421553 -0.3142574 -0.19561912 0.025436478 0.27280498 0.06383518 -0.12028119 -0.14882435
-0.04205253 -0.07886969 0.05186307 -0.113108784 0.050985627 0.18451668 -0.2540691 0.25253066
0.24038452 0.32180357 0.1568127 -0.21632966 -0.16879413 0.14751297 0.015458108 0.2290921
0.12786701 -0.26626864 -0.16907413 -0.1658099 0.12472017 0.11274877 0.24457437 -0.049786184
0.04760575 0.26085863 -0.25269353 0.16991948 -0.19447741 0.20336567 -0.2908738 0.124199815
-0.11014944 -0.32662427 0.20023142 -0.11412703 -0.035034344 -0.3149069 -0.021048218 0.26174778
-0.068817854 -0.088277265 0.24958925 0.26056615 0.083111085 -0.3210825 -0.31873798 0.17555958
-0.014504053 0.3148812 0.25998196 0.0006967484 -0.32893446 0.17233965 -0.17147323 -0.29465407
0.31555763 -0.0060574906 0.26178107 0.07712054 0.25130156 -0.10277234 -0.2381174 0.09173912
0.16139926 0.23533116 -0.012114618 0.07276548 0.06991786 0.30045652 -0.10840218 -0.14918661
0.2301003 0.022177225 0.017557729 -0.28910446 0.0064416607 0.064668305 0.31375808 0.31500733
-0.038793463 -0.2075952 0.11219347 -0.09917135 0.054965623 0.012215381 -0.30219305 -0.21954377
-0.27640122 -0.09491429 0.066323884 0.16814178 -0.12286302 0.13957389 -0.26163962 -0.30627823
-0.19569889 -0.19460006 0.19580294 0.22447415 -0.31058353 0.2735858 0.17490798 0.26159024
-0.077699244 0.27662048 -0.30221716 0.16027847 0.24141745 -0.12482574 0.023428898 -0.17313752
0.17401655 -0.06080235 0.183087 0.30281746 0.024792418 0.023208566 -0.14438698 0.040168215
-0.2101789 0.14802118 0.32846573 0.29002008 0.03216127 0.06395362 -0.19729993 -0.09611904
00000000: 3c64 493e ec2b b33a 4c8c 07bd 55a6 4bbe
00000010: 21d0 a53e bc2d 3b3d 933c 4b3e 559f 3e3e
00000020: 1471 7bbd c3f8 11be 9702 863e f5ff 773e
00000030: b399 b33b d33f 953e 11b7 a4be 239a 5e3d
00000040: 2ca0 3f3d dd70 903d 0343 d83d 5eff 913e
00000050: ed06 8bbd c579 963e 9d25 3e3e aca6 863d
00000060: 4dc4 a4be 5933 63be 4579 8fbe 44e2 6dbe
00000070: df87 05be 3afe 853e c8cf 9d3e 46f5 b2bd
00000080: 0aca 993e 97f0 8dbe 705c 1d3e 580a 1d3e
00000090: f4fd a0be d87c 87be ac92 953e 8c16 de3c
000000a0: 700f 51be 3ca7 e33d 696d a13e 6d8b 963e
000000b0: fdb5 f4bd 9162 4b3d 9917 223e 4aec 6c3d
000000c0: d79a 203e 05af 163e e6a9 acbe 6cbd 3b3d
000000d0: 421f 013d 7021 1bbd 633f 873e 4d41 bb3d
000000e0: d3c6 12be ac17 4fbb 39b8 85bc 0210 51be
000000f0: 6aa9 01be 468c 83be 2ad6 7e3e dedb 65be
00000100: 8759 993d 3b74 3b3e 3dba 973c 8ad1 a6be
00000110: 9ca6 e0bc 94ad 243c 9255 88be b5ff 4cbe
00000120: 39e2 713e 9beb 44bd 76fc d7bd 6abc efbd
00000130: b7aa 74be 7944 933e 5573 8cbe 1625 4c3e
00000140: e2c8 943e 35d8 2b3e 365d b13b be9b 26be
00000150: b8f9 34bd 8f6e 843e 6653 9fbe 33bd c83b
00000160: a0d9 b2bc 6bbd 743e 5e38 edbd 17af a53c
00000170: 6e7a 103e 30ac 8b3e 9594 db3c af94 2ebe
00000180: 314b 63be cbe8 9b3e cddd 1d3e 4f07 87be
00000190: 19dc 10be 38af cfbd e322 5cbd 4781 f43d
000001a0: d58b 8dbd 8ab0 183e 948c 053e 600a a13e
000001b0: 361c 9f3e 155e 183e 8e49 56bd ec6a 22be
000001c0: d118 553e 72d9 223e a9dc edbd 9783 59be
000001d0: ba36 a3be 465f 64bd 13b7 78be a349 22be
000001e0: 6ba3 963e 59e6 a0be 6150 48be 2960 d03c
000001f0: 18ad 8b3e 05bc 823d fc55 f6bd 6965 18be
00000200: 463f 2cbd 6f86 a1bd 5f6e 543d 94a5 e7bd
00000210: 4ed6 503d f1f1 3c3e 5815 82be b34b 813e
00000220: 5c27 763e 70c3 a43e 8293 203e 8685 5dbe
00000230: 5ed8 2cbe a40d 173e 0144 7d3c 1f97 6a3e
00000240: 92ef 023e 5d54 88be c521 2dbe 12ca 29be
00000250: 4a6d ff3d d4e8 e63d b471 7a3e 99ec 4bbd
00000260: 3ffe 423d 438f 853e 0c61 81be 5fff 2d3e
00000270: 1625 47be 173f 503e 69ed 94be 795c fe3d
00000280: 0896 e1bd 4c3b a7be 7709 4d3e 6fbb e9bd
00000290: 2c80 0fbd 7a3b a1be 506d acbc ce03 863e
000002a0: 60f0 8cbd b6ca b4bd 5394 7f3e ed68 853e
000002b0: 2536 aa3d ed64 a4be a031 a3be e4c5 333e
000002c0: 68a2 6dbc 1c38 a13e 5b1c 853e fea5 363a
000002d0: 196a a8be ce79 303e ae96 2fbe e6dc 96be
000002e0: c590 a13e ea7d c6bb 2b08 863e 60f1 9d3d
000002f0: 99aa 803e 4e7a d2bd 0cd5 73be b8e1 bb3d
00000300: d945 253e a7fa 703e 647c 46bc 1106 953d
00000310: 1831 8f3d 70d5 993e f601 debd 60c4 18be
00000320: 6a9f 6b3e 03ad b53c 3ad5 8f3c 8005 94be
00000330: 9114 d33b d170 843d e6a4 a03e a448 a13e
00000340: e5e5 1ebd d693 54be b1c5 e53d 591a cbbd
00000350: a223 613d 0523 483c 0cb9 9abe 15d0 60be
00000360: 7684 8dbe 6c62 c2bd d1d4 873d 5c2d 2c3e
00000370: 9b9f fbbd 75ec 0e3e a1f5 85be 80d0 9cbe
00000380: 4a65 48be 3d45 47be 9180 483e 8ddc 653e
00000390: ce04 9fbe 7013 8c3e 141b 333e 28ef 853e
000003a0: c820 9fbd 33a1 8d3e 35bc 9abe 0a20 243e
000003b0: 2336 773e a3a4 ffbd f6ed bf3c f64a 31be
000003c0: 6531 323e e30b 79bd 297b 3b3e e40a 9b3e
000003d0: 7819 cb3c e41f be3c 2eda 13be 6d87 243d
000003e0: 2339 57be dd92 173e a92c a83e 837d 943e
000003f0: 89bb 033d 1efa 823d fe08 4abe 0fda c4bd

conv1.bias f4 [64]
-0.17922296 0.015249342 0.26067084 0.24151132 -0.32644674 -0.16362044 -0.054595087 0.10982583
0.17546612 0.20188832 0.3048405 -0.1902146 -0.21551406 -0.11630198 -0.101046585 0.11633868
-0.32182273 0.07321732 -0.3309167 0.26997846 0.0076148896 -0.031109674 -0.12859397 0.06273111
-0.30808797 0.1527801 -0.23981209 -0.030568546 0.10465014 -0.19714192 -0.028631896 -0.0664329
-0.31847945 0.3007591 -0.07966192 -0.076931156 -0.30967396 -0.0035280886 0.0067960406 0.29722196
-0.30414814 -0.29118165 -0.18960911 -0.2841806 0.29360756 -0.2564714 0.20535597 0.12731786
-0.16500615 -0.33193073 0.009072617 -0.12090259 0.28664607 0.32135254 -0.22352947 -0.11437636
-0.03297481 0.18209374 -0.23464952 0.021846753 -0.1701728 0.13864583 0.28322333 -0.2798187
00000000: 3986 37be 60d8 793c a676 853e be4e 773e
00000010: 0724 a7be 1e8c 27be 199f 5fbd 5dec e03d
00000020: 64ad 333e d0bb 4e3e 0e14 9c3e 9ec7 42be
00000030: b8af 5cbe bc2f eebd 83f1 cebd f942 ee3d
00000040: f3c5 a4be f6f2 953d ea6d a9be 9e3a 8a3e
00000050: 5386 f93b b7d9 febc 23ae 03be 2b79 803d
00000060: b5bd 9dbe 6372 1c3e 4d91 75be e36a fabc
00000070: d052 d63d 92df 49be 708d eabc f90d 88bd
00000080: bd0f a3be 19fd 993e ca25 a3bd 158e 9dbd
00000090: 968d 9ebe 8137 67bb 52b1 de3b 7a2d 983e
000000a0: 4eb9 9bbe c315 95be e428 42be 1f80 91be
000000b0: bb53 963e 3850 83be d648 523e 9d5f 023e
000000c0: 5ff7 28be d3f2 a9be 50a5 143c c79b f7bd
000000d0: 46c3 923e 5288 a43e e9e4 64be 273e eabd
000000e0: 9810 07bd c876 3a3e f747 70be f6f7 b23c
000000f0: c741 2ebe 2cf9 0d3e a602 913e 6644 8fbe

bn1.weight f4 [64]
0.99087924 1.004356 0.99435675 1.0036452 1.0072136 1.0045546 1.0044937 0.99448806
0.9987185 1.0015463 1.000799 0.9983493 1.0042827 0.9982964 0.9844838 1.0006965
1.0104221 1.000939 1.0023084 0.9904973 0.9921614 0.9979682 1.0070776 1.0145632
1.0031275 1.0005963 1.005406 0.99954647 1.00929 1.0134171 0.99099284 0.9890119
1.002981 1.0006179 1.0004987 0.99783504 1.0041254 0.99511063 0.9891708 1.001062
0.99817693 1.0088916 1.0064205 1.010863 1.0018501 1.0113993 1.0108837 1.0004045
0.99697614 1.0056714 0.9841583 1.0033748 1.0109028 1.003902 1.0050633 0.99830025
0.998723 1.0161142 1.0021424 0.99915326 1.0060471 0.990893 0.9951828 0.990573
00000000: 43aa 7d3f bd8e 803f 2a8e 7e3f 7277 803f
00000010: 60ec 803f 3f95 803f 4093 803f c596 7e3f
00000020: 04ac 7f3f ab32 803f 2e1a 803f d293 7f3f
00000030: 568c 803f 5a90 7f3f 2107 7c3f d316 803f
00000040: 8355 813f c51e 803f a44b 803f 3b91 7d3f
00000050: 4afe 7d3f d87a 7f3f ebe7 803f 35dd 813f
00000060: 7b66 803f 8a13 803f 25b1 803f 47e2 7f3f
00000070: 6a30 813f a7b7 813f b5b1 7d3f e22f 7d3f
00000080: ae61 803f 3f14 803f 5710 803f 1e72 7f3f
00000090: 2e87 803f 92bf 7e3f 4c3a 7d3f cd22 803f
000000a0: 8688 7f3f 5c23 813f 63d2 803f f563 813f
000000b0: a03c 803f 8875 813f a364 813f 410d 803f
000000c0: d439 7f3f d7b9 803f ccf1 7b3f 966e 803f
000000d0: 4365 813f dc7f 803f eaa5 803f 9b90 7f3f
000000e0: 4fac 7f3f 0810 823f 3446 803f 82c8 7f3f
000000f0: 27c6 803f 2aab 7d3f 4dc4 7e3f 3196 7d3f

bn1.bias f4 [64]
0.00057479966 -0.0044385833 -0.0054372535 0.006293618 -0.0072822003 0.017054683 -0.011835107 0.0043978808
0.00084121665 0.017579298 0.00230738 -0.0026104478 0.007772211 -0.0104337 0.011469096 0.017179633
-0.007259185 -0.00250601 -0.0056190845 0.007056411 0.012751772 -0.009167128 0.0073649506 -0.01365003
-0.0111929225 0.0032805642 -0.009806791 0.004920694 -0.011200396 0.004206215 -0.00066315295 0.0051525314
0.0055619692 -0.0013675676 -0.008030066 0.0049712034 -0.0058416626 -0.009654558 0.0065258136 -0.009730003
-0.008359734 -0.0068319445 -0.0075530936 -0.0033616654 -0.009496566 -0.013179518 0.005069075 0.0037442928
0.0080916835 -0.011328521 0.0048838505 0.0039209477 0.010713422 -0.004081574 0.018717444 -0.006129516
0.0021301433 -0.011167271 0.0011190705 0.005415515 0.007928628 -0.0045369323 -0.007963591 0.012871095
00000000: 27ae 163a 8971 91bb fd2a b2bb b23a ce3b
00000010: 869f eebb 43b6 8b3c 09e8 41bc 191c 903b
00000020: 1885 5c3a 7602 903c 6a37 173b 0c14 2bbb
00000030: 08ae fe3b 1cf2 2abc e0e8 3b3c 4dbc 8c3c
00000040: 75de edbb df3b 24bb 4c20 b8bb 7739 e73b
00000050: cfec 503c b931 16bc af55 f13b 60a4 5fbc
00000060: 8562 37bc bcfe 563b aaac 20bc c63d a13b
00000070: de81 37bc 4ad4 893b 71d7 2dba 91d6 a83b
00000080: 2e41 b63b f43f b3ba 8a90 03bc 7ae5 a23b
00000090: 6b6b bfbb 272e 1ebc 7ed6 d53b 976a 1fbc
000000a0: 44f7 08bc 81de dfbb f17f f7bb 634f 5cbb
000000b0: 7c97 1bbc e8ee 57bc 7c1a a63b cf62 753b
000000c0: fb92 043c 439b 39bc b508 a03b 4b7b 803b
000000d0: 5987 2f3c b9be 85bb 5355 993c 1bda c8bb
000000e0: e099 0b3b eef6 36bc c6ad 923a a274 b13b
000000f0: 13e7 013c 8caa 94bb b979 02bc 49e1 523c

bn1.running_mean f4 [64]
0.010927668 0.04163935 0.25281596 0.18394795 0.0005610354 0.0021467197 0.011931808 0.23087811
0.13950239 0.1839625 0.23995325 0.00310603 0.0027965386 0.018831952 0.038452268 0.110256836
2.2799308e-05 0.14354424 9.940077e-05 0.2168184 0.0333556 0.03601519 0.001056314 0.12805429
0.025266422 0.12460486 0.0001440149 0.04791008 0.22053678 0.00023207002 0.058686424 0.013290459
1.2944474e-06 0.23191303 0.002032049 0.060654905 0.0023099596 0.014905694 0.032194916 0.2737668
0.07220035 0.0015124548 0.0034917581 0.0060496735 0.32740447 0.0008317576 0.16148564 0.09468191
0.013767627 0.009384667 0.061254594 0.010537484 0.27174503 0.44915774 0.00015884615 0.0014502828
0.24215028 0.21432407 0.011487152 0.028486542 0.00080929854 0.099617586 0.30964306 0.009851556
00000000: f609 333c 068e 2a3d 1871 813e da5c 3c3e
00000010: 7312 133a fbaf 0c3b a17d 433c 506b 6c3e
00000020: b7d9 0e3e aa60 3c3e 4eb6 753e 898e 4b3b
00000030: 2246 373b 7745 9a3c 2080 1d3d 56ce e13d
00000040: 2441 bf37 43fd 123e 6275 d038 a505 5e3e
00000050: e29f 083d aa84 133d 0474 8a3a aa20 033e
00000060: 87fb ce3c d530 ff3d b502 1739 5c3d 443d
00000070: 65d4 613e d257 7339 2d61 703d 3ac0 593c
00000080: e0bc ad35 9c7a 6d3e 202c 053b 4771 783d
00000090: b162 173b 0337 743c d1de 033d 292b 8c3e
000000a0: c7dd 933d 903d c63a fbd5 643b 573c c63b
000000b0: 8fa1 a73e 4f0a 5a3a 7e5c 253e 97e8 c13d
000000c0: 9d91 613c 25c2 193c 19e6 7a3d 69a5 2c3c
000000d0: 2a22 8b3e 01f8 e53e f08f 2639 6a17 be3a
000000e0: 3ef6 773e c577 5b3e 9c34 3c3c 9c5c e93c
000000f0: 1b27 543a 4e04 cc3d 8989 9e3e 6c68 213c

bn1.running_var f4 [64]
0.017056627 0.020698728 0.025022792 0.03162094 0.014867001 0.01500419 0.015773019 0.04029604
0.022634225 0.018525923 0.029466357 0.015403585 0.015359334 0.017213568 0.017569512 0.040545452
0.014782438 0.025724297 0.0147904195 0.0314596 0.019201396 0.021153038 0.01487071 0.024044968
0.018050576 0.040336434 0.014793746 0.025616819 0.037292875 0.014801268 0.018935261 0.016549636
0.014780925 0.036480166 0.014957639 0.021617042 0.015009464 0.015699992 0.018421518 0.021376891
0.026184615 0.015085133 0.015281872 0.0154714575 0.023003003 0.014887239 0.025045447 0.02273471
0.016421523 0.015842078 0.028020341 0.015611309 0.020030428 0.067562826 0.014796119 0.014914959
0.05980035 0.02288699 0.017488047 0.016778553 0.014888692 0.025661873 0.024351746 0.017254662
00000000: 57ba 8b3c 6190 a93c 99fc cc3c f584 013d
00000010: b994 733c 22d4 753c 6b36 813c 760d 253d
00000020: 696b b93c adc3 973c 6e63 f13c 515f 7c3c
00000030: b7a5 7b3c 7803 8d3c f0ed 8f3c fd12 263d
00000040: 0a32 723c c3bb d23c 8453 723c c8db 003d
00000050: 3f4c 9d3c 2349 ad3c 47a4 733c f4f9 c43c
00000060: cdde 933c d137 253d 7861 723c 5dda d13c
00000070: 6ac0 183d 0481 723c 1f1e 9b3c 1a93 873c
00000080: b12b 723c 3a6c 153d e310 753c 3916 b13c
00000090: 41ea 753c 459d 803c b9e8 963c 971e af3c
000000a0: 1e81 d63c a227 773c d160 7a3c ff7b 7d3c
000000b0: cb70 bc3c 9be9 733c 1c2c cd3c 243e ba3c
000000c0: 6e86 863c 3fc7 813c ea8a e53c 93c6 7f3c
000000d0: da16 a43c 615e 8a3d 6c6b 723c df5d 743c
000000e0: 36f1 743d 7f7d bb3c 1843 8f3c 2d73 893c
000000f0: b3ef 733c d938 d23c 507d c73c a659 8d3c

conv2.weight f4 [64, 64, 3, 3]
-0.04083902 0.036264915 -0.023868278 0.02081187 0.029188773 0.010184802 0.017752083 -0.0486508
0.017920867 -0.01472281 0.028618122 -0.013387077 -0.006064784 0.0123093035 -0.019206032 -0.01827011
0.021567013 0.014345108 0.031137647 0.015921775 0.016045844 -0.032790143 -0.009959656 0.023188153
0.034195118 0.0014530496 0.02559311 -0.032405913 -0.038179178 -0.04422683 -0.029364435 -0.03186219
0.022378098 0.011761967 -0.03530929 -0.038468868 -0.042489924 0.0008454424 -0.040144704 -0.026294453
0.013112687 0.014041272 -0.021705462 0.040313378 -0.026315972 -0.024083635 -0.046598133 -0.029049788
0.0006898687 -0.019664494 -0.026816662 -0.00649427 0.03409912 -0.00028286624 0.02293211 0.03226322
-0.0039478065 0.00130268 2.2661989e-05 0.018685456 0.01714623 -0.024930134 -0.0068156305 0.043384004
-0.020755176 -0.019048644 0.005755425 0.012714577 -0.01873978 0.007461519 0.0041754367 0.0089694485
-0.03136049 0.013337336 -0.022721525 0.013844049 -0.056455765 0.007156578 -0.0490498 -0.0547829
-0.005551154 -0.052909326 -0.040013745 -0.016994346 -0.005553267 -0.045904297 0.022843314 -0.043831456
-0.005943329 -0.041787878 -0.040065333 0.031309154 -0.004452756 -0.003265758 -0.057755522 -0.048618905
0.018631587 0.0015773424 0.0021279738 0.011174932 -0.02430675 0.015066167 0.040421356 -0.025860868
0.016323786 0.019243997 -0.0040717167 -0.012871081 -0.023296075 0.0006050805 0.004674346 -0.0316803
0.05058736 0.026574505 -0.029314652 -0.02304636 -0.007332298 -0.026957413 -0.022539636 0.0062316577
0.037526216 -0.015748741 -0.042895585 -0.025559824 -0.005195637 0.039937466 0.023442095 0.02712031
0.023143498 -0.03656068 0.033922017 0.030974692 0.02808819 -0.01486797 0.028624559 0.043178983
-0.00053760916 -0.040869623 0.009826781 -0.01983098 -0.03694199 0.012814417 0.014308258 0.032884527
-0.020964094 0.007438434 -0.013963854 0.024537273 -0.027726531 -0.01165095 -0.01706996 -0.03760441
-0.047353312 0.016175276 0.01620998 0.026346192 -0.010097505 0.019377112 -0.007501726 -0.008749454
0.00019910812 -0.0048987474 0.0441077 0.03354129 -0.0018245263 -0.01636104 -0.011207186 0.02180109
0.033624027 0.024655858 -0.040833425 0.023785505 -0.010513345 0.01714554 0.0039395005 0.0059528095
-0.042023014 0.0016298608 0.0067207604 0.0068792636 -0.013295733 -0.016330102 0.023210455 0.012691745
-0.02100092 0.018422168 -0.013766842 -0.027621442 0.031963915 -0.011428139 -0.0068533598 -0.017579047
-0.0011644996 0.0072347024 -0.035351638 0.0060337083 0.028748855 0.024166249 0.034996573 -0.018615244
0.01576132 -0.022794534 0.019091846 -0.009290627 -0.03675462 -0.0011272322 0.024908831 -0.016109869
-0.016191637 0.051577862 -0.030606642 0.038571812 -0.013578069 -0.02601297 -0.034026958 0.011103635
0.0021088473 -0.041666843 0.03392233 0.030114742 0.030350223 0.029337533 0.03608398 -0.005684085
-0.030274289 -0.04221049 -0.029704211 0.029918674 -0.01609646 -0.0283031 0.014580306 -0.024935575
0.014956515 -0.037544742 -0.018936442 -0.03871841 -0.020817908 -0.019790744 -0.004232136 0.032095086
0.036009017 0.0073822504 -0.020754058 -0.00041971332 -0.026469683 -0.022752782 0.019222522 -0.0026849634
0.008542335 0.00060771685 -0.030697849 0.023466779 0.029617796 0.025955323 -0.0103223175 0.041883837
00000000: d146 27bd 858a 143d 6887 c3bc a87d aa3c
00000010: 4b1d ef3c 28de 263c d16c 913c 1046 47bd
00000020: c8ce 923c f137 71bc 8d70 ea3c 7855 5bbc
00000030: 18bb c6bb f6ac 493c f855 9dbc 33ab 95bc
00000040: 4ead b03c be07 6b3c 6114 ff3c 626e 823c
00000050: 9372 833c f54e 06bd d32d 23bc 15f5 bd3c
00000060: 2e10 0c3d 4174 be3a a4a8 d13c 10bc 04bd
00000070: c561 1cbd 3127 35bd af8d f0bc ee81 02bd
00000080: 4652 b73c 44b5 403c 79a0 10bd 8891 1dbd
00000090: ea09 2ebd aea0 5d3a c66e 24bd 7767 d7bc
000000a0: 98d6 563c 5d0d 663c a7cf b1bc a41f 253d
000000b0: 9894 d7bc 0b4b c5bc afdd 3ebd d2f9 edbc
000000c0: 4ed8 343a 6f17 a1bc 9eae dbbc e3cd d4bb
000000d0: 85ab 0b3d aa4d 94b9 1fdc bb3c 7026 043d
000000e0: 9a5c 81bb b0be aa3a 401a be37 3e12 993c
000000f0: 4076 8c3c 483a ccbc a755 dfbb 6db3 313d
00000100: c206 aabc e70b 9cbc 0198 bc3b cd50 503c
00000110: 2b84 99bc c27f f43b 1ad2 883b 98f4 123c
00000120: db73 00bd d784 5a3c 7e22 babc 26d2 623c
00000130: 293e 67bd ba81 ea3b 71e8 48bd 0964 60bd
00000140: 74e6 b5bb 73b7 58bd 74e5 23bd ba37 8bbc
00000150: 2ef8 b5bb 2506 3cbd e721 bb3c 9d88 33bd
00000160: 42c0 c2bb c429 2bbd 8c1b 24bd 073e 003d
00000170: 6de8 91bb 5406 56bb 0e91 6cbd 9e24 47bd
00000180: 45a1 983c d4be ce3a 7a75 0b3b 1017 373c
00000190: f31e c7bc 16d8 763c dd90 253d 2cda d3bc
000001a0: 76b9 853c 96a5 9d3c 096c 85bb 3ae1 52bc
000001b0: 69d7 bebc 449e 1e3a 422b 993b 34c3 01bd
000001c0: b134 4f3d c7b2 d93c 4825 f0bc b8cb bcbc
000001d0: c643 f0bb cbd5 dcbc 0ba5 b8bc ef32 cc3b
000001e0: 17b5 193d 8103 81bc 48b3 2fbd d662 d1bc
000001f0: 2940 aabb 7895 233d a309 c03c 6a2b de3c
00000200: 6f97 bd3c a7c0 15bd d0f1 0a3d a3be fd3c
00000210: 3419 e63c c998 73bc 0d7e ea3c 72dc 303d
00000220: 57ee 0cba e866 27bd 8200 213c 9474 a2bc
00000230: 7c50 17bd 8ff3 513c 2f6d 6a3c edb1 063d
00000240: e4bc abbc 1bbe f33b a6c8 64bc 6402 c93c
00000250: c022 e3bc a0e3 3ebc 4dd6 8bbc 1507 1abd
00000260: 8cf5 41bd 0382 843c cbca 843c f8d3 d73c
00000270: 0170 25bc c0bc 9e3c 0ad1 f5bb df59 0fbc
00000280: aec7 5039 ac85 a0bb 47aa 343d 9762 093d
00000290: f224 efba 9607 86bc 589e 37bc 3398 b23c
000002a0: 59b9 093d 15fb c93c f340 27bd d2d9 c23c
000002b0: 2a40 2cbc ce74 8c3c ed16 813b c90f c33b
000002c0: 5320 2cbd 0ea1 d53a d339 dc3b 726b e13b
000002d0: 59d6 59bc b5c6 85bc da23 be3c 09f1 4f3c
000002e0: 1f0a acbc 16ea 963c 528e 61bc 5d46 e2bc
000002f0: 98ec 023d 173d 3bbc 2692 e0bb ef01 90bc
00000300: 1fa2 98ba 1511 ed3b e1cc 10bd 6ab6 c53b
00000310: b882 eb3c 4cf8 c53c 9158 0f3d ff7e 98bc
00000320: e21d 813c 9abb babc 8166 9c3c b737 18bc
00000330: 038c 16bd a3bf 93ba 9b0d cc3c d8f8 83bc
00000340: 53a4 84bc 4f43 533d c8ba fabc 7afd 1d3d
00000350: 8d76 5ebc 2719 d5bc da5f 0bbd 05ec 353c
00000360: 9634 0a3b daaa 2abd 24f2 0a3d 31b3 f63c
00000370: 08a1 f83c 4455 f03c cccc 133d 9041 babb
00000380: c901 f8bc e8e4 2cbd 3f56 f3bc 0218 f53c
00000390: b9dc 83bc e7db e7bc 3ce2 6e3c b145 ccbc
000003a0: 2c0c 753c 84c8 19bd 9920 9bbc 3297 1ebd
000003b0: 518a aabc 3320 a2bc bbad 8abb 2376 033d
000003c0: 317e 133d cee6 f13b 6a04 aabc f80c dcb9
000003d0: f3d6 d8bc 0b64 babc 8d78 9d3c 36f6 2fbb
000003e0: 26f5 0b3c 304f 1f3a 0e7a fbbc 673d c03c
000003f0: 05a1 f23c 42a0 d43c f01e 29bc 638e 2b3d

conv2.bias f4 [64]
0.0090406975 -0.051832452 -0.04386859 -0.012369514 -0.035285853 0.02411522 0.03009091 0.02491
0.027291697 -0.00726685 0.012699292 -0.054907244 0.024102513 0.026528502 -0.03375199 0.010333835
-0.014400038 -0.0029603518 -0.009736668 -0.039423577 -0.020328334 0.0037476344 0.032507647 0.010617371
0.00010423291 -0.03753702 -0.028560584 -0.02278295 0.013073089 -0.003824758 -0.024548195 -0.018528141
-0.04557969 -0.00044769817 -0.005865745 -0.004637629 -0.03255431 0.018815633 -0.03335124 0.023192065
-0.046091463 0.04013182 -0.027481675 0.025282428 0.011188073 -0.0040959287 -0.010847352 -0.035574105
-0.0065520206 0.004740258 -0.016969899 0.007974559 -0.016251499 -0.030009257 -0.033055745 -0.012276265
-0.04467425 0.014996245 -0.004745655 0.012854253 0.028185414 0.034307614 0.0218056 -0.06241351
00000000: 6f1f 143c 444e 54bd 8daf 33bd 81a9 4abc
00000010: e687 10bd 488d c53c 3681 f63c 0e10 cc3c
00000020: d692 df3c c21e eebb b110 503c 6be6 60bd
00000030: a272 c53c 4d52 d93c 873f 0abd 3f4f 293c
00000040: 23ee 6bbc 7602 42bb 8c86 1fbc 9e7a 21bd
00000050: 9b87 a6bc df9a 753b bd26 053d 7bf4 2d3c
00000060: 9e97 da38 6bc0 19bd e3f7 e9bc 4fa3 babc
00000070: 8230 563c cba8 7abb 4c19 c9bc 54c8 97bc
00000080: c5b1 3abd 08b9 eab9 6f35 c0bb 40f7 97bb
00000090: ab57 05bd 3e23 9a3c 4f9b 08bd 49fd bd3c
000000a0: 67ca 3cbd 4361 243d 4021 e1bc 181d cf3c
000000b0: 2e4e 373c 2437 86bb 18b9 31bc 27b6 11bd
000000c0: 55b2 d6bb 2b54 9b3b 7504 8bbc baa7 023c
000000d0: dd21 85bc f9d5 f5bc 7665 07bd 6322 49bc
000000e0: 59fc 36bd cfb2 753c 7181 9bbb a59a 523c
000000f0: 19e5 e63c 2486 0c3d a8a1 b23c 4fa5 7fbd

bn2.weight f4 [64]
1.004168 1.0062085 1.0205312 0.99787045 0.9960377 0.99557394 0.99285316 1.0065818
0.9916194 0.99963677 0.9933777 1.0124015 1.0002395 0.99831533 0.9925985 0.99348074
1.0001866 0.99934983 1.0010616 1.0031965 1.0051757 1.0029148 0.99015707 1.0009521
0.9998018 0.9979688 0.9930847 0.9959075 1.0013691 1.0080268 0.99111706 0.99904203
0.99186313 0.99863195 1.0060256 0.9947847 1.0157913 1.0116533 0.9959936 1.0006717
1.0131572 0.9913978 1.0097805 0.99513626 1.0026624 0.9978608 0.99811107 0.9949214
1.0007846 1.0064887 0.9960337 0.98768425 0.99546635 1.0025021 0.98601097 0.9920104
1.0135708 1.0081757 1.0001183 0.9944522 1.0008267 1.0090106 1.0128307 0.99557203
00000000: 9488 803f 71cb 803f c4a0 823f 7074 7f3f
00000010: 54fc 7e3f efdd 7e3f a02b 7e3f acd7 803f
00000020: c5da 7d3f 32e8 7f3f 004e 7e3f 5f96 813f
00000030: d907 803f 9891 7f3f ef1a 7e3f c154 7e3f
00000040: 1d06 803f 64d5 7f3f c922 803f be68 803f
00000050: 99a9 803f 835f 803f ef7a 7d3f 331f 803f
00000060: 03f3 7f3f e27a 7f3f cd3a 7e3f cbf3 7e3f
00000070: dd2c 803f 0607 813f d9b9 7d3f 38c1 7f3f
00000080: beea 7d3f 58a6 7f3f 72c5 803f 36aa 7e3f
00000090: 7305 823f db7d 813f 70f9 7e3f 0316 803f
000000a0: 23af 813f 3fcc 7d3f 7d40 813f 40c1 7e3f
000000b0: 3e57 803f ce73 7f3f 3584 7f3f 2bb3 7e3f
000000c0: b619 803f 9fd4 803f 11fc 7e3f e0d8 7c3f
000000d0: e2d6 7e3f fd51 803f 376b 7c3f 65f4 7d3f
000000e0: b0bc 813f e70b 813f e003 803f 6b94 7e3f
000000f0: 171b 803f 4227 813f 70a4 813f cfdd 7e3f

bn2.bias f4 [64]
-0.014682641 -0.014767259 -0.014489723 -0.014829638 -0.0074366555 0.014692238 0.008110918 -0.00391589
0.0059852144 0.014712842 0.014680408 -0.005254165 0.014770228 -0.014538219 0.006091701 0.014624084
-0.014885808 -0.0017493344 -0.006354202 -0.014643018 -0.0033948212 -0.014757452 0.01446259 -0.014488607
-0.014738732 0.014882 -0.014739892 0.014652707 -0.014765937 -0.0068953484 -0.014834889 0.015093816
0.014567424 -0.0148864435 -0.014501429 0.014595186 -0.013624956 -0.014847714 -0.014913275 -0.014995717
-0.014656769 0.0034827203 -0.01456785 -0.0148324305 -0.01478276 -0.014722784 0.014615587 0.014650923
0.014748264 -0.01460901 0.004914666 0.006340643 0.014693317 -0.014698405 0.0146881975 0.014773118
-0.01458468 -0.01455819 0.01012764 0.0144424075 -0.013663031 0.0020470428 -0.0018563699 0.014741361
00000000: 768f 70bc 60f2 71bc 4e66 6dbc 03f8 72bc
00000010: 30af f3bb b6b7 703c a8e3 043c de50 80bb
00000020: 9e1f c43b 220e 713c 1886 703c 212b acbb
00000030: d4fe 713c b631 6ebc e49c c73b db99 6f3c
00000040: 9be3 73bc ec49 e5ba e936 d0bb 45e9 6fbc
00000050: a67b 5ebb 3dc9 71bc 80f4 6c3c 9f61 6dbc
00000060: b97a 71bc a2d3 733c 977f 71bc e811 703c
00000070: d4ec 71bc 60f2 e1bb 090e 73bc 0e4c 773c
00000080: 34ac 6e3c 45e6 73bc 6797 6dbc a620 6f3c
00000090: 353b 5fbc d443 73bc cf56 74bc 99b0 75bc
000000a0: f222 70bc 5a3e 643b fead 6ebc b903 73bc
000000b0: 6433 72bc d537 71bc 3776 6f3c 6d0a 703c
000000c0: b4a2 713c a15a 6fbc 350b a13b 2bc5 cf3b
000000d0: 3dbc 703c 94d1 70bc c4a6 703c f30a 723c
000000e0: 95f4 6ebc 7985 6ebc 67ee 253c d99f 6c3c
000000f0: e8da 5fbc ae27 063b 7051 f3ba c085 713c

bn2.running_mean f4 [64]
0.52086705 0.22865169 0.6272908 0.56826746 0.19743577 0.6606221 0.419279 0.67295116
0.41875708 0.3490483 0.30020735 0.16567189 0.91868764 0.46961468 0.39417827 0.29770777
0.23174937 0.6172742 0.5066336 0.28333694 0.4641891 0.31343243 0.49884316 0.5462899
0.5894991 0.31481045 0.40925118 0.56842417 0.64215314 0.36968425 0.308732 0.24350764
0.5181573 0.30866435 0.69897115 0.3122566 0.35602486 0.2285882 0.35839382 0.32095736
0.22819914 0.6778162 0.34130743 0.32816374 0.3613572 0.23379236 0.37449825 0.606895
0.44557008 0.2466947 0.73246956 0.74660325 0.22362655 0.36277473 0.22831963 0.54139036
0.36506635 0.5135828 0.19689229 0.49071598 0.8708322 0.43822914 0.60065114 0.57335705
00000000: 8b57 053f ab23 6a3e 2196 203f fa79 113f
00000010: 9a2c 4a3e 881e 293f bdab d63e 8746 2c3f
00000020: 5467 d63e 75b6 b23e c7b4 993e e4a5 293e
00000030: 1d2f 6b3f 5671 f03e bcd1 c93e 276d 983e
00000040: b54f 6d3e af05 1e3f bdb2 013f 8a11 913e
00000050: 32aa ed3e 377a a03e 5f68 ff3e a8d9 0b3f
00000060: 6ae9 163f d62e a13e 5f89 d13e 3f84 113f
00000070: 2664 243f 4147 bd3e 1f12 9e3e 115a 793e
00000080: f5a5 043f 4109 9e3e c6ef 323f 19e0 9f3e
00000090: e448 b63e 0613 6a3e 657f b73e 8654 a43e
000000a0: 09ad 693e 5d85 2d3f d9bf ae3e 1405 a83e
000000b0: d003 b93e 4467 6f3e 3cbe bf3e 795d 1b3f
000000c0: c321 e43e 899d 7c3e 2083 3b3f 6421 3f3f
000000d0: 5cfe 643e 9cbd b93e 9fcc 693e 8f98 0a3f
000000e0: fae9 ba3e 2a7a 033f 229e 493e 203f fb3e
000000f0: dcee 5e3f 925f e03e 46c4 193f 87c7 123f

bn2.running_var f4 [64]
0.69651216 0.192971 0.7631862 0.46598467 0.24675113 2.1446443 1.3628606 0.7432292
0.8319533 0.2176791 0.38558173 0.2196571 0.5582209 0.69833213 1.0530986 0.22932598
0.39319125 0.4504602 0.4130385 0.3949408 0.44221905 0.29527137 0.4681441 0.3840618
0.44137806 0.678851 0.3890872 1.8054215 0.4072178 0.37432578 0.62967974 0.2340639
1.6345755 0.42327946 0.9124898 0.6817756 0.26823348 0.40525922 0.26498932 0.38489464
0.2834534 0.68251455 0.31553042 0.2667476 0.4531131 0.37260485 0.5591033 1.7082908
0.6567324 0.50447726 0.5812637 0.60428315 0.109701894 0.64644283 0.30768353 0.2591146
0.5171455 0.6617988 0.31215227 1.9599988 0.76573324 0.15228674 0.6306766 2.3802128
00000000: 9f4e 323f 319a 453e 2c60 433f 8b95 ee3e
00000010: 54ac 7c3e da41 0940 3772 ae3f 4544 3e3f
00000020: e4fa 543f 45e7 5e3e f86a c53e caed 603e
00000030: 91e7 0e3f e5c5 323f efcb 863f 6ed4 6a3e
00000040: 5d50 c93e b8a2 e63e c879 d33e ae35 ca3e
00000050: 896a e23e cf2d 973e 95b0 ef3e c0a3 c43e
00000060: 4efc e13e 2ec9 2d3f 7036 c73e 0d18 e73f
00000070: da7e d03e a1a7 bf3e b132 213f 72ae 6f3e
00000080: c539 d13f 16b8 d83e ee98 693f d988 2e3f
00000090: e655 893e 237e cf3e aeac 873e e910 c53e
000000a0: ce20 913e 46b9 2e3f 348d a13e 2493 883e
000000b0: 71fe e73e 10c6 be3e 6521 0f3f 46a9 da3f
000000c0: 9d1f 283f 6c25 013f b3cd 143f 4db2 1a3f
000000d0: 63ab e03d 477d 253f b288 9d3e abaa 843e
000000e0: a663 043f a56b 293f 6cd2 9f3e 3ee1 fa3f
000000f0: 1807 443f 0ef1 1b3e 0674 213f 6855 1840

conv3.weight f4 [1, 64, 3, 3]
-0.022391234 -0.0053038024 -0.014651679 -0.005423636 0.029645817 0.026524121 -0.012331269 0.032438945
0.038282562 0.03711289 0.020881826 -0.0036506457 -0.013381387 -0.000645964 0.040103238 0.02527841
-0.021371191 -0.019122854 -0.02975624 -0.017875452 0.01681385 0.03258133 0.028126538 0.0010999916
0.015154467 0.02677767 0.0015339396 -0.021265684 0.0005141646 -0.010681432 0.00014794164 0.03553871
0.021583047 -0.011869073 -0.008606329 0.01957168 0.013151347 0.05264225 0.008112968 -0.0025075662
-0.008088037 -0.01710663 0.01756086 -0.002824565 0.0011139489 -0.038275015 -0.034585807 -0.01378792
0.024654498 0.0386764 -0.032782808 -0.028304255 -0.008348671 0.011771581 0.017641444 0.0013890049
0.037842117 -0.03761836 -0.004839968 -0.01958887 0.017351473 0.010552799 -0.007027897 0.0042002853
-0.026700592 -0.024448412 -0.019435478 0.030175269 0.004956813 -0.0024007333 0.04208871 0.009161845
0.014770074 -0.023704953 0.0009162618 -0.01034853 0.030350434 0.027764838 -0.017299773 -0.049104348
-0.011970402 0.025774235 -0.014105024 -0.029702233 -0.03437992 -0.015969539 0.02085041 0.04043582
-0.04098688 0.0032695227 -0.020732326 -0.029962324 -0.039670903 -0.008039099 0.007507499 -0.009259405
0.01671076 -0.03796089 0.00600829 -0.022637071 0.038923863 -0.01139021 -0.028482372 0.010256033
-0.032193 0.021557625 0.009685569 0.03599488 0.03246044 -0.02966193 -0.031789865 -0.01063302
0.03525746 0.01440881 -0.022363108 -0.009325957 0.010034392 -0.02244954 -0.02039767 0.031914987
-0.020917619 0.012323772 0.01303553 0.03997785 0.024082039 0.0013914523 -0.023300972 -0.033724178
-0.021570504 0.0023282224 0.04540153 0.03571321 0.040495228 -0.0004056844 -0.040796872 0.012380846
-0.011119018 -0.007959404 0.01485671 -0.037205055 -0.013803586 -0.027022596 -0.024910964 0.0034991035
0.03246246 0.028927326 -0.010899726 0.037421253 -0.020884283 0.0065156426 -0.009125563 0.012867157
-0.0019278261 -0.019875849 0.040529624 0.010735505 -0.010647175 -0.012806708 0.024535365 0.025531782
-0.014526468 0.023642503 0.033812653 0.034946185 -0.013397997 -0.033421673 -0.031260896 -0.025723493
0.014924552 0.038909804 0.019781176 0.013283414 -0.03430411 -0.029990966 0.033215016 0.003984459
0.013242738 0.02105045 0.027501239 0.027806874 -0.029009623 -0.014437078 -0.020920828 0.024396239
0.0033488977 0.03585573 0.036348242 0.005438647 -0.0033166215 -0.0059909103 -0.017215626 0.027752435
0.026126899 0.022744587 0.03098205 0.029192274 -0.016678905 -0.015028674 0.0043569664 -0.032711267
-0.01036135 -0.015988696 0.038351115 -0.007438224 0.030474974 -0.027978579 -0.0065176077 0.041116912
-0.0046230056 0.025413288 -0.039409075 -0.03407892 0.021467034 0.008801654 0.05571703 -0.0066633425
0.026821196 0.013882073 0.025490671 0.010799516 -0.013185237 0.05210644 0.013740253 0.026635442
-0.0067287167 -0.031638216 -0.039082255 -0.012339387 -0.0379195 0.0024335007 0.026594607 0.02056162
0.0056420024 0.039293963 -0.02168194 0.046849955 0.030029863 0.03803909 -0.011728959 0.012078918
0.042717043 0.011578467 -0.017464042 -0.008948446 -0.010303545 -0.023568928 0.014263918 -0.041573703
0.033327505 -0.0084315045 -0.035915844 0.0041570216 0.03512907 0.02253672 0.0037038736 -0.024355602
00000000: d26d b7bc 85cb adbb 990d 70bc c2b8 b1bb
00000010: c9db f23c 1d49 d93c 1709 4abc b3de 043d
00000020: 2dce 1c3d b003 183d 5d10 ab3c ac3f 6fbb
00000030: 9b3d 5bbc e955 29ba 4b43 243d ab14 cf3c
00000040: a312 afbc 88a7 9cbc 5cc3 f3bc 8a6f 92bc
00000050: 33bd 893c 0074 053d a069 e63c 982d 903a
00000060: 714a 783c d85c db3c 790e c93a 5f35 aebc
00000070: 01c9 063a 2c01 2fbc c820 1b39 0a91 113d
00000080: eece b03c 8076 42bc 8f01 0dbc ca54 a03c
00000090: bf78 573c 669f 573d 41ec 043c fb55 24bb
000000a0: b083 04bc 3423 8cbc cbdb 8f3c 561c 39bb
000000b0: ec01 923a 43c6 1cbd d9a9 0dbd bae6 61bc
000000c0: 3bf8 c93c 256b 1e3d 4447 06bd 53de e7bc
000000d0: ddc8 08bc 97dd 403c ca84 903c 450f b63a
000000e0: 5600 1b3d b615 1abd 9898 9ebb d778 a0bc
000000f0: ad24 8e3c a6e5 2c3c 464a e6bb 8ca2 893b
00000100: 33bb dabc 0948 c8bc 2737 9fbc 2032 f73c
00000110: c36c a23b 9f55 1dbb 3665 2c3d 901b 163c
00000120: 2efe 713c e430 c2bc 4a31 703a e18c 29bc
00000130: 79a1 f83c 1673 e33c 41b8 8dbc a421 49bd
00000140: 811f 44bc 7d24 d33c c218 67bc 1952 f3bc
00000150: f6d1 0cbd 8dd2 82bc 7bce aa3c 08a0 253d
00000160: dce1 27bd 7d45 563b d7d6 a9bc 8c73 f5bc
00000170: f57d 22bd 6db6 03bc 7701 f63b c2b4 17bc
00000180: 01e5 883c e17c 1bbd 31e1 c43b 6171 b9bc
00000190: a16e 1f3d 019e 3abc dd53 e9bc ec08 283c
000001a0: cfdc 03bd 9e99 b03c 39b0 1e3c 5e6f 133d
000001b0: 3df5 043d 93fd f2bc 1736 02bd 1e36 2ebc
000001c0: 206a 103d ee12 6c3c d632 b7bc e6cb 18bc
000001d0: 4a67 243c 19e8 b7bc 0419 a7bc 4ab9 023d
000001e0: 6d5b abbc a5e9 493c fa92 553c d0bf 233d
000001f0: b247 c53c 6461 b63a aee1 bebc 5d22 0abd
00000200: a0b4 b0bc 1795 183b f4f6 393d 0448 123d
00000210: 53de 253d 0ab2 d4b9 9f1a 27bd 08d9 4a3c
00000220: 8b2c 36bc 2968 02bc 8f69 733c 5464 18bd
00000230: 7028 62bc 7e5e ddbc 1412 ccbc 3751 653b
00000240: 5bf7 043d 00f9 ec3c c494 32bc 0747 193d
00000250: 8415 abbc 2c81 d53b 6383 15bc c5d0 523c
00000260: 1caf fcba add2 a2bc 6402 263d f9e3 2f3c
00000270: 7d71 2ebc 3ad3 51bc 64fe c83c 0728 d13c
00000280: 6c00 6ebc ecad c13c 237f 0a3d bb23 0f3d
00000290: 4683 5bbc 2ae5 08bd 6d0b 00bd 13ba d2bc
000002a0: 1c86 743c e35f 1f3d 220c a23c ada2 593c
000002b0: 7782 0cbd 9daf f5bc 780c 083d 1190 823b
000002c0: 12f8 583c fe71 ac3c 474a e13c 3ecb e33c
000002d0: 97a5 edbc 7e89 6cbc 2862 abbc 9fda c73c
000002e0: 2e79 5b3b 75dd 123d e5e1 143d ad36 b23b
000002f0: ad5b 59bb 664f c4bb c907 8dbc 1359 e33c
00000300: 1408 d63c db52 ba3c 11ce fd3c a324 ef3c
00000310: 33a2 88bc d43a 76bc e2c4 8e3b 40fc 05bd
00000320: a7c2 29bc bafa 82bc 0f16 1d3d 58bc f3bb
00000330: a7a6 f93c 5533 e5bc a891 d5bb 356a 283d
00000340: 957c 97bb 872f d03c 696b 21bd 5696 0bbd
00000350: a2db af3c d034 103c 8a37 643d 2b58 dabb
00000360: 20b8 db3c a271 633c d0d1 d03c 74f0 303c
00000370: e406 58bc 906d 553d cc1e 613c 9232 da3c
00000380: 917c dcbb 1397 01bd b714 20bd 242b 4abc
00000390: 7a51 1bbd 5e7b 1f3b efdc d93c d870 a83c
000003a0: 8ce0 b83b b5f2 203d 539e b1bc bde5 3f3d
000003b0: 3001 f63c e0ce 1b3d d22a 40bc a7e6 453c
000003c0: 11f8 2e3d 9cb3 3d3c c010 8fbc 819c 12bc
000003d0: 33d0 28bc a013 c1bc 35b3 693c 3049 2abd
000003e0: 6c82 083d 4b24 0abc 7e1c 13bd a037 883b
000003f0: 80e3 0f3d ed9e b83c b0bc 723b 6685 c7bc
