models/DefaultModel_3.pt (torch, 22936 bytes, 31 tensors)

fcs.0.weight f4 [20, 9]
0	0x3b31848c	0.002708706
1	0xbdce0e00	-0.10061264
2	0x3e2d4209	0.16919722
3	0x3ec4d6fe	0.38445276
4	0xbd9b5caf	-0.07586037
5	0xbce20163	-0.027588552
6	0x3e81837f	0.25295636
7	0x3db8b211	0.090183385
8	0x3dda1aa4	0.106496125
9	0x3e71665e	0.23574206
10	0x3ee6c6a5	0.4507343
11	0x3eaacf33	0.33361205
12	0x3ca1d3aa	0.01975425
13	0xbc9c6132	-0.019089315
14	0x3dc96cd2	0.09835209
15	0xbe9e7288	-0.30946755
16	0x3e1d11f0	0.15338874
17	0xbe80ac86	-0.25131625
18	0xbd480b45	-0.048838872
19	0xbdd101b8	-0.10205406
20	0x3e3933e4	0.18086201
21	0xbe1f6fb0	-0.15569949
22	0xbf151190	-0.58229923
23	0xbddaa34d	-0.106756784
24	0x3cc21e80	0.023696184
25	0xbe01e1dc	-0.12683815
26	0x3dac54c6	0.08414607
27	0xbcb86103	-0.022507196
28	0xbb8c55e6	-0.004282701
29	0xbdce5080	-0.10073948
30	0xbe971396	-0.2950713
31	0xbed79818	-0.42108226
32	0x3d6a3520	0.05717957
33	0xbeb798ed	-0.3585886
34	0xbdba6ed0	-0.09103167
35	0xbe9b43aa	-0.3032506
36	0xbe4cb1f4	-0.19989759
37	0x3ce39f56	0.027785938
38	0x3daa4999	0.08314819
39	0x3cbb99b8	0.022900447
40	0x3e1ca29b	0.15296404
41	0x3e056925	0.1302839
42	0xbdb9df7e	-0.09075831
43	0x3e1ac17b	0.1511287
44	0x3ea24d7c	0.3169974
45	0x3d91cdb6	0.071193144
46	0x3e30828b	0.17237298
47	0xbe0058e2	-0.12533906
48	0x3c2ccf4d	0.010547471
49	0x3ec723c0	0.38894463
50	0x3f07166a	0.52768576
51	0x3e4690e9	0.19391216
52	0x3d31d2cc	0.043413922
53	0xbc980881	-0.018558742
54	0xbe17c5d9	-0.14821567
55	0xbf0d23a0	-0.55132484
56	0xbe60e343	-0.21961693
57	0xbe98629e	-0.2976274
58	0xbde53506	-0.11191754
59	0xbd862029	-0.06549103
60	0x3de03eda	0.10949488
61	0xbe455e52	-0.19274262
62	0xbdfcf194	-0.12350765
63	0x3e01672f	0.12637018
64	0x3cb4fdd6	0.022093695
65	0x3d0c2e9e	0.034224145
66	0x3e2d53f8	0.16926563
67	0xbf56b044	-0.8386271
68	0x3dd40c44	0.10353902
69	0x3cd9e487	0.026598228
70	0x3d90822a	0.07056077
71	0x3b147b96	0.002265667
72	0x3bcb8d2d	0.006211898
73	0x3d0ffd80	0.035153866
74	0xbf07ca9d	-0.5304354
75	0x3df2a8c4	0.11848596
76	0x3eac384e	0.33636707
77	0xbd0288db	-0.031868797
78	0xbe8a7e91	-0.27049688
79	0x3da56531	0.08075941
80	0xbe04e6f8	-0.12978733
81	0x3d47242c	0.04861848
82	0xbd72d1b2	-0.059282012
83	0xbe5e1747	-0.21688567
84	0xbd564fef	-0.052322324
85	0x3dedf7ee	0.116195545
86	0x3c96ea91	0.018422397
87	0x3e2c9932	0.16855314
88	0x3d9f8878	0.07789701
89	0x3ede4895	0.4341475
90	0xbea85550	-0.32877588
91	0x3dd0da16	0.101978466
92	0xbbfd60d4	-0.00773249
93	0x3e24c77b	0.16091721
94	0x3f06ef93	0.5270931
95	0x3e51415b	0.20435087
96	0xbe14e132	-0.1453903
97	0x3d9e4113	0.07727256
98	0xbd55de3c	-0.052213892
99	0x3e995e9f	0.29955003
100	0x3e210d20	0.15727663
101	0x3bb3fbd7	0.005492668
102	0x3e9652db	0.2936009
103	0x3ebd13fd	0.36929312
104	0xbd779c60	-0.060451865
105	0x3dab0fa6	0.08352594
106	0xbe03cfe1	-0.12872268
107	0x3e7d8f66	0.24761733
108	0x3d02326a	0.03178636
109	0xbe85b4c8	-0.26114488
110	0xbe4cbb35	-0.19993289
111	0x3c03093c	0.007997807
112	0xbe58fd8d	-0.21190472
113	0xbf02ccca	-0.51093733
114	0xbe863b95	-0.26217332
115	0xbdd53e91	-0.10412324
116	0xbde08049	-0.109619685
117	0xbda81361	-0.08206821
118	0x3e2f5906	0.17123803
119	0x3e6bc31e	0.2302365
120	0xbe915aba	-0.2838953
121	0xbee49ed6	-0.44652432
122	0xbe09718c	-0.13422221
123	0xbe574e45	-0.21025951
124	0xbe612868	-0.2198807
125	0xbe20b0e9	-0.15692486
126	0x3e4d7196	0.20062861
127	0x3da16841	0.07881213
128	0x3e9bda12	0.30439812
129	0x3e32d633	0.17464523
130	0x3d8b7c91	0.068108685
131	0xbb226506	-0.0024779453
132	0xbdffd6d8	-0.1249215
133	0x3d28833c	0.04114078
134	0x3e921876	0.28534287
135	0x3ed85955	0.42255655
136	0x3e94b8ce	0.29047245
137	0xbe315c6a	-0.1732041
138	0xbe4f3dec	-0.20238465
139	0x3dc3d41c	0.09561941
140	0xbcf35cf4	-0.02970741
141	0x3e116b1e	0.14201018
142	0xbddba0fb	-0.10724064
143	0x3e7d5fb5	0.2474354
144	0x3e49210c	0.19641513
145	0x3d6a3a31	0.057184402
146	0xbdd82061	-0.10553051
147	0xbeb1bb6f	-0.34713313
148	0xbe9a0e8f	-0.30089232
149	0xbe343a03	-0.17600255
150	0x3df25cba	0.118340924
151	0xbdcd8de4	-0.10036829
152	0x3e3076ef	0.1723287
153	0x3e6ce38d	0.23133679
154	0x3e340510	0.17580056
155	0x3a6c6224	0.00090173096
156	0x3e21ce02	0.15801242
157	0x3eca3a13	0.39497432
158	0xbb7d0cee	-0.0038612443
159	0xbe6f25ca	-0.23354259
160	0x3cbc9872	0.02302191
161	0xbde47a3a	-0.11156125
162	0x3cd1ecad	0.025625551
163	0x3e1b95b8	0.15193832
164	0x3e0bdbc5	0.13658054
165	0x3da8ebcb	0.08248099
166	0x3f0b3737	0.54381126
167	0x3e0aa24d	0.13538475
168	0x3ea11cac	0.31467187
169	0xbe015c01	-0.12632753
170	0xbd8667fd	-0.06562803
171	0x3dfa1db2	0.12212695
172	0x3ea85e68	0.32884526
173	0x3bf270c5	0.007398697
174	0x3c8f3873	0.017482972
175	0x3d875d3c	0.0660958
176	0x3e45cf9b	0.19317476
177	0x3d80b017	0.062835865
178	0x3eeb6688	0.45976663
179	0xbc1a1a9e	-0.00940576

fcs.0.bias f4 [20]
0	0x3e1836a7	0.14864598
1	0x3d3a11be	0.045427077
2	0x3d4ef651	0.050527874
3	0xbe90c0b6	-0.28272027
4	0x3e5cc52f	0.21559595
5	0x3e5d814b	0.21631353
6	0xbe026c95	-0.12736733
7	0x3e3545e4	0.17702442
8	0xbe3d5e7b	-0.18493073
9	0xbdca2166	-0.098696515
10	0x3de5f52b	0.11228403
11	0xbe0dca88	-0.13846791
12	0xbeaa9e51	-0.3332391
13	0xbd7d39b2	-0.0618226
14	0xbdd75d37	-0.10515826
15	0xbd9c56aa	-0.07633717
16	0x3bb3daab	0.0054887137
17	0x3d8e5f76	0.069518015
18	0xbe7ea62e	-0.2486808
19	0x3e1af3c2	0.15132049

fcs.1.weight f4 [20]
0	0x3f7ba80a	0.9830328
1	0x3f56b7a6	0.83873975
2	0x3f8f1ec3	1.1181263
3	0x3f8ce437	1.1007146
4	0x3f5c248e	0.8599328
5	0x3f6fae2a	0.9362513
6	0x3f85c9d1	1.0452214
7	0x3f952fea	1.1655247
8	0x3f79f745	0.9764293
9	0x3f470257	0.77737945
10	0x3f8a06df	1.0783347
11	0x3f8e6769	1.1125308
12	0x3f7345d2	0.9502841
13	0x3f8d89fb	1.1057733
14	0x3f808660	1.0041008
15	0x3f3c0685	0.7344745
16	0x3f6f3a0b	0.9344794
17	0x3f8017e1	1.0007287
18	0x3f87edf3	1.0619491
19	0x3f8461da	1.0342362

fcs.1.bias f4 [20]
0	0x3e705ed6	0.23473677
1	0x3f14a26e	0.5806035
2	0xbd23746a	-0.039905943
3	0x3c910a75	0.017705182
4	0xbcf48219	-0.029847192
5	0x3d702ce6	0.05863657
6	0xbec0f72b	-0.37688574
7	0xbdcccaf0	-0.09999645
8	0xbe9a8ada	-0.3018406
9	0x3d8435c6	0.06455569
10	0x3e7dcf56	0.24786124
11	0x3dc331ef	0.095310085
12	0x3e0cacbe	0.13737771
13	0xbe0cae5d	-0.1373839
14	0x3ccb4221	0.024811806
15	0xbe67b1c3	-0.22626404
16	0xbe33c096	-0.17553934
17	0x3bd70279	0.006561574
18	0x3e997d26	0.29978293
19	0x3e1fef9a	0.15618744

fcs.1.running_mean f4 [20]
0	0x3f1669cf	0.587552
1	0x3edf9caf	0.43674228
2	0xbed0195f	-0.40644357
3	0xbf90246b	-1.1261114
4	0x3f09ad0a	0.5377966
5	0x3f695250	0.91141224
6	0xbf80e5b8	-1.0070105
7	0x3cb8d570	0.022562712
8	0xbec9274a	-0.39287788
9	0x3e46db3d	0.1941957
10	0x3ece59f7	0.40303013
11	0x3f0df8c8	0.55457735
12	0xbf9c821e	-1.2227209
13	0xbf2e0740	-0.6797981
14	0x3ee9d935	0.45673528
15	0x3e9b73dd	0.30361834
16	0xbe84f695	-0.25969377
17	0x3ed6ef4b	0.4197944
18	0x3ed02914	0.4065634
19	0x3f56928a	0.8381735

fcs.1.running_var f4 [20]
0	0x3d371cd7	0.04470524
1	0x3d45c1ea	0.048280634
2	0x3d5deac9	0.054178987
3	0x3e25e2a6	0.16199741
4	0x3ce2a8b2	0.02766833
5	0x3deacc98	0.114648044
6	0x3e349684	0.17635542
7	0x3c53f8c2	0.012937726
8	0x3c66d921	0.0140898535
9	0x3ccc1baa	0.024915535
10	0x3cd9ba0c	0.026577972
11	0x3de20139	0.110353895
12	0x3e381ac8	0.17978966
13	0x3dc6535a	0.09683867
14	0x3d916f70	0.07101333
15	0x3d10bbe9	0.035335455
16	0x3ca74f6f	0.02042362
17	0x3d0d3668	0.034475714
18	0x3dcd5ee8	0.100278676
19	0x3ddb2e17	0.1070215

fcs.3.weight f4 [20, 20]
0	0xbddbae66	-0.10726623
1	0xbe4cc832	-0.19998243
2	0xbe039f78	-0.12853801
3	0xbe3d3fe1	-0.18481399
4	0x3e301be0	0.17198133
5	0xbd254c26	-0.040355824
6	0xbddae236	-0.106876776
7	0xbe193072	-0.14959887
8	0xbe39223a	-0.18079463
9	0xbe293e3d	-0.16527648
10	0x3e203bcb	0.15647809
11	0x3e29d05d	0.1658339
12	0x3ddad950	0.1068598
13	0xbd3f2526	-0.046666287
14	0xbd6cf7fc	-0.057853684
15	0x3e2d4e91	0.16924502
16	0xbd82af1f	-0.06381058
17	0x3e8fdebf	0.2809963
18	0xbe020378	-0.12696636
19	0x3e89320d	0.26795998
20	0x3ea34cdd	0.3189458
21	0xbcb8a3e8	-0.022539094
22	0xbd836db0	-0.064174056
23	0xbe376e7d	-0.17913242
24	0xbdde688f	-0.10859787
25	0x3ca805fa	0.020510662
26	0x3e97bb97	0.29635307
27	0xbd0ff9ef	-0.035150465
28	0x3df608a1	0.120133646
29	0x3e5c091e	0.21487853
30	0xbe8589cb	-0.2608169
31	0xbd403570	-0.046925962
32	0xbe2a5edb	-0.16637747
33	0x3c5ac166	0.013351774
34	0xbe2f5a16	-0.17124209
35	0x3d46f044	0.04856898
36	0xbe9e25b4	-0.3088814
37	0xbd1e120e	-0.038591437
38	0x3dde506d	0.10855184
39	0x3d5b56f0	0.053549707
40	0x3e676bbc	0.22599691
41	0xbe3e635e	-0.18592593
42	0xbe8ab9e6	-0.27094954
43	0xbdd465ff	-0.10371017
44	0xbcbaa200	-0.022782326
45	0x3dae8297	0.08521002
46	0x3e1564c0	0.14589214
47	0xbdd606de	-0.104505286
48	0x3e006dd0	0.1254189
49	0x3ced764d	0.028987074
50	0x3d15e13a	0.036591746
51	0x3e748655	0.23879369
52	0xbcb61bcc	-0.022230051
53	0xbe88ca66	-0.26716918
54	0x3e33e417	0.17567478
55	0x3dc768ff	0.09736823
56	0x3dbaa174	0.09112826
57	0xbd7275b2	-0.059194274
58	0x3da78097	0.081788234
59	0x3e9acab9	0.3023279
60	0xbdea7c67	-0.11449509
61	0x3e5e0ec5	0.21685322
62	0xbe9cefc6	-0.30651683
63	0xbde8657d	-0.11347482
64	0x3c1f3d23	0.009719166
65	0x3e288e43	0.16460519
66	0x3c32d9e2	0.010916205
67	0xbeca2d9f	-0.3948793
68	0xbe27807b	-0.16357605
69	0x3e4370b8	0.19085968
70	0xbc110740	-0.008851826
71	0x3e617d86	0.2202054
72	0xbdec3cfc	-0.11535069
73	0xbe76858c	-0.24074382
74	0xbd91aab6	-0.07112639
75	0x3e12f6ac	0.1435191
76	0xbe4b50f1	-0.19855095
77	0xbd708f1a	-0.058730222
78	0x3e10b65f	0.14132069
79	0x3d92a13a	0.07159658
80	0x3bff5de8	0.007793177
81	0xbc355e03	-0.011069777
82	0x3e339ce1	0.17540313
83	0xbec550f6	-0.3853833
84	0x3e945ac6	0.28975505
85	0xbe331b08	-0.1749078
86	0xbccedbe5	-0.025251338
87	0xbcd53e81	-0.02603078
88	0xbe038caa	-0.12846628
89	0x3e891d78	0.26780295
90	0xbd554906	-0.052071594
91	0x3c4e6466	0.012597179
92	0xbe1c5aab	-0.15268962
93	0x3c8fabd5	0.01753799
94	0x3c15bebb	0.009139712
95	0x3d9fc792	0.07801737
96	0xbde4ffdf	-0.11181616
97	0xbe3cd7f8	-0.1844176
98	0xbe133542	-0.14375785
99	0x3da624e5	0.08112506
100	0x3ea3648f	0.31912658
101	0x3de8fc40	0.11376238
102	0x3d876e43	0.06612828
103	0xbd4444b1	-0.04791707
104	0x3e008c26	0.12553462
105	0x3e54fc31	0.20799328
106	0xbdbd58d4	-0.09245458
107	0xbe2d5ff6	-0.16931137
108	0x3d850848	0.0649572
109	0xbdd03aee	-0.1016749
110	0x3e2f9da6	0.17149982
111	0x3e4bc709	0.19900145
112	0xbdc9b178	-0.098483026
113	0xbdc7d65c	-0.09757683
114	0x3e57443b	0.21022122
115	0x3d0f1b53	0.034938168
116	0xbdfda39f	-0.12384724
117	0x3c1f7b79	0.009734028
118	0x3ea93a4d	0.33052292
119	0x3d4fe173	0.050752115
120	0xbe56a7cf	-0.20962451
121	0xbe2f36f2	-0.17110804
122	0x3dbf733f	0.09348153
123	0x3d190dc1	0.037366632
124	0xbd86de0c	-0.06585321
125	0xbdcc59d7	-0.09978073
126	0xbdeaf309	-0.114721365
127	0x3e2270b5	0.15863307
128	0x3e3e734c	0.1859867
129	0xbd9a3e34	-0.075313956
130	0xbe68fd80	-0.22752953
131	0xbe8954a3	-0.26822385
132	0xbe0cbc58	-0.13743722
133	0x3d4f225b	0.050569873
134	0xbd7d84d0	-0.061894238
135	0x3e03e86e	0.12881634
136	0x3df0b66c	0.11753544
137	0xbcd05462	-0.025430862
138	0xbed39bc9	-0.41329792
139	0xbdcbbe73	-0.09948435
140	0x3e285665	0.16439207
141	0x3ddb114b	0.10696658
142	0xbe2b6645	-0.16738231
143	0x3da83907	0.08214002
144	0xbd8779a5	-0.06614999
145	0x3e5973ce	0.21235582
146	0xbe87d940	-0.26532936
147	0xbe4cac78	-0.19987667
148	0x3e3b6cbd	0.18303199
149	0xbcc48553	-0.023989355
150	0x3e407cd6	0.18797621
151	0xbd4e17bc	-0.050315604
152	0xbe42dced	-0.19029589
153	0xbe4fce35	-0.20293505
154	0x3e4a3fbb	0.19750874
155	0xbd1b5939	-0.037926886
156	0xbe6d2b05	-0.23160942
157	0x3e68ea37	0.22745596
158	0x3e3e4813	0.18582182
159	0x3e8bd858	0.27313495
160	0xbcf4e05b	-0.029892137
161	0x3d9d3d9e	0.07677768
162	0x3ea4ab04	0.32161725
163	0xbe2e66e7	-0.17031442
164	0xbd7751a5	-0.060380597
165	0x3dd08f05	0.10183529
166	0x3d024ee2	0.03181351
167	0x3e93921b	0.28822407
168	0x3d83d9c3	0.06438019
169	0x3ddbd28a	0.107335165
170	0x3b01e443	0.0019819892
171	0x3ded544c	0.11588344
172	0x3dfb63f0	0.12274921
173	0x3e1dfc1a	0.154282
174	0x3daa5b90	0.083182454
175	0xbb4ed09b	-0.0031557444
176	0x3ea498eb	0.32147917
177	0x3d83669e	0.06416057
178	0x3dc3b553	0.09556069
179	0x3e0d8f68	0.13824236
180	0x3cd43630	0.025904745
181	0x3ddbb961	0.107287176
182	0x3df29c58	0.118462265
183	0x3dc3a29b	0.09552499
184	0x3e12a91c	0.14322323
185	0x3cd26e55	0.025687376
186	0x3d9d5c0e	0.07683574
187	0xbd072e77	-0.033003297
188	0xbc70d91a	-0.014700199
189	0x3e5c0555	0.21486409
190	0x3e159e0b	0.1461107
191	0x3eac51cc	0.33656156
192	0xbc911cd3	-0.01771394
193	0xbde58270	-0.112065196
194	0x3bc87a93	0.0061181276
195	0xbcc37b8f	-0.023862628
196	0x3db9816e	0.0905789
197	0x3e89a175	0.26880994
198	0x3e538e6d	0.206598
199	0x3e4e51a9	0.20148338
200	0xba5ea2d7	-0.0008492893
201	0xbc82cd0b	-0.015966913
202	0xbe51e182	-0.2049618
203	0xbd9307d4	-0.071792275
204	0x3dfd5611	0.123699315
205	0xbdc9df5c	-0.098570555
206	0xbe61be63	-0.22045283
207	0xbd9561ba	-0.072940305
208	0xbe9496b8	-0.2902124
209	0xbe2a9d24	-0.16661507
210	0xbd2eaf87	-0.042647865
211	0x3e0cbec6	0.1374465
212	0xbe0b86ce	-0.13625643
213	0xbe6f088f	-0.23343109
214	0xbea361a7	-0.3191044
215	0xbe47eae4	-0.19523197
216	0xbdfc9218	-0.12332553
217	0xbe426f7d	-0.18987842
218	0xbdee6451	-0.116402276
219	0xbe0c5071	-0.13702561
220	0x3dfa0905	0.122087516
221	0x3e63830a	0.22217956
222	0x3e037d95	0.12840874
223	0x3d1fa390	0.038974345
224	0x3e6fb554	0.23409015
225	0x3e2a8d9d	0.16655584
226	0x3ddb7155	0.10714976
227	0xbe31ffc3	-0.17382722
228	0x3cbf31ce	0.023339178
229	0x3e3f7fdc	0.18701118
230	0x3e65f2ae	0.22455856
231	0x3ab144f3	0.0013524577
232	0xbcb092a6	-0.021554302
233	0xbe427e9f	-0.18993615
234	0x3db3d08c	0.087800115
235	0x3da75468	0.08170396
236	0xbc9f74ed	-0.019464934
237	0xbcfc5134	-0.03080044
238	0x3eeb1478	0.45914054
239	0x3d91e470	0.07123649
240	0x3da79d42	0.081842914
241	0xbdddc181	-0.108279236
242	0xbde69739	-0.11259312
243	0x3e682252	0.22669342
244	0x3ce1b9f1	0.027554484
245	0xbbc66884	-0.0060549397
246	0x3e13e78f	0.14443801
247	0x3dab57c6	0.08366351
248	0x3d93322d	0.07187305
249	0x3ce6540f	0.028116254
250	0x3e8e28d0	0.27765512
251	0xbda90241	-0.08252383
252	0x3ddc8bac	0.10768828
253	0x3e4434ea	0.1916081
254	0xbe52df97	-0.20593105
255	0xba8e59af	-0.0010860468

fcs.3.bias f4 [20]
0	0x3cfed869	0.031109052
1	0xbcf5c1c6	-0.029999625
2	0x3dfc6def	0.12325656
3	0xbc361bf8	-0.011115067
4	0xbdda1ae4	-0.1064966
5	0x3e3bfa7e	0.18357274
6	0x3dda80bd	0.10669086
7	0xbe2b40d0	-0.16723943
8	0xbdc35685	-0.09537987
9	0xbdb2c3db	-0.08728763
10	0xbd507937	-0.05089685
11	0x3e287f0e	0.16454718
12	0x3e5ec010	0.21752954
13	0x3e31088f	0.17288421
14	0xbdbde305	-0.09271816
15	0xbe28a7df	-0.16470288
16	0xbdb0fd94	-0.08642116
17	0xbdefe2bf	-0.1171317
18	0xbe5c17c7	-0.21493445
19	0x3e066c1c	0.13127178

fcs.4.weight f4 [20]
0	0x3f56c5a1	0.8389531
1	0x3f66e71a	0.90196383
2	0x3f785b6e	0.9701451
3	0x3f6879d5	0.908109
4	0x3f6f8702	0.9356538
5	0x3f71f2f5	0.9451135
6	0x3f724edb	0.94651574
7	0x3f7c8f3c	0.9865606
8	0x3f6d6a20	0.9274006
9	0x3f6c1459	0.9221855
10	0x3f5b4e0e	0.85665977
11	0x3f786470	0.97028255
12	0x3f62477f	0.88390344
13	0x3f6fea80	0.93717194
14	0x3f7a5a63	0.9779417
15	0x3f452e4a	0.77023757
16	0x3f6958a5	0.91150886
17	0x3f6439f1	0.8915091
18	0x3f7ae240	0.9800148
19	0x3f73c12e	0.95216644

fcs.4.bias f4 [20]
0	0xbe6ad620	-0.22933245
1	0x3cf3db46	0.029767644
2	0x3e12d2c3	0.14338212
3	0xbe174140	-0.14770985
4	0x3d1f98c9	0.038964067
5	0xbe10d73b	-0.14144604
6	0x3e0d3654	0.13790256
7	0x3e3172e4	0.17328984
8	0xbda08367	-0.07837563
9	0xbe040ccf	-0.12895511
10	0x3e7cf6f7	0.24703585
11	0x3e14ccd3	0.14531259
12	0x3dfe4e5d	0.1241729
13	0xbe00f55c	-0.12593597
14	0x3e71a08b	0.23596399
15	0xbe0b7f69	-0.13622822
16	0x3e0ff4ae	0.14058182
17	0xbe33a223	-0.17542319
18	0x3dc446e0	0.09583831
19	0x3e2e65a2	0.17030957

fcs.4.running_mean f4 [20]
0	0xbd90e715	-0.070753254
1	0xbe33282a	-0.1749579
2	0x3ea78285	0.32716766
3	0xbe23c8e0	-0.15994596
4	0xbeb8e8d7	-0.36115143
5	0x3f5b2d05	0.8561557
6	0xbf24f1a5	-0.6443122
7	0x3e2a90c2	0.16656783
8	0x3f26519c	0.64968276
9	0x3f497b46	0.78703725
10	0xbf6c7d6e	-0.9237889
11	0x3f80b2a7	1.005452
12	0x3ef1beb6	0.47215813
13	0x3e9077b8	0.28216338
14	0x3953f413	0.00020213453
15	0xbe8da76b	-0.27666792
16	0xbf81e9eb	-1.0149511
17	0xbe5be11b	-0.2147259
18	0xbf42d47e	-0.7610549
19	0x3dd16260	0.10223842

fcs.4.running_var f4 [20]
0	0x3e9074f0	0.28214216
1	0x3dc52994	0.09627071
2	0x3f430112	0.7617351
3	0x3f94bb5b	1.1619676
4	0x3de3091a	0.1108572
5	0x3fd04fd4	1.6274362
6	0x3fba2e3c	1.454536
7	0x3fcd2b2a	1.6028798
8	0x3e4e4eee	0.20147297
9	0x3f81eaed	1.0149819
10	0x3e9bbe0e	0.30418438
11	0x3faff30b	1.3746046
12	0x3e3c1ed3	0.18371134
13	0x3ef50466	0.47854918
14	0x3f540f69	0.82836014
15	0x3d53fce1	0.051754836
16	0x3fb1fa18	1.3904448
17	0x3f2e6892	0.6812831
18	0x3fa2ba80	1.2713165
19	0x3eef5674	0.46745646

fcs.6.weight f4 [1, 20]
0	0xbcb6afb1	-0.022300573
1	0x3c8d95a2	0.017283265
2	0x3e464fb0	0.19366336
3	0xbd9a9217	-0.07547396
4	0x3cdab939	0.02669965
5	0xbe39bfa3	-0.1813951
6	0x3e22ffab	0.15917842
7	0x3e32cdd3	0.17461328
8	0xbd6e726c	-0.05821459
9	0xbda1d43a	-0.07901807
10	0x3d3124f3	0.04324813
11	0x3d85f269	0.06540377
12	0x3d900a04	0.0703316
13	0xbe26740a	-0.16255203
14	0x3e28985d	0.16464372
15	0x3c72ea31	0.014826343
16	0x3ddc53cd	0.10758171
17	0xbd3455d4	-0.044027165
18	0x3db58c93	0.08864703
19	0x3d402ce7	0.046917822

exp_avg f4 [20, 9]
0	0xb7c8a02f	-2.391645e-05
1	0xb8116379	-3.4663335e-05
2	0x37b982e5	2.2114671e-05
3	0xb7040ef8	-7.871298e-06
4	0xb7242dce	-9.7858265e-06
5	0xb7aec784	-2.0835323e-05
6	0xb73fff5e	-1.14439445e-05
7	0xb7d73e78	-2.5659087e-05
8	0xb69e4f3b	-4.7179906e-06
9	0xb769cf93	-1.3936212e-05
10	0xb7256a2a	-9.859485e-06
11	0xb64712e6	-2.966431e-06
12	0xb71a5e52	-9.201076e-06
13	0xb736fa33	-1.0906299e-05
14	0xb621615d	-2.4047542e-06
15	0xb79bb6ee	-1.8562623e-05
16	0xb6d298f5	-6.2762942e-06
17	0xb77d86cb	-1.5111359e-05
18	0x38178cb0	3.613223e-05
19	0x38069db1	3.209495e-05
20	0x37dcd2b5	2.6324162e-05
21	0x3753d0b2	1.2625171e-05
22	0xb695303d	-4.4461617e-06
23	0xb5795afc	-9.289213e-07
24	0x3652f7a6	3.143659e-06
25	0xb5e232c5	-1.6853088e-06
26	0xb75e4b30	-1.3249737e-05
27	0xb4d98599	-4.0516605e-07
28	0x34c430ea	3.6543435e-07
29	0x35edd6a7	1.7720348e-06
30	0xb6fea0f4	-7.5885273e-06
31	0xb6dd5229	-6.595878e-06
32	0xb6158e7f	-2.2285674e-06
33	0x36fdeee2	7.567797e-06
34	0x363f79c5	2.8532097e-06
35	0x36cbc517	6.0728157e-06
36	0x373de520	1.1318625e-05
37	0x3789c833	1.6424898e-05
38	0x373135ff	1.0562594e-05
39	0x35a9cb36	1.2650623e-06
40	0x36a9db5c	5.0621293e-06
41	0x37c37c30	2.330364e-05
42	0x364126ec	2.8781897e-06
43	0xb6c1a4f7	-5.7710527e-06
44	0xb6daa47f	-6.516056e-06
45	0xb6e4e4cc	-6.821565e-06
46	0xb768644f	-1.38516325e-05
47	0x379bfeae	1.8596034e-05
48	0x378087d3	1.5322037e-05
49	0x3608e5c2	2.0399316e-06
50	0x370750d7	8.065449e-06
51	0x35e11a34	1.6771432e-06
52	0xb6e91140	-6.9459493e-06
53	0x3749b070	1.2021614e-05
54	0x371c91a1	9.3322315e-06
55	0x3672fcbe	3.6207925e-06
56	0x378131f9	1.5401269e-05
57	0xb6db6da2	-6.5394715e-06
58	0xb784f82b	-1.5851188e-05
59	0xb5d32da2	-1.5734006e-06
60	0xb79238e1	-1.7431043e-05
61	0xb7707239	-1.4331709e-05
62	0xb77ef7ed	-1.51973045e-05
63	0x3836af21	4.3555283e-05
64	0x38153f3c	3.558326e-05
65	0x38163183	3.58089e-05
66	0x374574a7	1.1769275e-05
67	0x3795bcb0	1.7850049e-05
68	0x372ada2b	1.0183586e-05
69	0x37f6e14e	2.94304e-05
70	0x382256d5	3.870468e-05
71	0xb4964513	-2.7989935e-07
72	0x38159e65	3.5671885e-05
73	0x37c928ed	2.3980125e-05
74	0x382240b8	3.8684084e-05
75	0x388599b4	6.370564e-05
76	0x389ffcdf	7.628812e-05
77	0x375f7fc6	1.3321585e-05
78	0x38850a87	6.343895e-05
79	0x37fe5abf	3.0321416e-05
80	0xb640801c	-2.86848e-06
81	0xb768fad1	-1.3886675e-05
82	0x36176089	2.2556944e-06
83	0x374fbeb5	1.2382564e-05
84	0xb776c81e	-1.4709336e-05
85	0x378fe82f	1.7155047e-05
86	0x36b7a618	5.473161e-06
87	0xb7164d24	-8.958657e-06
88	0xb60f8380	-2.1385204e-06
89	0x369dc9b7	4.7024473e-06
90	0xb8409206	-4.5912362e-05
91	0xb7328ae4	-1.0641965e-05
92	0x368253d3	3.8840603e-06
93	0xb8384c53	-4.39401e-05
94	0xb7a9b14b	-2.0228928e-05
95	0xb71f32e4	-9.488987e-06
96	0xb845be05	-4.714543e-05
97	0xb8408611	-4.5901226e-05
98	0xb80748bb	-3.2254244e-05
99	0x36a5971a	4.9349737e-06
100	0x350f160c	5.3303734e-07
101	0x36b48114	5.3794447e-06
102	0xb6a6e99a	-4.9743803e-06
103	0x36ba5d4c	5.554093e-06
104	0x3692ca1d	4.374668e-06
105	0xb6f53df2	-7.3087804e-06
106	0xb62f7638	-2.6145844e-06
107	0xb6f84d35	-7.399964e-06
108	0xb4061bdb	-1.2489856e-07
109	0x3656674b	3.194861e-06
110	0x378e893a	1.699162e-05
111	0xb793a135	-1.7598833e-05
112	0xb7a1d727	-1.9292884e-05
113	0x369c33f4	4.6552104e-06
114	0xb669d385	-3.4842826e-06
115	0xb73d2090	-1.1272859e-05
116	0xb6631c9a	-3.3842284e-06
117	0x376b72ca	1.4033818e-05
118	0x373d9a2b	1.1301173e-05
119	0x36703f67	3.5799692e-06
120	0x34bd331d	3.5241183e-07
121	0xb64bd9b0	-3.0376068e-06
122	0xb404bddb	-1.2362527e-07
123	0x370953c2	8.185338e-06
124	0x36dbaeb0	6.547045e-06
125	0xb56b8140	-8.7732406e-07
126	0xb800964b	-3.065755e-05
127	0xb7e206be	-2.6944439e-05
128	0x3817dd0f	3.6207082e-05
129	0x371e6130	9.440162e-06
130	0xb7ed18f1	-2.8264216e-05
131	0xb72d5bf0	-1.0333009e-05
132	0xb79bf215	-1.8590168e-05
133	0xb82b63f8	-4.086268e-05
134	0xb74ae96b	-1.2094485e-05
135	0x3622bae0	2.4248657e-06
136	0x363aedb3	2.785452e-06
137	0x37339fc0	1.0706426e-05
138	0x37258d39	9.867647e-06
139	0x35adee50	1.2958862e-06
140	0x356709fb	8.606873e-07
141	0x35c8d71b	1.4963765e-06
142	0xb6994849	-4.5681704e-06
143	0x3697534a	4.509847e-06
144	0x3796754e	1.7936018e-05
145	0x37b7a63d	2.189271e-05
146	0x3788d91f	1.6313568e-05
147	0xb5835ba7	-9.786935e-07
148	0x3729ae6a	1.0113794e-05
149	0x36fddbaf	7.565562e-06
150	0x37763449	1.4674916e-05
151	0x36efba34	7.144432e-06
152	0xb5e94483	-1.7379792e-06
153	0xb68888f3	-4.069059e-06
154	0xb6d83d19	-6.4444143e-06
155	0xb7083f10	-8.120915e-06
156	0x37b7cf19	2.1911737e-05
157	0xb6d798a1	-6.4252677e-06
158	0xb7340176	-1.0729176e-05
159	0x3694f046	4.438715e-06
160	0xb6c1dda6	-5.7776515e-06
161	0xb7a1baff	-1.9279772e-05
162	0x375a9199	1.3027712e-05
163	0x36dff09b	6.673928e-06
164	0x36ff2ec7	7.605038e-06
165	0xb6768761	-3.6735657e-06
166	0xb67e3f55	-3.7885814e-06
167	0xb7232ac8	-9.725518e-06
168	0xb6a135c5	-4.8044335e-06
169	0xb79052dc	-1.7204722e-05
170	0xb6d58054	-6.362834e-06
171	0xb688529a	-4.062732e-06
172	0xb790e736	-1.7273804e-05
173	0x37de65e2	2.6511905e-05
174	0x3781919e	1.5445807e-05
175	0x372f5d79	1.0452576e-05
176	0x376b3fa2	1.4021907e-05
177	0x378c4f8c	1.6726342e-05
178	0x36356fff	2.7036292e-06
179	0x37be5ea1	2.269383e-05

exp_avg_sq f4 [20, 9]
0	0x33030af6	3.0510783e-08
1	0x334092bb	4.4836934e-08
2	0x33545645	4.9438558e-08
3	0x32146684	8.638043e-09
4	0x32d9a478	2.5336917e-08
5	0x33042ee4	3.077629e-08
6	0x323e5d1c	1.1080626e-08
7	0x3261f87f	1.3153225e-08
8	0x329fa767	1.8586162e-08
9	0x32d4e7a6	2.478539e-08
10	0x321b6353	9.044771e-09
11	0x321dd5c3	9.1872066e-09
12	0x334c934b	4.7631413e-08
13	0x32f9a37b	2.9061757e-08
14	0x32cc9f60	2.3821201e-08
15	0x33af4866	8.162242e-08
16	0x337662fa	5.7366357e-08
17	0x33819e94	6.035876e-08
18	0x329b72b5	1.8096538e-08
19	0x3295b9da	1.7430398e-08
20	0x331ff0ae	3.723897e-08
21	0x3217617e	8.811524e-09
22	0x30b6a73e	1.3289776e-09
23	0x32a79c71	1.95125e-08
24	0x32d2d6c2	2.4544878e-08
25	0x328c6aca	1.6346707e-08
26	0x33010fa1	3.0049367e-08
27	0x31b73f52	5.3331997e-09
28	0x31c347e5	5.6834204e-09
29	0x320522c1	7.749521e-09
30	0x310670d0	1.9563693e-09
31	0x30d552be	1.5521306e-09
32	0x31ba84e5	5.428421e-09
33	0x31411e00	2.810225e-09
34	0x3118da36	2.224295e-09
35	0x316f05d3	3.4782388e-09
36	0x32f16395	2.8101377e-08
37	0x32d8a5c5	2.5221093e-08
38	0x329b5d6c	1.8086858e-08
39	0x3286841c	1.565973e-08
40	0x325e5360	1.2941058e-08
41	0x31b96efa	5.396825e-09
42	0x32164474	8.746714e-09
43	0x3193c05f	4.300133e-09
44	0x3127a75f	2.4396838e-09
45	0x31d504d9	6.199667e-09
46	0x31a343b5	4.7516218e-09
47	0x31e68fa4	6.710211e-09
48	0x319d5b66	4.579692e-09
49	0x30ff9ad8	1.8597701e-09
50	0x312258b5	2.3624527e-09
51	0x31cf5bd1	6.034931e-09
52	0x319c9eda	4.558257e-09
53	0x31de1d6a	6.4643944e-09
54	0x30c39064	1.4229156e-09
55	0x3047f0f3	7.273819e-10
56	0x30ea3db3	1.7043277e-09
57	0x30d54ae9	1.551908e-09
58	0x30cbf251	1.4839064e-09
59	0x311b8c36	2.263517e-09
60	0x31821e52	3.786945e-09
61	0x315b5f20	3.1922767e-09
62	0x3177811a	3.6016616e-09
63	0x343dee86	1.7688771e-07
64	0x341ccdfa	1.4603566e-07
65	0x3429b96e	1.580681e-07
66	0x344e3cca	1.920736e-07
67	0x338fb5b2	6.6920066e-08
68	0x342b5e7f	1.5959994e-07
69	0x3430fe10	1.6483705e-07
70	0x34230e3a	1.5185734e-07
71	0x3410792d	1.3455129e-07
72	0x33b72b2f	8.5294566e-08
73	0x33871c35	6.291558e-08
74	0x32c11707	2.2478629e-08
75	0x34016fa9	1.2054683e-07
76	0x34066287	1.2515567e-07
77	0x336f2ce5	5.5687355e-08
78	0x33ca4162	9.418251e-08
79	0x33e525c9	1.06705166e-07
80	0x338c481b	6.532374e-08
81	0x326475a9	1.32980995e-08
82	0x329fe8f6	1.8615975e-08
83	0x3296b26a	1.7543432e-08
84	0x31d7bc33	6.2787193e-09
85	0x3214ed36	8.668669e-09
86	0x3231a9c5	1.0341357e-08
87	0x313bbd8d	2.7319829e-09
88	0x31691497	3.3917666e-09
89	0x30dfc18a	1.6280393e-09
90	0x33c0a74d	8.9711286e-08
91	0x339de7ae	7.3530245e-08
92	0x3391c01f	6.787035e-08
93	0x333419b3	4.193289e-08
94	0x32325b19	1.0381677e-08
95	0x3296561c	1.7501456e-08
96	0x337441b7	5.6870444e-08
97	0x330e0d02	3.3073782e-08
98	0x331559ca	3.477343e-08
99	0x31132dad	2.141728e-09
100	0x314ba08a	2.9631644e-09
101	0x31ad43c0	5.042665e-09
102	0x30efd00f	1.7448673e-09
103	0x30b713d1	1.3320635e-09
104	0x31732cdf	3.538666e-09
105	0x31c80e67	5.8224034e-09
106	0x31b10561	5.1519895e-09
107	0x31ab3468	4.982713e-09
108	0x31c7ada4	5.811403e-09
109	0x31418cac	2.816516e-09
110	0x31573717	3.1317933e-09
111	0x31ad2aa6	5.0398112e-09
112	0x30e8be5d	1.6934326e-09
113	0x30b9e118	1.3524497e-09
114	0x31a48c95	4.7890105e-09
115	0x316e87ba	3.471071e-09
116	0x3144a398	2.8614746e-09
117	0x324f44ca	1.2064627e-08
118	0x32a4a791	1.9168313e-08
119	0x32e15e3f	2.6236306e-08
120	0x31706cde	3.498648e-09
121	0x319a0b62	4.483284e-09
122	0x324aef60	1.1812375e-08
123	0x317cb3a8	3.677295e-09
124	0x311d473e	2.2887003e-09
125	0x31cd8d57	5.9823537e-09
126	0x3222e25c	9.481109e-09
127	0x31f99d6f	7.264752e-09
128	0x31f072dc	6.9979773e-09
129	0x323e30ff	1.1070596e-08
130	0x32078a10	7.889426e-09
131	0x3212e298	8.54984e-09
132	0x32aebfc9	2.034348e-08
133	0x3266745d	1.341422e-08
134	0x323a293e	1.0836002e-08
135	0x3084b180	9.654713e-10
136	0x30e4753c	1.6622503e-09
137	0x31780def	3.609667e-09
138	0x3175beaa	3.5760572e-09
139	0x316653db	3.3517071e-09
140	0x31868271	3.9147428e-09
141	0x3176a931	3.5893886e-09
142	0x31732cc3	3.5386598e-09
143	0x3169a8be	3.4001881e-09
144	0x32cf7aa7	2.4153747e-08
145	0x32aedb81	2.0356085e-08
146	0x32791cd6	1.4500264e-08
147	0x31eca97b	6.8877717e-09
148	0x3203444e	7.640734e-09
149	0x3221258d	9.3799715e-09
150	0x328769a9	1.5764117e-08
151	0x3242c592	1.13372085e-08
152	0x3299a418	1.7886165e-08
153	0x31b3ce31	5.233027e-09
154	0x318e793f	4.146528e-09
155	0x32271041	9.724375e-09
156	0x32311ed2	1.0309764e-08
157	0x31bb142d	5.44471e-09
158	0x324252e2	1.1311132e-08
159	0x32d18f75	2.4396039e-08
160	0x32bff0c8	2.2344821e-08
161	0x32d73b17	2.5056165e-08
162	0x314c5f97	2.9740244e-09
163	0x311cd395	2.2821258e-09
164	0x31865f4f	3.9107486e-09
165	0x3106ee08	1.9634872e-09
166	0x30752b5e	8.919211e-10
167	0x31292809	2.4615494e-09
168	0x312a4cb1	2.478185e-09
169	0x3163522d	3.307956e-09
170	0x31926558	4.2606807e-09
171	0x31c73a6c	5.798304e-09
172	0x31b1793b	5.1651603e-09
173	0x32040ef6	7.686813e-09
174	0x31b53474	5.2737565e-09
175	0x315e66db	3.2363718e-09
176	0x3190fed5	4.2199226e-09
177	0x32052644	7.7503195e-09
178	0x31864872	3.9081494e-09
179	0x31c0d1d3	5.6117897e-09

exp_avg f4 [20]
0	0xae90fc95	-6.5932294e-11
1	0xacd2ad23	-5.987781e-12
2	0x2e0ae037	3.157671e-11
3	0xae14229d	-3.3682047e-11
4	0xae017a5a	-2.9439874e-11
5	0xad8d4ecf	-1.6064842e-11
6	0xad1dcb93	-8.969619e-12
7	0xad817ee1	-1.4721948e-11
8	0xacf2e7af	-6.9037757e-12
9	0xadbf4a5c	-2.1747208e-11
10	0xae21911c	-3.6736045e-11
11	0x2d6ace87	1.3347218e-11
12	0xae021ce4	-2.9584238e-11
13	0x2d867128	1.5284288e-11
14	0xad65b11d	-1.305647e-11
15	0xac853db1	-3.7869365e-12
16	0xadaedc39	-1.9879308e-11
17	0xad9fdb5e	-1.8173626e-11
18	0xad359806	-1.0322415e-11
19	0xad4b9fec	-1.1574724e-11

exp_avg_sq f4 [20]
0	0x1ece66ae	2.1853566e-20
1	0x1d805579	3.3969695e-21
2	0x1eb16edd	1.8786456e-20
3	0x1eec19fd	2.499822e-20
4	0x1f2122e7	3.4121947e-20
5	0x1d7cfd93	3.3483017e-21
6	0x1d92a2d3	3.8814235e-21
7	0x1e3cbfc5	9.992294e-21
8	0x1ea4f7b6	1.7466626e-20
9	0x1d18021e	2.0118127e-21
10	0x1e80da45	1.3642801e-20
11	0x1d1dae21	2.08688e-21
12	0x1daddb38	4.6019386e-21
13	0x1e240e2e	8.68502e-21
14	0x1dfeec0e	6.7477315e-21
15	0x1c97592d	1.0015393e-21
16	0x1f2a51db	3.606661e-20
17	0x1e19876f	8.1277596e-21
18	0x1d3c46b3	2.4918143e-21
19	0x1dfb1ae4	6.646695e-21

exp_avg f4 [20]
0	0xb7f5b1f1	-2.9289136e-05
1	0xb7e3788c	-2.7116643e-05
2	0x38509d14	4.9737355e-05
3	0x38d51d73	0.00010162117
4	0xb798c1b5	-1.8210014e-05
5	0xb8366322	-4.3484506e-05
6	0x37fcc221	3.013114e-05
7	0xb7de554b	-2.650418e-05
8	0xb7cadd8b	-2.418344e-05
9	0xb79bf38a	-1.8590847e-05
10	0xb855aa08	-5.094151e-05
11	0x361144ba	2.1646688e-06
12	0x37880d64	1.6218699e-05
13	0x388fbf03	6.85435e-05
14	0xb7148a3f	-8.853675e-06
15	0xb7acbc49	-2.0591675e-05
16	0xb7d13482	-2.4939192e-05
17	0xb7dbc51f	-2.6198626e-05
18	0xb78a0b36	-1.6456102e-05
19	0xb797e330	-1.8106395e-05

exp_avg_sq f4 [20]
0	0x32ea112c	2.7248994e-08
1	0x3252bb7e	1.226624e-08
2	0x33c66fbe	9.240419e-08
3	0x340be116	1.302727e-07
4	0x33189a10	3.5530377e-08
5	0x328bedf4	1.6289938e-08
6	0x3300dae0	3.0001388e-08
7	0x332c6c81	4.0145554e-08
8	0x327f74a6	1.4869476e-08
9	0x320e3293	8.276987e-09
10	0x32fa3318	2.9127065e-08
11	0x32695b99	1.3583212e-08
12	0x32cbc387	2.3721226e-08
13	0x334c34fd	4.7545644e-08
14	0x33106f28	3.362871e-08
15	0x31d5701e	6.211862e-09
16	0x33d47f6b	9.8951965e-08
17	0x32fb0195	2.9220965e-08
18	0x3210ecc7	8.43574e-09
19	0x3314a6ec	3.461075e-08

exp_avg f4 [20]
0	0x38898f23	6.55933e-05
1	0x37b1d583	2.1199468e-05
2	0x38a5426b	7.8801844e-05
3	0x388003be	6.104213e-05
4	0xb7a5e750	-1.9777246e-05
5	0x38773e7e	5.894759e-05
6	0x37ecc445	2.8224787e-05
7	0xb7c83228	-2.3865214e-05
8	0xb80172e8	-3.086301e-05
9	0x37eccd5f	2.8229026e-05
10	0xb76284ea	-1.3501596e-05
11	0x37897b87	1.6389195e-05
12	0xb5262777	-6.189725e-07
13	0x38c00865	9.156837e-05
14	0x38a21509	7.72868e-05
15	0x35dad25f	1.6303492e-06
16	0x35ff82b3	1.9037019e-06
17	0x37adbc08	2.0710766e-05
18	0x38299d43	4.04392e-05
19	0x38cafd4f	9.679293e-05

exp_avg_sq f4 [20]
0	0x333173c5	4.1316316e-08
1	0x32a505aa	1.9211104e-08
2	0x3416f81c	1.40601e-07
3	0x33928c96	6.824227e-08
4	0x329a6392	1.7973239e-08
5	0x330f1f53	3.332327e-08
6	0x330aff3c	3.2362763e-08
7	0x32ff62b9	2.9730801e-08
8	0x325b080a	1.2749306e-08
9	0x32383649	1.0722553e-08
10	0x326a44bc	1.3636221e-08
11	0x32419466	1.12678205e-08
12	0x33b4fc91	8.427845e-08
13	0x33cef0d0	9.636426e-08
14	0x333fe984	4.4683034e-08
15	0x31223931	2.3606612e-09
16	0x33d68f94	9.991268e-08
17	0x32d3e266	2.4666587e-08
18	0x338fb89b	6.692536e-08
19	0x33b31d3b	8.340654e-08

exp_avg f4 [20, 20]
0	0x37310e42	1.0553342e-05
1	0x36f7c3eb	7.3839815e-06
2	0x37ca5c4f	2.4123261e-05
3	0x37d3bc56	2.524086e-05
4	0x361be07e	2.3227472e-06
5	0x37aca2d3	2.0579819e-05
6	0x375cd961	1.3163634e-05
7	0x37bf6ebf	2.2820544e-05
8	0x36eb5f5d	7.0146475e-06
9	0x37378c63	1.0940336e-05
10	0xb620eb31	-2.3978757e-06
11	0x37b4e49c	2.1564127e-05
12	0x37cb284c	2.421825e-05
13	0x37b1b63e	2.1184907e-05
14	0x3761d642	1.3460931e-05
15	0x37ecfab3	2.8250133e-05
16	0x37832489	1.563343e-05
17	0x37a30952	1.9435454e-05
18	0x376e6593	1.4209555e-05
19	0x37c8784a	2.3897872e-05
20	0xb8271e44	-3.984409e-05
21	0xb7145ece	-8.843561e-06
22	0xb8205084	-3.822196e-05
23	0xb810628d	-3.4424058e-05
24	0xb7f14b7a	-2.8764585e-05
25	0xb84c71d5	-4.8743404e-05
26	0xb78d4340	-1.6839826e-05
27	0xb7c9ab4d	-2.4040835e-05
28	0xb6847f55	-3.94873e-06
29	0xb841b95d	-4.618742e-05
30	0xb7ae7baf	-2.0800011e-05
31	0xb845ee75	-4.719054e-05
32	0xb7c48a9e	-2.342957e-05
33	0xb806aa83	-3.210689e-05
34	0xb7f73730	-2.9470393e-05
35	0xb825323a	-3.9385843e-05
36	0xb7c5c162	-2.3574281e-05
37	0xb7cea81e	-2.46354e-05
38	0xb822e29b	-3.8834853e-05
39	0xb876b77e	-5.882186e-05
40	0x36addc62	5.1814577e-06
41	0xb833d17e	-4.287203e-05
42	0xb9634fa8	-0.00021678081
43	0xb975d9ad	-0.00023446111
44	0xb78e1511	-1.6937529e-05
45	0xb913903b	-0.00014072742
46	0xb8e05857	-0.00010697607
47	0xb915775a	-0.00014254209
48	0xb866a21a	-5.4987242e-05
49	0xb8871df8	-6.442884e-05
50	0x3572d8db	9.046759e-07
51	0xb9189b0c	-0.00014553609
52	0xb9580cb4	-0.00020604098
53	0xb943ae34	-0.00018661545
54	0xb89e3cc1	-7.5453434e-05
55	0xb9589dd1	-0.00020658156
56	0xb912b963	-0.00013992707
57	0xb9178b58	-0.00014452392
58	0xb88fb922	-6.853255e-05
59	0xb936a2db	-0.00017417541
60	0x37eae56a	2.8001803e-05
61	0x37b4696f	2.1506768e-05
62	0x38495006	4.7996662e-05
63	0x3843e3b9	4.6703706e-05
64	0x37d5de21	2.5495016e-05
65	0x387f69f2	6.0895407e-05
66	0x37afda7e	2.0963369e-05
67	0x37d88eaf	2.5815649e-05
68	0x37001a3a	7.635501e-06
69	0x38170e21	3.6014364e-05
70	0x37db0471	2.6108903e-05
71	0x3896ffce	7.200205e-05
72	0x3844bc2f	4.69053e-05
73	0x381809d9	3.6248795e-05
74	0x3846bb7a	4.738148e-05
75	0x3894cf19	7.095765e-05
76	0x37ec7f5c	2.8192699e-05
77	0x3883576c	6.2628504e-05
78	0x383f6429	4.563123e-05
79	0x38990e20	7.2982395e-05
80	0xb8e41f5a	-0.00010877727
81	0xb880d38d	-6.14292e-05
82	0xb773df23	-1.4535882e-05
83	0xb78d1b0d	-1.6821106e-05
84	0xb844350c	-4.6779445e-05
85	0xb8b7a376	-8.756567e-05
86	0xb6ba5cdc	-5.554042e-06
87	0xb7518c33	-1.2490013e-05
88	0xb7478fc8	-1.1894801e-05
89	0xb8be2b2d	-9.067948e-05
90	0xb8051f8f	-3.1739062e-05
91	0xb90877d8	-0.00013014616
92	0xb7222ace	-9.665919e-06
93	0xb7a7005c	-1.9908119e-05
94	0xb8bdb164	-9.045264e-05
95	0xb8bb7496	-8.938571e-05
96	0xb6e0abfe	-6.6957427e-06
97	0xb8bd5fe7	-9.0300855e-05
98	0xb8c949a1	-9.598141e-05
99	0xb8fe49eb	-0.00012125432
100	0xb72e50dc	-1.0390035e-05
101	0xb6712ed9	-3.5939067e-06
102	0x38d6fdd9	0.00010251598
103	0x38da7583	0.00010416938
104	0x36c1f506	5.7803727e-06
105	0x388513a9	6.345596e-05
106	0x386c6f1b	5.637026e-05
107	0x389d2dd4	7.4948795e-05
108	0x3814e551	3.5499517e-05
109	0x3842b773	4.6424055e-05
110	0xb6509816	-3.108294e-06
111	0x3885b3a5	6.3753956e-05
112	0x38df501a	0.00010648389
113	0x38b03bf8	8.403504e-05
114	0x37e7476e	2.7570608e-05
115	0x38d89f99	0.0001032941
116	0x3887d96e	6.477801e-05
117	0x3899f2ae	7.340811e-05
118	0x37acf3e6	2.0617572e-05
119	0x38947afe	7.080099e-05
120	0xb6ec3334	-7.039309e-06
121	0xb834a625	-4.307008e-05
122	0xb81d0438	-3.7435646e-05
123	0xb79f681a	-1.9002753e-05
124	0x37d9db9e	2.5970683e-05
125	0xb6d9000d	-6.46711e-06
126	0xb74341eb	-1.1638253e-05
127	0xb89ee721	-7.577078e-05
128	0x38445bf0	4.6815665e-05
129	0x36e5da79	6.8501654e-06
130	0x382a2351	4.056405e-05
131	0xb77d0c4d	-1.5082839e-05
132	0x3714c495	8.867258e-06
133	0xb812bd83	-3.498561e-05
134	0xb732a132	-1.0647158e-05
135	0xb7486058	-1.1943361e-05
136	0xb80c0cf1	-3.3390654e-05
137	0x36432b31	2.9082405e-06
138	0xb7a711da	-1.9916264e-05
139	0xb7cdbc40	-2.4525565e-05
140	0xb80e7021	-3.3959866e-05
141	0xb804835e	-3.1593598e-05
142	0xb9180168	-0.00014496373
143	0xb91766a6	-0.00014438722
144	0xb82c1f91	-4.1037394e-05
145	0xb8f3717c	-0.00011608281
146	0xb897b843	-7.2345625e-05
147	0xb8b9c8ba	-8.858876e-05
148	0xb7f5128a	-2.9214909e-05
149	0xb8964885	-7.166065e-05
150	0xb804f1f5	-3.1696592e-05
151	0xb906a162	-0.00012839356
152	0xb9076f84	-0.00012916146
153	0xb8fddfa7	-0.000121056386
154	0xb8b14743	-8.453291e-05
155	0xb9186fcd	-0.00014537499
156	0xb8bf894e	-9.133165e-05
157	0xb8eb4d18	-0.00011220033
158	0xb89c58be	-7.455189e-05
159	0xb913ba6d	-0.00014088461
160	0x3915134f	0.0001421694
161	0x394130e9	0.00018424135
162	0xb918d287	-0.00014574277
163	0xb91e6f9c	-0.00015109632
164	0x3908b7e3	0.00013038474
165	0x393cb1b3	0.00017995275
166	0xb8d88178	-0.00010323798
167	0xb8f9c88e	-0.000119106015
168	0xb87514af	-5.8431815e-05
169	0x3905d4fd	0.00012763213
170	0x394d9511	0.00019605855
171	0x394110db	0.00018412193
172	0xb9172bd2	-0.00014416807
173	0xb90130c5	-0.00012320567
174	0x3926fb77	0.00015924672
175	0x38fbc1f6	0.00012004741
176	0xb8daf0ea	-0.00010439924
177	0x39363341	0.00017375966
178	0x3954d879	0.00020298538
179	0x39541854	0.00020226958
180	0xb7da5349	-2.6026408e-05
181	0xb7f0a5ef	-2.8687498e-05
182	0x38510a87	4.9839287e-05
183	0x384f12d5	4.9370185e-05
184	0xb79e32ad	-1.8858665e-05
185	0x371e9b0e	9.453635e-06
186	0x37dc0a81	2.6230935e-05
187	0x38162d9f	3.5805275e-05
188	0x37eafb9e	2.8012142e-05
189	0xb621c70b	-2.4106728e-06
190	0xb7be6499	-2.269661e-05
191	0x3614e7fe	2.2188756e-06
192	0x385ce48e	5.2664946e-05
193	0x38233274	3.8909217e-05
194	0xb76c4411	-1.4082544e-05
195	0x38123852	3.4861565e-05
196	0x37f61adb	2.933799e-05
197	0x36a1b707	4.819481e-06
198	0xb73d9df5	-1.1302055e-05
199	0x372542cb	9.850318e-06
200	0xb6c25f9f	-5.7927823e-06
201	0xb67f9ceb	-3.80893e-06
202	0xb722636c	-9.679101e-06
203	0xb669f220	-3.486064e-06
204	0x38016138	3.084654e-05
205	0x3615bd68	2.231298e-06
206	0x361c8236	2.3321604e-06
207	0xb7e943ac	-2.7807277e-05
208	0x37d38c1c	2.5218404e-05
209	0x366b4165	3.5055793e-06
210	0x38264ba1	3.964792e-05
211	0xb74cad2a	-1.2199665e-05
212	0x362e6235	2.5985184e-06
213	0xb64d0779	-3.055173e-06
214	0x36c7e380	5.9571466e-06
215	0xb7819507	-1.5447395e-05
216	0xb6cb6b33	-6.062351e-06
217	0x36c5ed11	5.8986557e-06
218	0xb6182011	-2.266843e-06
219	0xb75bc14b	-1.3098422e-05
220	0x375f4b70	1.33094e-05
221	0x36549f2e	3.1683117e-06
222	0xb8506bb8	-4.9691385e-05
223	0xb855e959	-5.100048e-05
224	0x36b911ac	5.515487e-06
225	0xb7b7b0b8	-2.1897591e-05
226	0xb7d85849	-2.5790318e-05
227	0xb814c0ed	-3.5465626e-05
228	0xb7840248	-1.5736689e-05
229	0xb6edc718	-7.086328e-06
230	0x3780411d	1.528911e-05
231	0xb7c715d4	-2.3732813e-05
232	0xb8579647	-5.139995e-05
233	0xb82441d7	-3.9161965e-05
234	0xb7167bc4	-8.969513e-06
235	0xb83692e9	-4.3529002e-05
236	0xb805ae32	-3.1871903e-05
237	0xb7d73b1d	-2.5657524e-05
238	0xb62afb25	-2.547816e-06
239	0xb7ee3c52	-2.83999e-05
240	0xb90e43c9	-0.00013567427
241	0xb83df20f	-4.5286546e-05
242	0xb78a4a3d	-1.6485452e-05
243	0x372e659a	1.0394864e-05
244	0xb8871eed	-6.443062e-05
245	0xb8c4e850	-9.38928e-05
246	0xb7160c16	-8.943511e-06
247	0xb893a51f	-7.0402624e-05
248	0x3881c736	6.188305e-05
249	0xb87595d4	-5.855209e-05
250	0xb8af73a6	-8.3661915e-05
251	0xb8ec563f	-0.000112694215
252	0x37869f6f	1.6048287e-05
253	0xb6d34dca	-6.297346e-06
254	0xb8b48637	-8.608068e-05
255	0xb7f2ebef	-2.8958513e-05

exp_avg_sq f4 [20, 20]
0	0x32395aa8	1.078903e-08
1	0x31f573dc	7.14361e-09
2	0x320a3365	8.044343e-09
3	0x32080c5a	7.91905e-09
4	0x31e92ce7	6.7862973e-09
5	0x31e0a6c4	6.538217e-09
6	0x319720b8	4.398398e-09
7	0x31bb3b1c	5.4491363e-09
8	0x316ef5d7	3.4773302e-09
9	0x31da9c64	6.3624146e-09
10	0x32012cb1	7.51895e-09
11	0x3226c988	9.708295e-09
12	0x31d001b6	6.0537912e-09
13	0x31f527c7	7.1349606e-09
14	0x3210da68	8.431563e-09
15	0x31a9782d	4.9322098e-09
16	0x31a4928a	4.7896878e-09
17	0x31ee9adf	6.9443185e-09
18	0x320c4812	8.165459e-09
19	0x3210111a	8.385792e-09
20	0x341cdb95	1.4608516e-07
21	0x341d7768	1.4665204e-07
22	0x31db6207	6.3848833e-09
23	0x3207b7d4	7.899832e-09
24	0x33f3483a	1.1328707e-07
25	0x3424f705	1.5363555e-07
26	0x313a7ef2	2.7138722e-09
27	0x31de75e8	6.4744548e-09
28	0x321e207a	9.204195e-09
29	0x33a8d1c7	7.861268e-08
30	0x345df853	2.0672569e-07
31	0x34670299	2.1514496e-07
32	0x3221d0dd	9.418923e-09
33	0x31b88b2f	5.370928e-09
34	0x3440aff0	1.7945399e-07
35	0x3394809e	6.9151824e-08
36	0x315e0c00	3.2312073e-09
37	0x342e62e3	1.6240988e-07
38	0x3463dc8d	2.1221258e-07
39	0x3453c49f	1.9722437e-07
40	0x339f418d	7.415938e-08
41	0x34d3aa82	3.9425873e-07
42	0x349e29b9	2.946015e-07
43	0x34b2a8a4	3.3277786e-07
44	0x344bff19	1.8998652e-07
45	0x340cf58b	1.3127844e-07
46	0x33db4e9a	1.021228e-07
47	0x342896c1	1.5701063e-07
48	0x33fe5499	1.1843185e-07
49	0x33e71484	1.07605075e-07
50	0x34c02f57	3.579723e-07
51	0x3442313e	1.8085572e-07
52	0x34953d63	2.7798077e-07
53	0x348c20d6	2.6100923e-07
54	0x3458c704	2.0188969e-07
55	0x342a093f	1.5835847e-07
56	0x34065712	1.2511398e-07
57	0x34b0f446	3.2960287e-07
58	0x3404a586	1.2353675e-07
59	0x3410c825	1.3483857e-07
60	0x339a4a6b	7.1847204e-08
61	0x33394398	4.3135145e-08
62	0x32cf122e	2.4106239e-08
63	0x32be38d3	2.2144752e-08
64	0x33693f1d	5.430694e-08
65	0x338510b8	6.196336e-08
66	0x327d1898	1.473213e-08
67	0x328bf552	1.6293288e-08
68	0x32359bc4	1.0571004e-08
69	0x333487c8	4.2033008e-08
70	0x33b78d02	8.547251e-08
71	0x33bff3ae	8.938456e-08
72	0x3292d6ec	1.7094372e-08
73	0x32ad29c8	2.015885e-08
74	0x339c9526	7.291446e-08
75	0x33133d4e	3.428186e-08
76	0x32736a8f	1.416869e-08
77	0x339754ee	7.046934e-08
78	0x33a1fa2c	7.542653e-08
79	0x33a2a9f8	7.57463e-08
80	0x34b41b10	3.3547303e-07
81	0x348d6a6d	2.6340732e-07
82	0x325a92e2	1.2722667e-08
83	0x32433775	1.1363103e-08
84	0x345325ce	1.966466e-07
85	0x34a8348c	3.133067e-07
86	0x319f3a49	4.6341353e-09
87	0x326d4910	1.3811828e-08
88	0x31e50b94	6.6660935e-09
89	0x3425ec05	1.5452686e-07
90	0x34d37bbd	3.9391844e-07
91	0x34f1e50c	4.5056402e-07
92	0x3257f736	1.2570856e-08
93	0x320b678a	8.114407e-09
94	0x34ba181d	3.4662744e-07
95	0x34115b3c	1.3537368e-07
96	0x31bc93c1	5.488318e-09
97	0x34ac628d	3.2109202e-07
98	0x34f49ec6	4.5564065e-07
99	0x34d8141c	4.0247767e-07
100	0x331e4e11	3.6858243e-08
101	0x33b35d70	8.352333e-08
102	0x339f018b	7.404295e-08
103	0x33a81914	7.827671e-08
104	0x334a3764	4.7082167e-08
105	0x328a7c76	1.6121913e-08
106	0x3309f4ae	3.2120333e-08
107	0x33384b93	4.2909573e-08
108	0x331cec51	3.653651e-08
109	0x335ee6be	5.189826e-08
110	0x338fd4f9	6.697696e-08
111	0x32f1b845	2.8139889e-08
112	0x339c5181	7.2791416e-08
113	0x337405eb	5.681606e-08
114	0x32e2ecf6	2.641762e-08
115	0x333696f6	4.2512475e-08
116	0x331c2078	3.635111e-08
117	0x337b3080	5.8484602e-08
118	0x320912d3	7.97873e-09
119	0x32ad8d7e	2.0204194e-08
120	0x322ad76c	9.944284e-09
121	0x32e20e47	2.6316355e-08
122	0x345b5d6f	2.0429955e-07
123	0x344dbdc4	1.9161149e-07
124	0x324818ef	1.1647201e-08
125	0x3231d60a	1.0351423e-08
126	0x33f4d82a	1.14014554e-07
127	0x340b9b8c	1.3001971e-07
128	0x33591dc3	5.0551318e-08
129	0x323cf814	1.0999447e-08
130	0x322af627	9.951271e-09
131	0x327d005c	1.472662e-08
132	0x3421d135	1.5070403e-07
133	0x3436423f	1.6974171e-07
134	0x3260bbbb	1.3081201e-08
135	0x32104a7a	8.398837e-09
136	0x33ef0a57	1.11311856e-07
137	0x326cab5b	1.377597e-08
138	0x31e69787	6.7111077e-09
139	0x322bb746	9.995182e-09
140	0x33e30b81	1.0572604e-07
141	0x33c6efbe	9.263702e-08
142	0x34195354	1.427955e-07
143	0x34173e2e	1.4085592e-07
144	0x33ec0c07	1.0991794e-07
145	0x33b394b1	8.362384e-08
146	0x3389efa1	6.423148e-08
147	0x339fea9c	7.44669e-08
148	0x335f9e5e	5.2065268e-08
149	0x33dc7bde	1.02670796e-07
150	0x33f83e1e	1.1559699e-07
151	0x3408aa35	1.2727908e-07
152	0x3406530c	1.2509935e-07
153	0x33e4fbc5	1.0662874e-07
154	0x33ed2330	1.1042573e-07
155	0x33bfce5f	8.931669e-08
156	0x3396da81	7.024665e-08
157	0x33ee4749	1.1095705e-07
158	0x3393cecd	6.882838e-08
159	0x33c3c12d	9.1155336e-08
160	0x35e6ab20	1.7186139e-06
161	0x35d2406a	1.5664966e-06
162	0x357f96e2	9.5214466e-07
163	0x357f991d	9.521771e-07
164	0x357ca161	9.411215e-07
165	0x35bd02ce	1.4082414e-06
166	0x34e221c9	4.2120362e-07
167	0x352ce32c	6.440557e-07
168	0x344e2821	1.9199844e-07
169	0x355ff87a	8.3435555e-07
170	0x3605aa29	1.991759e-06
171	0x3608b029	2.0368118e-06
172	0x3566e8d1	8.602047e-07
173	0x354b8118	7.581125e-07
174	0x35ceecd2	1.541712e-06
175	0x3513fd3f	5.513029e-07
176	0x35047771	4.934764e-07
177	0x35c48d55	1.4644271e-06
178	0x36160923	2.235706e-06
179	0x35fae255	1.8692323e-06
180	0x3269a957	1.3600888e-08
181	0x32d78af7	2.5092488e-08
182	0x3255fb3e	1.2455358e-08
183	0x32697737	1.3589491e-08
184	0x3253dabb	1.233155e-08
185	0x314be5e2	2.9671061e-09
186	0x31a2d6b9	4.7392317e-09
187	0x321562f3	8.69544e-09
188	0x3212cdc2	8.545102e-09
189	0x3267088c	1.3447913e-08
190	0x32a4760e	1.9145798e-08
191	0x31781db3	3.6105632e-09
192	0x326a0445	1.3621563e-08
193	0x3227a11a	9.75731e-09
194	0x31ad95f6	5.0520113e-09
195	0x3203e7b3	7.677886e-09
196	0x31dfcb16	6.5132424e-09
197	0x323da1a1	1.1037998e-08
198	0x31919549	4.237027e-09
199	0x3196d2ae	4.389526e-09
200	0x339784e2	7.055657e-08
201	0x339251a2	6.813504e-08
202	0x33361374	4.239287e-08
203	0x33476135	4.6421707e-08
204	0x3311f363	3.3981802e-08
205	0x33356388	4.223287e-08
206	0x3247823e	1.1612938e-08
207	0x32d8ad85	2.5224617e-08
208	0x32183cbd	8.861375e-09
209	0x330b93a5	3.249774e-08
210	0x33bc4323	8.766644e-08
211	0x336d6c32	5.5279266e-08
212	0x334f79f3	4.8306855e-08
213	0x33018330	3.0154467e-08
214	0x3330b8b6	4.1146187e-08
215	0x31ebd106	6.8631634e-09
216	0x328aeaf1	1.6172153e-08
217	0x331e1aed	3.681173e-08
218	0x33b3abd6	8.366594e-08
219	0x3380e058	6.0012724e-08
220	0x32098316	8.004255e-09
221	0x3292ee05	1.7104876e-08
222	0x327e44b8	1.4800371e-08
223	0x328f5a16	1.6688357e-08
224	0x31dc5f9a	6.4137113e-09
225	0x30fc4304	1.835446e-09
226	0x31b59715	5.2849694e-09
227	0x321007c4	8.383669e-09
228	0x31ec4400	6.8762347e-09
229	0x320b4306	8.106104e-09
230	0x321e7068	9.222369e-09
231	0x31db3002	6.3791967e-09
232	0x3294fd50	1.734466e-08
233	0x323e7d7e	1.1087989e-08
234	0x31a313c2	4.7461706e-09
235	0x32031571	7.630079e-09
236	0x31e202ce	6.5777845e-09
237	0x32450156	1.1467213e-08
238	0x311a4686	2.2450037e-09
239	0x31398750	2.699796e-09
240	0x33e13ba1	1.04882254e-07
241	0x33b5a37a	8.4582055e-08
242	0x3377aa85	5.7664256e-08
243	0x33426aac	4.5266162e-08
244	0x33ba19c8	8.6659895e-08
245	0x33a5ee39	7.726744e-08
246	0x32f54db7	2.8557094e-08
247	0x339897bc	7.105652e-08
248	0x32f819e3	2.8882772e-08
249	0x33b35017	8.349905e-08
250	0x345a7fde	2.034935e-07
251	0x33b8cc67	8.605348e-08
252	0x33279650	3.9019426e-08
253	0x3348c23a	4.6742777e-08
254	0x33860fb8	6.2427205e-08
255	0x32ac4989	2.0056875e-08

exp_avg f4 [20]
0	0xacb8ee7a	-5.2560708e-12
1	0x2ca27660	4.617459e-12
2	0x2de1af1d	2.5657304e-11
3	0xad3a7e15	-1.0600872e-11
4	0xaca54c72	-4.698069e-12
5	0x2c0a76d2	1.9676938e-12
6	0xad52543e	-1.19558235e-11
7	0xad890614	-1.5577796e-11
8	0x2e838236	5.9803204e-11
9	0x2c8da4c2	4.025753e-12
10	0xaddaaf20	-2.4861502e-11
11	0x2a8620e8	2.3826015e-13
12	0xac82f1ee	-3.721682e-12
13	0x2c600988	3.1837605e-12
14	0x2e155f24	3.396318e-11
15	0x2dce395c	2.3444961e-11
16	0xacc4b941	-5.5912224e-12
17	0x2cdb1396	6.226529e-12
18	0x2dc3f7fb	2.2279059e-11
19	0xac1bd7b8	-2.2146573e-12

exp_avg_sq f4 [20]
0	0x1c5b9ceb	7.2663833e-22
1	0x1d79d69b	3.3065824e-21
2	0x1f405339	4.0726422e-20
3	0x1d85f4c4	3.545789e-21
4	0x1e0bddbb	7.4044515e-21
5	0x1ea518dd	1.7480338e-20
6	0x1e43a0f6	1.03565e-20
7	0x1e903add	1.5270938e-20
8	0x1e9ac719	1.6387729e-20
9	0x1dc1792e	5.121197e-21
10	0x1dbd44b8	5.0098937e-21
11	0x1d89ae31	3.6443708e-21
12	0x1e7d9284	1.3424007e-20
13	0x1e95b833	1.5852172e-20
14	0x1f0d1862	2.987808e-20
15	0x1d26bf08	2.2068678e-21
16	0x1df0410d	6.359473e-21
17	0x1cf0b1c8	1.5927823e-21
18	0x1e12e098	7.7756205e-21
19	0x1da0a61a	4.2523392e-21

exp_avg f4 [20]
0	0x3764e0d5	1.3642207e-05
1	0x37a0b3d4	1.9157225e-05
2	0xb86ababd	-5.596386e-05
3	0xb790fbcf	-1.7283395e-05
4	0x3852c167	5.024802e-05
5	0x38a6879b	7.940755e-05
6	0x39d9eb13	0.0004156461
7	0xb769a35c	-1.3925917e-05
8	0x37aec9b5	2.0836344e-05
9	0x38b3997f	8.563976e-05
10	0x390c6131	0.00013387647
11	0xb7ffb3be	-3.0482068e-05
12	0x392fd915	0.0001677017
13	0xb9c061e2	-0.00036694022
14	0x36a48c2c	4.903899e-06
15	0x38392654	4.4143133e-05
16	0x39939b6b	0.0002815382
17	0xb69a46f2	-4.5978168e-06
18	0x3904f59e	0.0001268
19	0x37877578	1.6147955e-05

exp_avg_sq f4 [20]
0	0x344fc6ad	1.9350655e-07
1	0x33dad413	1.0189992e-07
2	0x3788f324	1.6325685e-05
3	0x360b5b81	2.0765876e-06
4	0x34409851	1.7936806e-07
5	0x3775ca87	1.46502925e-05
6	0x3630aa35	2.6325117e-06
7	0x3757ce67	1.2863055e-05
8	0x351bb7cb	5.8009454e-07
9	0x363de70d	2.8297684e-06
10	0x34863450	2.4997507e-07
11	0x36040b19	1.9675992e-06
12	0x3536279b	6.7857917e-07
13	0x363f42fd	2.850021e-06
14	0x372dac16	1.035167e-05
15	0x32c1ee33	2.2576478e-08
16	0x35998e5a	1.1440818e-06
17	0x353a9e34	6.9520615e-07
18	0x3622335f	2.4169783e-06
19	0x35783b76	9.2473726e-07

exp_avg f4 [20]
0	0xb7b6d575	-2.179549e-05
1	0x3832df8b	4.2646698e-05
2	0x39c8d69d	0.00038306872
3	0xb91630ca	-0.0001432329
4	0x38bac19b	8.905233e-05
5	0xb9872239	-0.00025774704
6	0x3a26d0c4	0.0006363506
7	0x39ccea31	0.00039084398
8	0xb7d19280	-2.498296e-05
9	0xb892ed90	-7.006072e-05
10	0x39569bde	0.00020466695
11	0x38e6acc7	0.00010999437
12	0x39584f05	0.00020628802
13	0xb9cbd2c7	-0.0003887622
14	0x39dfa299	0.0004265502
15	0x3883a30f	6.276939e-05
16	0x39fe5afa	0.00048514438
17	0xb8960109	-7.15275e-05
18	0x39927f1e	0.00027942
19	0x38fcf3e1	0.000120617224

exp_avg_sq f4 [20]
0	0x33e893b9	1.08302125e-07
1	0x33fd3235	1.1790363e-07
2	0x37520f86	1.252059e-05
3	0x360176c0	1.929162e-06
4	0x349727ea	2.8154983e-07
5	0x370266f3	7.772574e-06
6	0x36edaa08	7.0829446e-06
7	0x373ad281	1.1135476e-05
8	0x3502be77	4.8705937e-07
9	0x35a56afd	1.2324596e-06
10	0x353aa4c4	6.9530165e-07
11	0x35a968fc	1.2622036e-06
12	0x3568780b	8.660142e-07
13	0x36599288	3.2420812e-06
14	0x373e12a7	1.1329225e-05
15	0x333d94cf	4.4140332e-08
16	0x36830f4d	3.9058855e-06
17	0x351440eb	5.5228764e-07
18	0x36776f42	3.6870629e-06
19	0x357eeba8	9.49653e-07

exp_avg f4 [1, 20]
0	0xba201813	-0.0006107103
1	0x3a651961	0.00087394385
2	0xb7769359	-1.469705e-05
3	0xb828eb4f	-4.027347e-05
4	0x3ae9e2bc	0.0017844061
5	0xba1d113b	-0.0005991642
6	0x3b4496f7	0.0029997209
7	0x39977c04	0.00028893363
8	0xb99ead89	-0.00030265402
9	0xba8b5ca4	-0.0010632467
10	0x3b7411df	0.0037242097
11	0xb9917d9e	-0.00027750147
12	0x3b1d9504	0.002404512
13	0x3aefcf47	0.0018296026
14	0x3a22c945	0.0006209801
15	0x3ad1b17a	0.0015998327
16	0x3b439043	0.0029840625
17	0xb9081977	-0.00012979457
18	0x3adb9489	0.0016752641
19	0x3a30dab5	0.0006746457

exp_avg_sq f4 [1, 20]
0	0x39456080	0.00018823333
1	0x397cd919	0.00024113468
2	0x3a0381b1	0.0005016579
3	0x39689737	0.00022181576
4	0x3977c180	0.0002362784
5	0x39a8d13f	0.00032199358
6	0x390d07dd	0.00013449737
7	0x3a0c8249	0.000535999
8	0x3908dd6f	0.00013052461
9	0x39a92bd4	0.00032266846
10	0x3952a77a	0.0002008955
11	0x3a0a3598	0.00052722683
12	0x38f25550	0.0001155535
13	0x3894c32a	7.093542e-05
14	0x3a101674	0.000549651
15	0x382e79b4	4.1598178e-05
16	0x3900e229	0.00012291282
17	0x395fddc2	0.00021349548
18	0x39ba36cf	0.0003551752
19	0x39fb8979	0.00047976876
