models/DenseModel.pt (torch, 630616 bytes, 31 tensors)

fcs.0.weight f4 [200, 49]
00000000: e8d4 5f3d 8723 e73c 7a12 a1bc 33e7 a5bc
00000010: cc6f 30bd 9394 ad3d 124a 7e3c c44e 493d
00000020: d283 453e 6c89 543e d526 663e 2c01 c83d
00000030: bfcb d1bc 1b0a b93d 2c37 81bd bc85 bb3b
00000040: 627c e83c a230 243d e8a0 8abd b04a b13d
00000050: 8f9b 3c3c 202e 803d 1ae9 bd3d 14d5 90bd
00000060: f437 46be f91c f83c 58e9 52bd b2b4 f93d
00000070: fe23 40bd 5b3b aa3c 352d 013e ca29 6d3e
00000080: 5903 033e d3ae 8c3c 5070 dd3d 92c1 6b3d
00000090: acc1 273d 0f8f a9bc 8dbf 1bbd 1ff1 a93d
000000a0: 86c7 a23d 9f5f 853d 35ab f03d 8f3a ca3d
000000b0: abdf a23d 0a75 0a3e 2e66 2a3e 4bd1 43bd
000000c0: 0e6b 523d 758b d3bc af70 f23c 2f64 bbbd
000000d0: f04f 3dbe cd94 cebd 7d1a c2bd 028e 793d
000000e0: 207d ba3d 29ab d33d 048e bcbd c152 57be
000000f0: 3c0d fb3c e00c e4bc 4a43 e03d 5508 98bc
00000100: fc41 493d b849 afbd 4952 053e 5850 403d
00000110: 02a8 5d3d 2c28 9e3b 236d ccbd 815b 78bc
00000120: b85e a7bc 5555 2abd 891f d03c af4c e43d
00000130: e973 093e 3ff5 d0bd 99ee 4e3c 4531 093e
00000140: e039 bb3d b142 6cbd 8864 bfb9 d746 6cbd
00000150: 14b4 613c 71b1 8bbd f733 343d 2d71 1f3e
00000160: 8974 113e c22a 49be 0c87 d6bd 5f1a 6cbd
00000170: 7e4f a2ba 69c0 f53d c132 153e 9c22 b63d
00000180: 2417 f7bd bda2 13be 317f 073e b4ba 993d
00000190: 535c 6b3b 7e9e 8d3d 412e df3d 24a6 6ebd
000001a0: 715c 023c cd7d 503d aeee 26bb 7de9 8fbd
000001b0: 3821 8dbd 28e2 c53d 5b86 d63b 70d3 20bd
000001c0: b07b 2dbd 9cd1 32bc 609b 23bd 7a8b 84bd
000001d0: 150b 3d3d 5ec3 9dbd 6aad dd3d 35c9 b2bb
000001e0: 7b1a 9b3c cbe7 c93d e91d 1c3d 5639 f23d
000001f0: c45f 103e f90b 3ebd 79f0 0f3e c35f 383e
00000200: b1af 1b3e ca70 e7bc 4293 cb3d c3ac 053e
00000210: 8021 82bd 2ff4 673d 6b4e c1bc f62e 9e3c
00000220: 6afa b53d be43 1d3e 06f3 04be ba4a 163e
00000230: 9277 7fbd 6117 8b3d 66d9 233e 1dfe 613d
00000240: a0a5 e93d 5c47 653d 2dca 9bbd 28a3 c23d
00000250: 69ce 14bd 2989 003e f10a 963d 8c00 f73d
00000260: d4f3 033e 5fee d93b a0d1 80bc d4c0 873d
00000270: 12ba a1bd be71 4fbd e6a6 c8bc 1ef4 213e
00000280: f5a7 1c3e acb7 1d3d ebdf 563d 0c7c 363e
00000290: 91fd 163e 1f1e 193d 25f3 e13d 1972 1f3e
000002a0: 154b 453c bee2 fabd 67aa c7bd 41b7 573c
000002b0: 5611 91bd 6e71 40bd fe4d ca3d 7ba4 063e
000002c0: 05a1 173c 0641 f63d 5cd0 c2bc 2f84 1a3c
000002d0: 415c 0d3e 4857 473d 9810 fb3c d526 bc3d
000002e0: 0f0f c5bd f60a 803c 3b60 1bbd 0832 a5bc
000002f0: 226f a53c 7e30 97bd 242b 7f3d 8c47 973a
00000300: 3301 38bd 62b0 1f3d bea4 2ebd bb5e c93d
00000310: b75e 873d 4628 023e 4db3 2c3e 640c 723d
00000320: 2f12 4d3e d2a0 043e 6fe9 3e3d 11b1 81bd
00000330: 8bf6 2b3e 4b58 863d efac 163e dbd1 0a3d
00000340: a254 753d e8ac bc3c ad41 ccbc 534c c7bc
00000350: b7d2 933c 2f7d 283e 3536 373d 29be e1bc
00000360: 1c9b 65bd 9bf0 ae3d 7cba abbc bed4 4cbd
00000370: 7814 9ebe 7e2f 08be 5960 56bd 3a03 b63d
00000380: dd6a 0e3d e5cf 41bc 2699 10bd a2bd 1abb
00000390: ae1d be3d a168 2e3d 4c20 c5bc 085a f83c
000003a0: d256 623d 82f3 393c 9239 6e3d bb0e ca3c
000003b0: a2a3 ed3d 33f6 1e3d 414e ac3d c4df b0bd
000003c0: 0d5a 653d 0188 f63d f144 fd3d f740 a8bc
000003d0: d3b0 a23d e320 00be 0d1a 4d3d 129c cabd
000003e0: 4c37 89bd b85c de3d 739c 853c 237a 52bd
000003f0: f882 c7bd d82c 5f3d 051a c4bc f533 51bd
0.054646403 0.028215183 -0.01966213 -0.020251846 -0.043075368 0.08475604 0.015520589 0.049147382
0.19288567 0.20755547 0.2247575 0.097658485 -0.025609849 0.090351306 -0.06309351 0.0057227295
0.028379623 0.040085442 -0.06768972 0.08656824 0.011511697 0.06258798 0.09272976 -0.070718914
-0.19357282 0.030287253 -0.051492065 0.12192668 -0.046909325 0.020780256 0.12614901 0.23160473
0.12794246 0.017173206 0.108124375 0.05755765 0.040956184 -0.020698098 -0.038024474 0.08297943
0.07948212 0.06512379 0.11751405 0.098744504 0.079528175 0.1352121 0.16640541 -0.04780702
0.051371627 -0.025823334 0.029594747 -0.09149968 -0.18487525 -0.10086975 -0.094777085 0.060926445
0.09105897 0.103353806 -0.09206775 -0.21027662 0.03064596 -0.02783817 0.10950334 -0.01855866
0.049135193 -0.085589826 0.1301967 0.04695162 0.054115303 0.004826566 -0.09981754 -0.015158535
-0.020430908 -0.041585285 0.025405662 0.11147439 0.13423122 -0.10203027 0.012630128 0.13397701
0.09141898 -0.05768079 -0.0003650526 -0.057684746 0.013775844 -0.06820954 0.04399487 0.15570517
0.14204611 -0.19645217 -0.10474977 -0.057642337 -0.001238331 0.1199959 0.14570142 0.0889332
-0.120649606 -0.14417548 0.13232113 0.07506314 0.0035913184 0.069149956 0.10897494 -0.058263913
0.00795661 0.050901223 -0.0025471854 -0.07026956 -0.068911016 0.096622765 0.006546778 -0.039264143
-0.042354286 -0.010914233 -0.0399431 -0.064719155 0.046153147 -0.07703279 0.10824092 -0.0054561147
0.018933525 0.09858664 0.038114462 0.11827342 0.14099032 -0.046398137 0.14056577 0.1800528
0.1520374 -0.028252024 0.099401966 0.13054185 -0.06354046 0.056629356 -0.023596963 0.019309502
0.08885653 0.15357873 -0.12983331 0.14676943 -0.06236989 0.067915685 0.160009 0.055173982
0.114085436 0.055976257 -0.07606921 0.09503776 -0.03632966 0.12552322 0.07326306 0.12060651
0.12885982 0.0066507305 -0.015724957 0.06628576 -0.07896818 -0.050645582 -0.024493646 0.1581578
0.15298446 0.03850524 0.05245964 0.17820758 0.14745165 0.03738224 0.11032704 0.15570869
0.012041827 -0.12250279 -0.097492985 0.01316625 -0.07083385 -0.046983175 0.09878157 0.13148682
0.009254699 0.12024121 -0.023780994 0.009430929 0.13804723 0.048667222 0.030647561 0.09187094
-0.09622013 0.015630227 -0.03793357 -0.020165458 0.020194594 -0.07382296 0.062297 0.0011541708
-0.04492302 0.03898657 -0.04263758 0.098325215 0.06609862 0.12710676 0.16865273 0.059093848
0.20026468 0.12951973 0.04660934 -0.06332601 0.16793267 0.06559809 0.14714406 0.03389154
0.059895165 0.023031667 -0.02493366 -0.024328386 0.018044813 0.16454004 0.04472943 -0.027556496
-0.056056127 0.085419856 -0.020962946 -0.050007574 -0.3087499 -0.13299367 -0.052337978 0.08887334
0.03476988 -0.011829351 -0.035302304 -0.0023611565 0.09283005 0.04258025 -0.024063252 0.030316368
0.05525858 0.011349561 0.058160372 0.024665227 0.11603476 0.038809013 0.08413363 -0.0863643
0.055994082 0.120376594 0.12366665 -0.02053879 0.07943883 -0.12512545 0.050073672 -0.09893049
-0.067 0.108575284 0.016309952 -0.05138601 -0.09741777 0.054486126 -0.023938188 -0.05107494

fcs.0.bias f4 [200]
00000000: 9378 06be 7b6a 893c f274 ac3b a314 853c
00000010: fe7d 2fbd 0be3 e5bc d45f 0a3e 889f 43bc
00000020: a29e 02bd 28d6 963d afb2 183d 78e9 b53d
00000030: c481 b13d ec01 03be 805e cebd 64c9 b5bc
00000040: 853d 04be 7748 003e f5a8 a13b 29bb f03c
00000050: cafe 893d c4bf 9a3d ab78 3b3d c2b8 083d
00000060: 84b4 09ba baf0 f73b f4e9 f5bd fba7 8a3d
00000070: cc40 97bd ef09 33bd ed83 edbc 0536 423d
00000080: e0e4 8ebd 0011 093b 9b60 f73c f90c 1d3d
00000090: f4e3 bebd 2f0e b73d e1cd fabc 57f7 d1bd
000000a0: 1f07 0b3c e5d1 b1bd f762 5b3d 0a16 fc3d
000000b0: 7f43 803d 9d8b 39bc 0159 c6bd c17c 48bc
000000c0: ffcb 953d e16d acbd d999 e8bd f003 7b3d
000000d0: 3450 05be 9f5a 123d 7e4e 2dbd 0786 ccbd
000000e0: ed23 023e 9daf f43d 167f 393d 3ecf 05be
000000f0: 5653 0b3d 73c5 f8bc 4ea7 34bd d589 a43c
00000100: afe5 c13d cd6c d2bb c9ee 933d 7500 003e
00000110: b14b a23d ae11 5fbd bc5f 1dbd b4ab f53c
00000120: bd2d 01be dd73 813d 60b8 b03d 2286 cdbd
00000130: 5b5e 43bd 112a 5b3d a60b 183d f237 b8bd
00000140: b141 8ebc cb68 173c 65db 973c 7d6f 01be
00000150: 5b30 033e 506c b8bc 9e01 c03d 655a 50bc
00000160: 8541 ad3d 5289 e8bd 4645 aebd 3722 ed3b
00000170: 64d7 cd3d fefc 09be 0ada e2bd a12e 06bd
00000180: a65e 183d ba32 1bbd 31d7 eebd 07cc 49bd
00000190: 8979 e8bd 0832 5a3d a7e3 0cbe 8b66 35bd
000001a0: e054 c33d 3390 b83d d808 edbd ed95 80bd
000001b0: 6758 803d b9dd 033e c033 9fbc 051d 82bc
000001c0: 92f9 a8b8 4f4b 133e bd84 9b3c 6957 6bbd
000001d0: d868 d3bc 3fc4 f1bd 834f 913d 2dbf 03be
000001e0: fa5f d3bd 5f81 9fbd 325a e2bc ea24 333d
000001f0: 34ef 9bbd cbfe d73d 0662 e7bc ff54 09be
00000200: b884 ffbc 6ad7 713d 8059 f53d 5822 19bd
00000210: 7b49 febd 583b f7bd 2d9b adbd de18 f8bb
00000220: 172c 0abe 961d e33d a49a 713c 8231 c83d
00000230: b39f 12be 0b6e f9bb 8025 f8bd 3f53 13bd
00000240: caaf c03c a907 3d3d f899 bf3d 9d20 8fbc
00000250: e0ba 53bd 772d a53d 13ce 60bd 1f36 8dbb
00000260: 71a2 cdbc 32e4 fbbc 826c bfba be6a a1bb
00000270: 3dd1 113d 25d6 01bd fa52 a5ba a631 bf3d
00000280: 79e8 333d d71f ecbc 4279 8fbd 398e 8ebd
00000290: 2f1e bc3d 79a1 ec3d c6f1 ef3d cf3e 9ebc
000002a0: ef5f e8bc 70fb d0bd 40e4 f3bd c889 f83d
000002b0: af15 fe3d 0d4c 353d 3108 033e 8913 8c3c
000002c0: c75c 1a3d 0ffd 01be 187e 0cbe 5013 533d
000002d0: 7e57 bdbc c659 473d 7872 4fbd 3540 55bd
000002e0: 5728 0ebc 40d2 b93d 0b79 b4bd e077 d03d
000002f0: 6819 e23c 692e a93d c9be 593d e7fc 51bd
00000300: 61ca a33d 12a3 3b3d 3405 173d f5b0 e93d
00000310: 3a54 aabd ca5b 07be 5331 263d 681e a9bd
-0.13131933 0.016774407 0.0052629644 0.016245192 -0.042844765 -0.028062364 0.13513118 -0.011939891
-0.031889565 0.07365066 0.03727978 0.08882421 0.08667329 -0.12793702 -0.10076618 -0.022190757
-0.12914093 0.12527643 0.0049334713 0.02938612 0.0673805 0.07556108 0.045769375 0.033379324
-0.0005253034 0.0075665386 -0.12007514 0.06770321 -0.07385406 -0.043710645 -0.028993571 0.0474148
-0.06977248 0.0020914674 0.030197432 0.03834245 -0.09320822 0.08938252 -0.030615749 -0.102522545
0.0084855845 -0.08682612 0.053561177 0.12308891 0.06262874 -0.01132479 -0.09684945 -0.012236775
0.073143 -0.08419395 -0.11357469 0.061283052 -0.13018876 0.035730954 -0.042311184 -0.09986501
0.12709017 0.11947558 0.045287214 -0.13067338 0.034015022 -0.030367589 -0.044104867 0.020085255
0.09467637 -0.0064216615 0.07223279 0.12500174 0.07924593 -0.05446022 -0.038421378 0.029989101
-0.12615104 0.06320927 0.08628917 -0.100353494 -0.047697406 0.053506915 0.037120484 -0.08995046
-0.017365308 0.009241293 0.018537233 -0.12640186 0.12811415 -0.022512585 0.093753085 -0.012716864
0.084597625 -0.11354317 -0.085093066 0.0072367447 0.10050848 -0.13475415 -0.11076744 -0.032759313
0.03719964 -0.037890173 -0.11662138 -0.04926684 -0.11351306 0.05327037 -0.13758717 -0.044287246
0.09537673 0.09011879 -0.115739524 -0.06278596 0.062668614 0.12877549 -0.019433856 -0.015882978
-8.05735e-05 0.14384197 0.018984193 -0.057456408 -0.02580683 -0.11805009 0.07095244 -0.12865897
-0.103210405 -0.077883475 -0.0276309 0.043736376 -0.07613984 0.10546645 -0.028244983 -0.1341133
-0.031191215 0.059043325 0.119799614 -0.03738627 -0.12416359 -0.12071866 -0.08476863 -0.007571324
-0.13493381 0.110896274 0.014746342 0.09775068 -0.14318733 -0.007611995 -0.121165276 -0.03596806
0.023521323 0.046149883 0.09355539 -0.017471606 -0.05169189 0.08065312 -0.054884028 -0.0043094303
-0.025101872 -0.03074846 -0.0014604481 -0.0049260547 0.035599936 -0.031698365 -0.001261323 0.093356416
0.043922875 -0.028823776 -0.0700555 -0.069607206 0.091854446 0.11554236 0.117160365 -0.019317059
-0.028366057 -0.10204208 -0.119087696 0.12135655 0.124064796 0.04426198 0.12796094 0.017099159
0.037686136 -0.1269419 -0.13719976 0.05153209 -0.023113009 0.0486696 -0.050646275 -0.052063186
-0.00867661 0.09073305 -0.088121496 0.10179114 0.027600005 0.08260805 0.053160463 -0.051266577
0.07997585 0.045809813 0.036870196 0.11410705 -0.08316846 -0.13218608 0.040574383 -0.08257753

fcs.1.weight f4 [200]
00000000: 67ef 883f b3d8 1b3f 4adc 8a3f ece9 8b3f
00000010: fa07 8a3f 9482 7b3f 90e3 7a3f 5130 7f3f
00000020: ead9 8b3f a9fb 763f 794a 963f 1ca0 513f
00000030: 2da0 873f 5235 883f 2d8b 643f 088a 8a3f
00000040: 8695 8f3f 8db5 5b3f 87df 8a3f 2de7 643f
00000050: a297 773f efb8 863f 6372 5b3f 883f 713f
00000060: 684d 463f 9b9b 2f3f 5232 8e3f 1071 773f
00000070: 77e3 833f 08f9 893f 77d2 853f f91f 863f
00000080: d331 2f3f db75 803f d944 693f 790f 863f
00000090: e54e 6f3f 6647 823f 0a1a 283f 1e4f 3c3f
000000a0: 76d6 573f 49a7 843f f455 823f 75e2 843f
000000b0: b246 4d3f fb0f 933f 6684 a53f 5ab2 683f
000000c0: 67e2 863f 4cdb 823f 33ed 8a3f e363 793f
000000d0: ee92 923f 80bd 803f 7cd4 863f 8ec2 5e3f
000000e0: 4ac1 713f b959 803f fa08 673f 6dea 8e3f
000000f0: 4251 973f fe4b 523f ab8d 883f 352a 493f
00000100: 7e12 5e3f b372 273f fe7a 823f 4abd 8c3f
00000110: adcc 8d3f 49da 7f3f 3d7f 7b3f 501b 8e3f
00000120: a7b2 853f afbf 7a3f cf2a 2c3f d489 5b3f
00000130: 6743 413f f6bf 933f 85d6 783f 7291 8f3f
00000140: d5b4 8a3f 943c 493f d05b 7e3f 8a60 803f
00000150: 64f1 873f f08d 883f 3aa9 6e3f b0de 8f3f
00000160: 8865 563f ca44 913f 1393 833f ab18 993f
00000170: ddb6 8b3f bc3e 603f 8c0b 7e3f 15cf 563f
00000180: 8096 643f f970 563f e12e 4d3f 3223 8b3f
00000190: 3086 4c3f 18b7 6d3f d70a 843f b615 8a3f
000001a0: 7500 783f b64e 8c3f 0a7e 7d3f 96bf 8a3f
000001b0: 433c 883f b827 733f ba46 6f3f 56c3 793f
000001c0: 9c17 8f3f 2d24 693f 87b7 8d3f c999 3e3f
000001d0: ff4c 653f cc6e 873f e922 873f f3b0 5a3f
000001e0: 9150 843f a166 4b3f 1d57 4f3f a24d 853f
000001f0: e0ce 873f 54d6 533f 897e 543f ccce 6f3f
00000200: f638 853f ea14 7c3f d036 7e3f a478 7d3f
00000210: 8f7f 863f eeee 9c3f 2854 813f 1432 883f
00000220: a27e 5b3f aeb2 513f cd02 713f e085 693f
00000230: 2c57 423f d44c 7d3f d9c2 8a3f 015b 863f
00000240: e725 7d3f fcaf a03f d086 883f e271 883f
00000250: 8797 803f 5b3d 8d3f 3550 453f 8f55 893f
00000260: eb80 9b3f 2fa8 863f 9db7 2f3f 63c8 5d3f
00000270: 029f 803f fe59 8c3f 0a91 803f 26ad 8a3f
00000280: 6172 763f 6c62 7e3f e9ac 853f 0f66 753f
00000290: 8b63 583f 3d53 683f fd20 603f 068a 883f
000002a0: c7e7 713f 7a8d 833f be03 8e3f 9b84 813f
000002b0: a683 803f 712e 723f 1f55 673f bbd3 633f
000002c0: f965 633f 7a46 8d3f 842f 873f 17c3 4b3f
000002d0: b07b 513f 64fc 7a3f 6309 883f df4b 843f
000002e0: e7ba 8c3f 6f90 943f d166 573f 3366 853f
000002f0: b991 963f 736f 6c3f b140 3e3f c9b3 593f
00000300: e020 8a3f aaa0 873f 816d 493f cecf 7a3f
00000310: a9d2 9a3f 13ca 353f 15fb 5f3f 6744 6b3f
1.069806 0.6087753 1.0848477 1.0930762 1.0783684 0.9824612 0.9800348 0.996831
1.0925877 0.9647775 1.1741477 0.8188493 1.0595757 1.0641272 0.89274865 1.0823374
1.1217506 0.858239 1.0849465 0.89415246 0.9671575 1.0525187 0.85721415 0.94237566
0.7746186 0.6859681 1.1109107 0.96656895 1.0303792 1.0779123 1.0454854 1.0478507
0.684354 1.0035967 0.9112068 1.0473472 0.9347976 1.0178039 0.6566473 0.73558223
0.84311616 1.0363551 1.0182481 1.0381609 0.80186 1.1489252 1.293103 0.9089714
1.0537843 1.0223174 1.0853637 0.9741804 1.1451089 1.0057831 1.0533595 0.87015617
0.9443556 1.0027381 0.9024807 1.1165291 1.1821673 0.82147205 1.0668234 0.7858003
0.86746967 0.6540939 1.0193784 1.0995266 1.1078087 0.9994245 0.98241025 1.1102085
1.0445145 0.97948736 0.6725282 0.85757184 0.7549347 1.1542957 0.9720233 1.1216261
1.0836436 0.7860806 0.99358845 1.0029461 1.0620542 1.0668316 0.9322697 1.1239834
0.83748674 1.1349118 1.0279258 1.1960653 1.091518 0.87595725 0.9923637 0.8390973
0.89292145 0.8376613 0.80149657 1.0870116 0.79892254 0.92857504 1.0315808 1.0787876
0.968757 1.0961521 0.99020445 1.0839717 1.064339 0.9498248 0.93467295 0.97563684
1.117908 0.91070825 1.1071633 0.7445341 0.8957061 1.0580688 1.0557529 0.85426253
1.0337087 0.79453474 0.809923 1.0414317 1.0610008 0.82748914 0.8300558 0.9367492
1.0408008 0.9846941 0.9930239 0.9901221 1.0507678 1.2260416 1.0103807 1.0640283
0.857401 0.8191327 0.941449 0.912199 0.75914264 0.98945355 1.0840713 1.0496522
0.9888596 1.2553706 1.0666142 1.0659754 1.0046242 1.1034349 0.7707551 1.0729235
1.2148718 1.0520076 0.68639547 0.8663389 1.0048525 1.0964963 1.0044262 1.0834091
0.9626828 0.9936893 1.0443393 0.95858854 0.8452689 0.9075201 0.87550336 1.0667121
0.9449429 1.027755 1.1094892 1.0118593 1.0040176 0.94602114 0.9036426 0.8899495
0.8882747 1.1037133 1.0561376 0.7959456 0.8182936 0.9804137 1.0627865 1.0335654
1.0994538 1.1606578 0.8414126 1.0421814 1.1763221 0.9235756 0.7431746 0.85039955
1.0791283 1.0595906 0.78682715 0.97973335 1.2095538 0.71011466 0.87492496 0.9190125

fcs.1.bias f4 [200]
00000000: 45bb af3d 1bef 03be 54dc 043d c8fc 1d3e
00000010: daae d73d 637c 9bbc 83ee 03bd bfa6 5abe
00000020: 39aa dcbd 0656 d43c fd09 a23e 5637 fabd
00000030: bbd7 00be 9879 dbbe 21f4 8a3c 756f d33d
00000040: 4f89 5b3d 88a4 d3bc 9793 36be a86e 9abc
00000050: dae8 b1be b033 b9bd eb20 873d 6f71 293d
00000060: 5fc7 babe f658 a3be 1d39 e5bc e9b5 373d
00000070: 9504 b0bd 49b2 083e 63b3 20be 421f 7d3e
00000080: 6732 36be 82ff 803d d748 ce3d 93b5 483e
00000090: 5b06 943d d0cf cebd 549d 5abe bc16 25be
000000a0: 73ae 9cbd a5ac a53e 78c9 72bd db35 88bd
000000b0: 8a0a e4bd 241e 1d3e d0ed 153e 274f b8bd
000000c0: aebf d4bd 00b2 ed3c c50e 003e d183 56be
000000d0: 2682 393e 51ae 22be d0d7 a6bb 4023 f4bd
000000e0: 8205 88be d67c a0bd 1bb1 953c 7f1a e43d
000000f0: cf35 583e a94c 70be 1e23 3c3d ca3c 333c
00000100: d4f2 3c3e e98c fdbd ca67 803d 9c99 86bd
00000110: be45 293d a8c9 afbb 9346 44bd e26d 263e
00000120: cc51 4a3e 9ed0 f43b 8c65 47be 15ee 8cbe
00000130: 8546 6dbd 98e7 c53d 0193 a73c 558e ccbd
00000140: b287 233e 3940 c9bd f4d8 e93d 5f47 0cbd
00000150: 642d 8cbc b5f1 373d ed55 05be 6a65 293d
00000160: e439 79be da07 81bd 53c7 8cbc 8e2e 703e
00000170: 9520 933e fa09 2dbe 55d9 b63d a635 f5bc
00000180: 7095 0a3e 21b5 67bd 6605 b1bd 4176 47bd
00000190: 7bdd 39be fd70 0abd d486 8ebd 5ff6 b13d
000001a0: f0a7 b239 f0d2 0b3e e322 533b e6a0 8e3e
000001b0: 7ffb 873e d529 b6bd a433 8b3c 6289 f3bb
000001c0: d79f b33d baea 743d c984 233e 331e 97be
000001d0: 2d3d c4bc 4ac2 e93d f493 b3bd c72c 81be
000001e0: 5cac 2e3d 37a3 cebe a38f 7ebd 71f7 8a3c
000001f0: 01ef 58bd 065e cdbd 1e35 95be e02d 543d
00000200: fda6 663d c16c b2bc e9bd 1abe d5f3 19be
00000210: 9399 193c fbed 93be 44b6 b43d 3881 a93d
00000220: 4eb8 9f3c f89b a2be 3707 d73c 969d e43d
00000230: b1eb 3cbd 7031 04be 78fb 8a3c 34cf ce3c
00000240: 4ba9 a9bc ab57 843e 5ed9 f83d d1aa 33bd
00000250: eec3 783c 162e 033d 1cee cdbd cc02 a4ba
00000260: 5974 b7ba 0ad6 74bd cec8 31be 9b3a 603d
00000270: 9f36 8e3b 8b7c 4c3c a63f b6bd 17ba 713d
00000280: 6fd6 dd3d e61d 833d 4745 343d e09e 7e3d
00000290: a054 4cbe b005 58bd ede4 543d b2fa e63d
000002a0: 4369 89bd 4fe2 0a3d 64ac b23d 1997 0bbc
000002b0: 9e42 7f3c ce65 86bc 1e49 28be e0a5 13be
000002c0: 689a 983d 9e66 3bbd 49cc b03d b967 1bbe
000002d0: 5445 c6bd af4f 893e b282 353d 0cca d53c
000002e0: a883 a6bc e674 fa3d e015 b8be c2c5 713d
000002f0: 4c30 583e a95e 80bd fc33 0dbe d048 40bc
00000300: 4f5b 56bc 873e 513e 236c acbc dd63 5e3c
00000310: 041c 653e f7ba 26be 5369 23be 4a80 20bd
0.08580641 -0.1288418 0.032436684 0.1542846 0.10531397 -0.01898021 -0.032209884 -0.21352671
-0.10774655 0.025919925 0.31648245 -0.12217586 -0.12582295 -0.42866206 0.016962113 0.10323993
0.053597745 -0.02583529 -0.17829739 -0.018851593 -0.34747964 -0.09043062 0.065980755 0.041367944
-0.36480233 -0.3190381 -0.027981335 0.044851217 -0.08594624 0.1334926 -0.1569343 0.24718955
-0.17792664 0.06298734 0.10072487 0.19600515 0.07227775 -0.10098231 -0.21349078 -0.16121954
-0.07650461 0.3235828 -0.059274167 -0.06650897 -0.11134823 0.15343529 0.146415 -0.08999472
-0.103881225 0.029015541 0.12505634 -0.20948721 0.18116054 -0.15886809 -0.005091645 -0.11920786
-0.26566702 -0.078363106 0.018272927 0.11137866 0.21114276 -0.23466744 0.045931928 0.010939786
0.18452007 -0.12380392 0.06269796 -0.065722674 0.041326277 -0.0053646155 -0.047918867 0.16252854
0.19757766 0.007471158 -0.19472331 -0.27525392 -0.05792858 0.096633136 0.02045584 -0.09988085
0.15969732 -0.098267026 0.11418334 -0.034247752 -0.017111488 0.044908244 -0.1302106 0.04135648
-0.2433849 -0.06300326 -0.017184889 0.23455259 0.28735796 -0.16898337 0.089281715 -0.029932808
0.13533568 -0.056569222 -0.08643608 -0.04869676 -0.18150894 -0.03379916 -0.0695931 0.0868957
0.0003407593 0.13654685 0.003221684 0.2785713 0.26559064 -0.088946976 0.016992398 -0.007432149
0.087707214 0.059794165 0.15968622 -0.29515228 -0.023954952 0.11414011 -0.08768454 -0.25229475
0.042644843 -0.40358898 -0.0621487 0.016963692 -0.052962307 -0.10027699 -0.29142088 0.051801562
0.056311596 -0.021780374 -0.15111507 -0.15034421 0.009374994 -0.28892502 0.08823827 0.082766
0.019497063 -0.3175962 0.026248557 0.1116287 -0.04612321 -0.12909484 0.016965613 0.025245287
-0.020710608 0.25848135 0.121508345 -0.043864075 0.015183432 0.032026373 -0.100551814 -0.001251304
-0.0013996466 -0.059774436 -0.17361757 0.05474339 0.0043400074 0.012480865 -0.08898859 0.05901536
0.108319156 0.06402187 0.04401138 0.062163234 -0.19954157 -0.0527398 0.051976133 0.11278285
-0.0670953 0.03390723 0.08724287 -0.008519911 0.015579848 -0.016405966 -0.16434142 -0.14418745
0.07451326 -0.04575216 0.08632714 -0.15176286 -0.09681192 0.26818606 0.044314094 0.02609732
-0.02032645 0.12229328 -0.3595419 0.059026487 0.21112174 -0.06268055 -0.13789362 -0.01173611
-0.013083293 0.20434009 -0.021047657 0.013573614 0.22373968 -0.16282259 -0.15958147 -0.039184846

fcs.1.running_mean f4 [200]
00000000: 4eb2 993f dec0 3dbd 9114 813f 9cf1 723f
00000010: a4e2 663f 2cc2 97bf 3f87 b8bf e3cc 2c3e
00000020: 6016 1a3f f60d b6bf c177 a73f aa7d cc3d
00000030: 2343 72bf 8063 6ebe 1098 65bf 47a9 af3f
00000040: dd95 2b3f dd2f 0dbe ccec 8f3d 7aa6 b7bf
00000050: 3dc2 9a3f df4e 1abe 80d1 8abe 7821 aebf
00000060: c1a0 27be 0bf6 3fbd fb35 bb3e e24c 7b3f
00000070: e9c3 a53f 5974 233f 4b1b babe feca 293f
00000080: 8273 f3be 7100 c03f 93aa 453f a43a 523f
00000090: 8c5d d0bf 2534 4b3f 9adc 85be f56a 0bbe
000000a0: 9d82 6cbe 96c7 363f 8fcf 9bbf c0a7 a93f
000000b0: f201 63be ec7d 743f 8ad1 a1be cd9a 1e3f
000000c0: bbe6 6c3f 1cce ee3e 6414 903f 6245 5bbe
000000d0: 53b3 723f b18e 70bf 94d7 99bf e80c 2cbe
000000e0: 217c 143e de05 a03f f385 10be 0aad 823f
000000f0: cce0 a73f df79 22be c1cf 6f3f 32c4 04bf
00000100: ee93 c8bf 4f03 ccbe 9ea5 c53f 26f3 223f
00000110: b60c 903f 425d d6bf b36f 0f3e 17a0 a53f
00000120: f566 8c3e 02aa 683f 38b3 1b3e 995d 70be
00000130: b157 b1be 3297 cb3f 0267 3c3f f1d0 233f
00000140: 8a3d 643f e76d 7fbe 97f8 4b3f 530e ab3f
00000150: 117f 7b3f 9677 893f 83c3 073f b5a7 823f
00000160: df33 663d 806b 9b3f 7267 673f d287 963f
00000170: ccae 883f 6c12 c9bc 471c d7be 9ce9 ccbe
00000180: e286 1e3e 8904 6dbe 6516 95be e59d 863f
00000190: 42d4 6cbe 06b6 893e d8d8 ba3f b92f 933f
000001a0: d251 113f 1191 803f 3593 583f 1940 c13e
000001b0: 5735 9c3f 6839 793f db54 2a3e 2f71 4e3f
000001c0: a43d 3e3f 122a 68be 0217 793f ec89 08be
000001d0: 2923 91bf 4fe9 513f 8cc4 7f3f ce78 81be
000001e0: d0a6 b7bf cf81 1cbe a720 73be 6105 453f
000001f0: 048b 86bf 2981 513d c49f 08be f127 d0bf
00000200: 7b96 8abf 790a 6c3f 7e30 98bf 8559 7c3f
00000210: c2cc 333f d725 aebe c7b1 9e3f 84ba b43e
00000220: 7b82 cabe 7d79 1c3c 4ec6 3c3e 0e65 0bc0
00000230: 16bd b9be dfd4 723f 1af0 8a3f fefc a53f
00000240: 9340 a1bf 0215 843f 653f 543f e693 963f
00000250: 74b0 80bf 1f60 783f f757 5cbe 96aa 503f
00000260: 94e8 353f 50e1 6b3f 1e60 52be cadd 8dbf
00000270: 68ef 52bf 6c73 0b3f 1cc5 503f 8d57 803f
00000280: 7092 adbf c499 4b3f 1a8e 7f3f 9e11 a4be
00000290: 2de0 5e3f 97a6 11be 49a3 abbe 19e9 8e3f
000002a0: 937a 68bf 4703 623f 851f 683f a50f 383f
000002b0: 9273 9f3f 0a00 103f 4cf2 d13e 7af9 97bf
000002c0: 4d93 d8bd ecf5 a83e b913 5d3f 253b 10bd
000002d0: 398b afbb 0e8c 37be 086e 183f ef2f 8ebe
000002e0: 66c6 283f 830d 873f b692 b4be b792 b23f
000002f0: 084c 473f d050 e0bf 21fd 80be 06fc c0bf
00000300: a860 863f 13e3 723f 18f3 e7bd 0d77 163f
00000310: 2f33 9b3f 0157 3cbe c674 da3e 681b 1b3f
1.2007539 -0.04632651 1.0084401 0.94899917 0.90189576 -1.1856132 -1.4416274 0.16875033
0.6019039 -1.422301 1.3083421 0.09984906 -0.9463369 -0.23280144 -0.89685154 1.3723534
0.6702555 -0.1378779 0.07027587 -1.434768 1.2090527 -0.1506915 -0.2711296 -1.3603964
-0.16369916 -0.046865504 0.3656462 0.9816419 1.2950412 0.6384941 -0.36348948 0.66325366
-0.47549063 1.5000135 0.772134 0.8212073 -1.6278548 0.7937644 -0.26144868 -0.1361502
-0.230967 0.71398294 -1.2172717 1.3254318 -0.22168711 0.9550464 -0.31605178 0.6195496
0.92539567 0.46641624 1.1256223 -0.21413186 0.9480488 -0.9396773 -1.2018914 -0.16801798
0.14500476 1.250179 -0.14113598 1.0209057 1.3115478 -0.15866803 0.9367638 -0.5186187
-1.5670145 -0.39846274 1.5441167 0.63652265 1.1253879 -1.674721 0.14007454 1.293948
0.274223 0.9088441 0.15205085 -0.23473205 -0.34637216 1.5905516 0.7359468 0.63990694
0.891564 -0.24944268 0.79676193 1.3363746 0.9824076 1.073962 0.530327 1.020743
0.056201812 1.2142181 0.9039222 1.1760199 1.0678344 -0.024544917 -0.4201376 -0.4002198
0.15481141 -0.23146261 -0.29118648 1.0516936 -0.23127845 0.26896685 1.4597425 1.1498939
0.5676547 1.0044271 0.8459962 0.37744215 1.2203778 0.9735322 0.16633932 0.80641454
0.74312806 -0.22672299 0.9730073 -0.13333863 -1.1338855 0.81996626 0.9990928 -0.2528748
-1.4347782 -0.15283893 -0.23742925 0.7696133 -1.0511174 0.051148567 -0.13342196 -1.6262189
-1.0827173 0.9220348 -1.1889799 0.98574096 0.7023431 -0.34013245 1.2398003 0.3529855
-0.39552674 0.009550449 0.18435022 -2.178043 -0.36277074 0.94856066 1.0854523 1.2967832
-1.2597831 1.0318911 0.8290923 1.1763885 -1.0053849 0.9702167 -0.21517931 0.81510293
0.7105801 0.92140675 -0.20544478 -1.108331 -0.82396555 0.54472995 0.81550765 1.0026718
-1.3560314 0.795315 0.99826205 -0.3204469 0.87060815 -0.14223705 -0.33523014 1.1164886
-0.90812033 0.8828625 0.90673095 0.7189887 1.2457144 0.5625006 0.4100517 -1.1873009
-0.105749704 0.33000124 0.8635822 -0.035212655 -0.005357173 -0.1792452 0.59542894 -0.27770945
0.6592773 1.0550998 -0.35268182 1.3951024 0.7785039 -1.7524662 -0.25193122 -1.5076911
1.0498247 0.9487774 -0.11325663 0.5877541 1.2124995 -0.18392564 0.42667216 0.60588694

fcs.1.running_var f4 [200]
00000000: 489f a73e 3192 703c 00e5 473e 383d 2d3e
00000010: e1b5 2e3e c7cd 8b3e 5a4c f03e 3e3e f03c
00000020: 91b9 cf3d 7591 e23e 3dc2 9e3e a3fd 813c
00000030: 43de 633e 8b23 483d 6a54 0d3e 4860 ba3e
00000040: 3b37 0a3e b526 143d 10ae e03c 3545 cc3e
00000050: 2987 853e 7ba5 543d e917 0b3d e4d5 c13e
00000060: 5bb5 793c 6fd1 0e3c f4df 523d 1207 323e
00000070: a305 b23e 17be be3d 6bd5 ff3c e20b a23d
00000080: c14a 253d e689 e53e 83cf e73d f58b 053e
00000090: 7e08 e73e 0744 ed3d f8c7 7d3c 7fec 993c
000000a0: 6f1b 2e3d 6390 063e 5d93 b53e d759 983e
000000b0: 2e8a 093d f736 413e 7beb ad3c df0a b33d
000000c0: 2620 3e3e 4b57 8b3d b2bb a23e b774 323d
000000d0: 43b5 803e a62a 4c3e 7e6d a13e a491 063d
000000e0: 465b 0c3c c2fd 803e 4cd7 c43c f1aa 823e
000000f0: 70bd 9e3e cc1b 703c bbba 3e3e 4eb7 633d
00000100: 8024 043f bc49 233d 3b25 d13e ae8e 803d
00000110: 3f66 5a3e 4536 033f 0b54 223d 77e5 a93e
00000120: 48b1 133d 4f41 0b3e 5c51 5b3c 3fc3 cd3c
00000130: 6b33 ce3c fd18 e33e 100c cd3d a331 0d3e
00000140: 1828 293e dc7e f53c 13b9 fa3d 6e0d d03e
00000150: 9716 0f3e 8c51 823e d7f1 3d3d 7df7 553e
00000160: 96f5 423c 62fb b43e 50bb 503e a346 863e
00000170: 59ed 4e3e e0e9 9a3c 7386 873d 9716 373d
00000180: f609 f63c ecf3 033d 4a4c 953c 8a74 7b3e
00000190: e6a3 253c e6ec a23c c915 fd3e b8a0 8b3e
000001a0: b6b1 843d 7bca 273e 7c98 3c3e f292 1f3d
000001b0: 8b72 8e3e 1f6c 0e3e 4db3 123d 07ef 053e
000001c0: 0e7d e13d 012d 163d c51a 3f3e 05b3 563c
000001d0: 50de 7d3e 9418 293e be03 403e 9cba 8f3c
000001e0: f7af b83e cf74 1a3c a3ad 733c 5e97 cb3d
000001f0: ed8f 503e 9426 0e3d a3a2 5b3c d3b8 d13e
00000200: bc57 6e3e 5d56 1a3e 07f6 b53e dce4 4c3e
00000210: 0538 083e 7ac5 913c e72d ad3e 014a f33c
00000220: 86ce e63c d24c 323c d4ae 063d 4ff4 773f
00000230: cd95 a93c 7f8b 333e a094 8d3e 7e61 b93e
00000240: 793d b03e b0ad 473e ba67 de3d 4cb9 8c3e
00000250: 630a 3f3e a2e0 1b3e c401 eb3c 79c8 263e
00000260: d745 d93d 8b04 423e 170e 9b3c f730 783e
00000270: 7f3e 363e 0251 9e3d c5b8 0b3e 326a 363e
00000280: 70ef c03e a0f0 023e c857 563e bbdf e13c
00000290: 2b0e 033e 2be6 d73c 5161 653d 9016 843e
000002a0: 852f 363e f3e7 503e 113f 743e 56d1 a73d
000002b0: f23f 893e d0d8 713d 81d1 d83c fae5 973e
000002c0: e4be c43c 7c81 3c3d 8bb8 553e edb5 1f3c
000002d0: cef5 7e3c 5e51 263d 4644 c73d 8628 5b3d
000002e0: 9c7b d23d 72db 343e a855 df3c 9255 a53e
000002f0: 60d0 e83d 21ab 253f 2866 cc3c 1467 c83e
00000300: cd7b 343e 2fe4 373e 81f0 923c 11cb 543d
00000310: 23b3 a83e a774 9c3c a6fe 123d f05a db3d
0.3273871 0.014683292 0.1952095 0.16917884 0.17061569 0.27305433 0.46933252 0.029326554
0.10142816 0.442516 0.31007567 0.015868014 0.22252755 0.04886202 0.13801733 0.36401582
0.13497631 0.036169726 0.02742675 0.3989655 0.26079682 0.051915627 0.03395835 0.37858498
0.015240992 0.008716925 0.05148311 0.1738551 0.34769925 0.093136005 0.031229695 0.07912423
0.040354494 0.4483177 0.113188766 0.1304167 0.45123667 0.11585241 0.015489571 0.018789528
0.04250663 0.13141017 0.35463992 0.29756042 0.033579044 0.18868624 0.02123045 0.08742308
0.18566951 0.06803759 0.31783825 0.04356834 0.25138292 0.19938144 0.31528848 0.032853737
0.008566683 0.25193602 0.024028443 0.25521043 0.31003904 0.014655065 0.1862592 0.055594735
0.51618195 0.03986524 0.40848717 0.06277214 0.21328066 0.51254684 0.03963093 0.3318288
0.03605774 0.13599132 0.013386097 0.025117515 0.025171002 0.44355002 0.10012066 0.13788466
0.16519201 0.029967718 0.12242331 0.40635246 0.13973461 0.2545284 0.046373215 0.2089519
0.011899373 0.3534804 0.20383954 0.26225767 0.20207728 0.018910348 0.06617441 0.044699278
0.030034047 0.032215044 0.018224854 0.24556175 0.010109877 0.019888353 0.49430683 0.27271056
0.06479208 0.16385834 0.18417543 0.038958497 0.27821764 0.13908432 0.035815526 0.13079463
0.110101804 0.036664013 0.18662556 0.013104205 0.24791837 0.16513282 0.18751428 0.017545037
0.3607175 0.009427263 0.014872941 0.099409804 0.20367403 0.03470476 0.013405475 0.40961322
0.23275656 0.15072007 0.35539266 0.20009178 0.1330262 0.01779436 0.33824083 0.029698374
0.02817465 0.010882573 0.032881573 0.9685716 0.020701313 0.17533682 0.27652454 0.36207193
0.344219 0.1949985 0.10859628 0.2748512 0.18656306 0.1522241 0.028687365 0.16287412
0.10609024 0.18947046 0.018927617 0.24237429 0.17797278 0.07730295 0.13644703 0.17813948
0.37682676 0.12787104 0.20931923 0.027572503 0.12798373 0.02635487 0.05600101 0.25798464
0.17791565 0.20400982 0.23852183 0.081942245 0.268066 0.05904466 0.026467087 0.29667646
0.024016805 0.046021923 0.20871179 0.009747964 0.015561534 0.04060494 0.09729819 0.053505443
0.10277483 0.17661837 0.027262524 0.32291847 0.113678694 0.64714247 0.024951056 0.39141142
0.17625351 0.17958139 0.017936947 0.05195147 0.3294917 0.019098593 0.035887383 0.10710704

fcs.3.weight f4 [200, 200]
00000000: 0532 473d 158d acbc f5f8 32bd aa12 df3c
00000010: b188 253d 67a3 83bd 0c1f d13d 689a 6bbd
00000020: 1bce 2bbc d781 b4bc d800 5a3c 2f82 76bd
00000030: cb9c 183d 42a2 aebb afaa 053e a139 0dbd
00000040: f45a 0d3d df9a 763c ef2a e2bd 100e 6e3d
00000050: 1989 c33c 78e4 543d 9273 bc3c e584 d1bc
00000060: 642d 12be 1d21 96bd 9b85 b43c d0c2 cfbc
00000070: afab 9f3c 866d 513d dac5 ee3c 41b2 403d
00000080: 3d9e c03c 7e15 1b3d 9e05 5c3d 03d7 223d
00000090: fd02 013d 2592 cc3b 46e2 5c3d 60a8 8bba
000000a0: 37bc cdbc 96ae 47bd 4989 8cbd 446d 693b
000000b0: cc56 99bd fd0a 9f3c 0bcb 80bd d4ca baba
000000c0: 38cd 903c a367 0a3c 507e 923d 11dd 6cbe
000000d0: 91e8 a33b c5c5 023d 92d3 8fbd 2a55 10bc
000000e0: a232 04bd b900 393d c7a3 d9bd 7eae be3b
000000f0: d374 493d 9c6a 70bc 3e3f b4bc 734b d73c
00000100: 3a12 7d3d 4795 423d 5e33 cbbc 167a 60bd
00000110: dd2c 193d 3d27 6b3c 143b ad3a 9501 e0bc
00000120: d1f4 193a cdb7 653c 8a8d 543b f516 893d
00000130: 4ffb 023c 0d2c 60bd 14f0 91bd 66fb 72bd
00000140: b54c 79bd 955e d3bd 35fa e23c fece 703d
00000150: 036e 603d 9dcf 7dbd 367a b9bc 5bbc d33c
00000160: bab3 12bc a54c b7bc 75ac fcba 3e0d 973d
00000170: 1aa9 b4bc 615a 3f3d 7655 47be b432 7dbd
00000180: 9f53 d13b f764 07bd bf64 2cbe 30a1 2f3d
00000190: 502a ac3c a106 79bd ba39 323d 07bf 483d
000001a0: c717 cd3c d311 20bd 4ffb 353d ea01 5bbc
000001b0: 472b e73c cd7e 67bc 8f1c 27bd 6cc0 1fbd
000001c0: 2192 aa3c 8cb1 fabc f274 703d 0a04 42be
000001d0: 7935 49bd be3a adbb da09 2cbc 908d 72be
000001e0: 94d8 64bc 4fad 98bb 02ea fabb 31f6 713d
000001f0: ed59 5fbd 650b fdbc 7ccd d53c 6284 423d
00000200: c558 25bd 161d 7fbd 9a27 64bc 9987 1b3d
00000210: d622 8abd 290a 49bc 4623 8fbd 3d21 44bd
00000220: 7ba9 3f3d bf29 c53b b12b e5bd 55a6 853d
00000230: 3e69 53bc dc7a a5bc ffa6 83bd 3d02 7abd
00000240: 09ff 8c3d 2321 60bd 463f 28bc 84e6 483d
00000250: f8b0 96bc b1ba 34bd f465 4f3d 1cda 553d
00000260: d0d8 91bc 208e a7b9 194c d33d 5ab7 cabb
00000270: a459 433c f582 0dbd 3e5f c1bc aaa2 10bd
00000280: 7ba0 e03c 0c3e 2bbd 90be 1fbd 114c a0bd
00000290: 6691 253d 3468 ea3c e770 4d3d e951 653d
000002a0: 144c 493d 4a83 d33c 8ee4 81bd d35a a83c
000002b0: 4cab 83bd ddff 12bd b44b 85bb 9ca2 a33d
000002c0: e9cc b0bb eb4c 26bc 7acf b43c eec0 85bd
000002d0: 1e10 47be 95c6 023a b08a 833d 3250 44be
000002e0: 5c92 1dbc ca4e 3ebd 0b80 7fbd d12d d5bc
000002f0: 61a1 6d3d cfd4 7cbd fe28 fdbd a534 a9b9
00000300: 8d08 623d 20f8 313d e525 983c 81cd 88bc
00000310: ce49 6d3c 3866 c1bd 25e5 cabc dc38 75bd
00000320: 16b1 e5bb 8e72 44bc 4579 bcbd 9375 efbd
00000330: 9191 1bbd 1563 a73c afa3 94bd a542 eb3c
00000340: de5b 683d eafe 97bd 976a 18bc 36eb 49ba
00000350: 051c 8bbd c5a8 a53d 3879 0dbc b049 343c
00000360: bc40 04bd ca7f ef3c 5101 3ebd 0e09 71bd
00000370: 0c94 bbbd ec52 d53d 5aa3 60bd b069 33bd
00000380: 047d 083b ba8e 8fbc b3ac 78bd ab2c 8bbd
00000390: ce80 20bd b013 6ebd 8a28 bb3d 5a23 bcbd
000003a0: 0db5 1dbd 0208 08bc 1329 4bbd e145 afbb
000003b0: 93db 9abd 9bf3 f33c cdbb e3bd c3fe b63d
000003c0: 0369 863a d038 aebd cf05 6f3d c5d3 e93b
000003d0: 4c04 18bd 82e1 013d 1475 4e3d 1f2c 80bd
000003e0: 1223 983d 2392 8b3c 5968 543d 4e3b 94bb
000003f0: a28f c5bd 4a4e 15bd 151c 923d 2411 4fbd
0.048631687 -0.021063367 -0.043694455 0.02723058 0.040413562 -0.06427651 0.10211 -0.0575203
-0.010486151 -0.022034569 0.013305865 -0.060182746 0.037258904 -0.005329401 0.13053392 -0.034478787
0.034510568 0.015051573 -0.11043345 0.05811888 0.023869084 0.051975697 0.023004327 -0.025576064
-0.14275128 -0.073305346 0.022036364 -0.025361449 0.019491045 0.05112984 0.029147077 0.047044996
0.023512954 0.037862293 0.053716294 0.039755832 0.03149699 0.0062430077 0.05392673 -0.0010655038
-0.025114162 -0.048750482 -0.068621226 0.0035618106 -0.07487258 0.01941442 -0.062887274 -0.0014251121
0.01767598 0.0084475605 0.071529984 -0.23131205 0.0050020893 0.03192689 -0.07022776 -0.008809367
-0.03227485 0.045166705 -0.10626941 0.005819141 0.049183678 -0.014673855 -0.022002812 0.026281094
0.06178496 0.047505643 -0.024804767 -0.05480393 0.0373963 0.014352617 0.0013216459 -0.027344504
0.00058729673 0.014020872 0.0032432997 0.06693832 0.007994487 -0.05472951 -0.071258694 -0.059321783
-0.06086417 -0.103207745 0.027707199 0.058791153 0.054792415 -0.061965574 -0.022641283 0.02584665
-0.008953983 -0.022375414 -0.001927747 0.073755726 -0.02205329 0.04671705 -0.19466195 -0.061815932
0.0063881422 -0.033055272 -0.16835307 0.04287833 0.02101627 -0.060797337 0.043512084 0.049010303
0.025035752 -0.0390795 0.04442912 -0.013367156 0.028218878 -0.014129353 -0.04079872 -0.039001867
0.020821633 -0.03060224 0.058705278 -0.18946853 -0.04912326 -0.0052865436 -0.010500396 -0.23686814
-0.013967652 -0.004659332 -0.0076572904 0.059072677 -0.05452912 -0.030889222 0.02609896 0.04748953
-0.04036786 -0.062283598 -0.013925457 0.037971113 -0.06744926 -0.012270489 -0.0698915 -0.04788326
0.04679249 0.0060169394 -0.11189974 0.06525866 -0.01290351 -0.020200185 -0.06428336 -0.06103729
0.068845816 -0.0547191 -0.010268992 0.04904796 -0.018394932 -0.044123355 0.05063434 0.05220996
-0.01780358 -0.00031958614 0.10317249 -0.006186408 0.011923227 -0.03454872 -0.023604985 -0.03531138
0.027420273 -0.04180722 -0.039000094 -0.078270085 0.040421866 0.028614141 0.0501565 0.05598632
0.04914482 0.02581944 -0.063424215 0.02055112 -0.06429157 -0.03588854 -0.0040678624 0.0799
-0.005395521 -0.010150175 0.022071589 -0.06530939 -0.19439742 0.00049886975 0.06422937 -0.19171217
-0.009617414 -0.046461858 -0.06237797 -0.026022824 0.05801523 -0.061726388 -0.12361334 -0.00032273415
0.055183936 0.04344952 0.018572757 -0.016699554 0.014482928 -0.09443325 -0.024767468 -0.05986868
-0.0070096357 -0.011990203 -0.09202818 -0.116923474 -0.03798062 0.020432988 -0.07257783 0.028718302
0.056728236 -0.07421668 -0.009302757 -0.00077025907 -0.06792454 0.08088831 -0.008634858 0.011003897
-0.032288298 0.02923574 -0.046387974 -0.058846526 -0.09159097 0.10416207 -0.054843284 -0.043801963
0.0020826468 -0.017524112 -0.060711574 -0.06795629 -0.039185338 -0.058124244 0.091385916 -0.0918643
-0.03850274 -0.00830269 -0.04959972 -0.0053489064 -0.07561412 0.029779246 -0.111198045 0.08935311
0.0010254685 -0.0850693 0.05835515 0.0071358406 -0.037113473 0.0317092 0.050404623 -0.062584154
0.07428564 0.017037457 0.051857326 -0.004523671 -0.096465364 -0.036451615 0.071342625 -0.050553456

fcs.3.bias f4 [200]
00000000: 88f6 0abd f518 ea3c dcfe 6ebc 79fc 8fbc
00000010: 96de 4dbd 02d4 fb3c bcc9 50bc f6ec 153d
00000020: 10eb a7bc 89a6 463d ba50 453b f0c4 023d
00000030: 24d5 cabc 03df 10bd 7b27 3c3d 4084 85bd
00000040: 4ee4 89bd 6151 e7bc 134d b1bc 38a1 dabb
00000050: 20af 0dbd 5481 223d d598 51bd 03e3 6f3d
00000060: b5d2 883d 2a4f 8f3d 8be2 2c3d 4750 4c3d
00000070: 436b bd3c 4e10 31bd 1fa4 57bc 5735 5a3d
00000080: bdd4 343c 26ef 3d3d d4c3 483d a971 bbbc
00000090: a616 83bd 8f34 eb3c b033 c03c 008f f13c
000000a0: 7f9b 153d 563b 7ebd 5724 7fbd 2bbd 0a3d
000000b0: 49e4 c1bb ab18 e73c 48a9 29bd b1f0 83bd
000000c0: 0ad0 f23c 7004 fc3b 12d4 3e3d dcee 3f3d
000000d0: 1345 81bd 4349 1b3d 23f8 d33c f4d0 343c
000000e0: e983 ccbc e216 903c 630e 7abd abfc 7e3d
000000f0: 6996 99bc 092f 013d 3784 833d d677 ec3c
00000100: 47d9 80bd 45f9 7c3c 26b6 193c e151 113c
00000110: 769e 80bd 2883 cb3c 55a2 593d bde0 b23c
00000120: 4b40 07bd 37e0 a13c 109e e9bc 9618 463c
00000130: 63a5 393d c013 c6bc ad0f 0b3c 0f98 943c
00000140: 4412 983b 5295 143d 5039 9bbc 5ee4 5d3d
00000150: 304f fd3c 5547 4b3c 6abf 763d 652e 41bd
00000160: 1320 8e3d 86d7 bbbc dd79 4dbd 53bf 773c
00000170: 3969 883d e39d db3b 8f22 40bd bbac 2dbc
00000180: 71b4 603b dd7e 06ba 5e3b 193c c31b 8abd
00000190: 4637 10bd 6d26 20bc ef2f 5f3d d9aa 64bd
000001a0: 4a97 24bd a5a0 8ebd 799c 7bbd 9291 a8bc
000001b0: c34b 67bc 314e 123d 1e1c c5bc 2278 ae3c
000001c0: 4e48 80bd 73c8 46bd a3ea 593d b92f 71bd
000001d0: b2f8 38bd 8e32 8d3d 573e 9d3c ee0a 62bd
000001e0: 8c15 80bc 24f4 90bd c363 83bb 288a 85bd
000001f0: d5aa 853d 6c3c a23c 5b36 bfbb 9394 09bd
00000200: 075f 573d fa68 aabc b48f 9a3c d668 2f3d
00000210: 5861 8cbd 1f03 3ebd f3e9 f43c 257a adbb
00000220: f699 3b3d a06d 8b3d 223e 3c3d 2e26 33bd
00000230: 2fae 8f3d 69ed 81bd 23f3 503c 673e 883d
00000240: 9541 393d de00 6f3d 5924 693c 5276 bbbc
00000250: ac8f 5fbc a17c 7c3d f6ac 67bd 4449 fb3c
00000260: 2fd7 86bd 7e39 02bb 9350 363d fba4 51bd
00000270: aa12 183b 5201 23bb ed66 45bd d872 a8bc
00000280: b4a6 2a3d 436a 5b3b a965 0b3c 67f3 213d
00000290: 7128 5e3d df0f 83bd cdb5 4a3c 1e2d a43c
000002a0: 47c8 1f3c bd4b 6c3d 5080 91bd 4f1c 21bd
000002b0: 31bf 5bbd c1d7 1cbd 99b3 72bd 06f4 70bd
000002c0: 9e99 633d 990d 5e3d 9dc8 4b3d 3853 61bd
000002d0: c7e3 203d 7a08 57bc cda5 8bbd 4806 06bc
000002e0: 1320 9abb 1142 973c cf9c e4bc 5241 77bc
000002f0: 74b2 783d 486f 1d3d 7ebb 513c 5520 85bc
00000300: a446 24bd d1b5 68bd 8486 e3bc 7721 813d
00000310: 8920 073c 0a6a 66bc e7b6 153d 26e5 7b3d
-0.033926517 0.028576354 -0.01458713 -0.017576443 -0.050261103 0.030740742 -0.01274341 0.036602937
-0.020497829 0.048498664 0.0030107931 0.031926095 -0.024759836 -0.03536893 0.04593609 -0.06519365
-0.06732999 -0.028237047 -0.021643197 -0.006672051 -0.03459084 0.03967412 -0.051171143 0.058566105
0.06680814 0.06997521 0.042208236 0.049881246 0.023122435 -0.04322844 -0.013161688 0.053273525
0.011037049 0.046370648 0.04901488 -0.022881346 -0.06400804 0.028711585 0.023462147 0.029487133
0.036525246 -0.062068306 -0.062290516 0.03387181 -0.0059171063 0.028210005 -0.041421205 -0.064423926
0.029640216 0.0076909587 0.046588965 0.046858653 -0.06312003 0.037911665 0.025875157 0.011036146
-0.024965243 0.017589036 -0.061048876 0.06225268 -0.018748479 0.031538997 0.06421702 0.028865736
-0.06291442 0.01544029 0.0093818065 0.008869619 -0.06280224 0.024842814 0.053133328 0.02183568
-0.0330203 0.019760234 -0.028517753 0.012090823 0.04532374 -0.02417934 0.008487624 0.018138913
0.0046408493 0.036275215 -0.018948227 0.054172866 0.030921549 0.012407144 0.06024114 -0.047163386
0.069397114 -0.022929918 -0.050165046 0.015121299 0.06660695 0.006702171 -0.046907958 -0.010600264
0.003428724 -0.00051305984 0.009352533 -0.067435764 -0.035208963 -0.009774786 0.054489072 -0.055826996
-0.040183343 -0.06964234 -0.06142852 -0.020577226 -0.014117184 0.0357191 -0.024061259 0.021297518
-0.06263791 -0.048531007 0.053202283 -0.058883402 -0.04515905 0.06894408 0.019194765 -0.055186205
-0.015635274 -0.07077816 -0.0040096953 -0.06520492 0.06526724 0.019804202 -0.005835337 -0.033588957
0.05258086 -0.02080201 0.018867351 0.04282459 -0.06854504 -0.046389695 0.029896712 -0.005294102
0.045801125 0.06808019 0.045957692 -0.043737583 0.07015645 -0.063441105 0.012753281 0.06652527
0.04522856 0.058350436 0.014229857 -0.022883568 -0.013645094 0.061642293 -0.056561433 0.030674584
-0.06584012 -0.0019870694 0.044510435 -0.05118273 0.0023204484 -0.0024872613 -0.04819386 -0.020562574
0.041662887 0.0033480085 0.008508124 0.039538767 0.054237787 -0.063995115 0.012372446 0.020041045
0.00975234 0.057689417 -0.07104552 -0.039333638 -0.05364913 -0.038291696 -0.05925331 -0.05882647
0.055566423 0.054212186 0.049751867 -0.055011004 0.039279725 -0.01312458 -0.06818733 -0.0081802085
-0.0047035306 0.01846412 -0.027906803 -0.015091257 0.06071706 0.038436204 0.012801049 -0.016250769
-0.04010643 -0.05681402 -0.027774103 0.06305211 0.008247503 -0.014063368 0.036551382 0.06149783

fcs.4.weight f4 [200]
00000000: 2a78 2c3f 0067 1c3f 5582 3c3f af4f 4f3f
00000010: b447 0d3f 7a5c 1b3f bdf3 6e3f 4a5b 6c3f
00000020: 7b7b 6f3f 2cea 663f dfe4 5f3f 92be 543f
00000030: ea2a 6f3f 2efc 123f 4dfb 6d3f 5fd6 713f
00000040: dcd2 603f 1ba8 703f e8c2 273f 5bfa 693f
00000050: 5ec6 6d3f 5303 713f 0613 663f 82c9 053f
00000060: 45f5 4b3f 6460 613f 74ab 6b3f c56e 563f
00000070: ab51 713f a5f5 283f a8c5 5f3f a2b7 1f3f
00000080: 46f1 073f 9503 173f a6a8 1b3f 361b 633f
00000090: 1204 6c3f 7b19 413f 6b93 0e3f 7517 0e3f
000000a0: 9bd4 253f c5ac 6b3f a17b 6a3f 9a2a 733f
000000b0: 0359 163f 7b64 593f 9ef5 6c3f 53e2 6a3f
000000c0: f04c 383f 5752 733f d7bc 433f 2597 703f
000000d0: 8187 433f 6657 763f 275f 703f e0de 683f
000000e0: 7ca3 643f c2ef 6c3f 0dbb 6e3f 88d0 3f3f
000000f0: 21ac 393f 5673 2c3f 8eb7 6d3f c9cd 743f
00000100: fb06 2b3f 3658 1c3f 5b46 6a3f b57d 6a3f
00000110: 3170 6a3f e253 463f ba4c 213f 3e97 2c3f
00000120: 727f 533f 5908 283f b23c 6a3f d54d 6a3f
00000130: a84a 683f baea 563f 24f9 643f 1554 6f3f
00000140: 83bb 703f 700b 2a3f 0272 693f 0a36 673f
00000150: 17ff 4f3f 63e2 6a3f 8199 683f 2182 273f
00000160: 2b5c 6d3f d50f 153f a52c 653f 8709 643f
00000170: 2f27 713f 120d 193f 4e71 5e3f 3421 623f
00000180: 5012 4a3f 760f 633f a104 423f 9af6 713f
00000190: 35f6 0e3f d480 273f 0c29 1b3f 9368 5c3f
000001a0: 0035 6b3f 4b08 703f 8bba 343f 19f3 6e3f
000001b0: 9b2b 703f 36b4 663f fa61 673f 07c0 6d3f
000001c0: 5805 493f 8de0 683f 1104 203f d8ac 6f3f
000001d0: d247 713f b452 6c3f 21be 363f 4b85 673f
000001e0: d7a2 6c3f 21ce 153f f3a8 2c3f 1ecb 5d3f
000001f0: 36a5 1c3f 4715 0d3f f54f 6b3f d434 6e3f
00000200: 4c59 6d3f 9ec1 3c3f 6b73 5a3f 478f 713f
00000210: 5e92 093f dcc4 6c3f 0d29 6d3f 777b 603f
00000220: f094 623f ab7d 253f 9301 633f 589a 1a3f
00000230: 4933 063f a4d5 193f ebd9 6b3f 6520 603f
00000240: e038 703f b1be 713f ad31 663f bef8 703f
00000250: 6d65 113f 8bc3 3d3f dc60 093f 5628 6b3f
00000260: a985 703f 843e 253f 22cf 5b3f c2a4 0d3f
00000270: cd30 0d3f 5805 633f 06d1 6e3f 5133 703f
00000280: 3ddc 703f 570a 023f f2f3 513f fb73 173f
00000290: d0fd 1b3f db1c 723f be3e 283f f3f5 263f
000002a0: ee11 293f 330c 143f 1775 633f 63ac 563f
000002b0: b5fc 733f fbbd 6a3f 0883 6e3f d5cb 733f
000002c0: 00cc 6e3f d380 6c3f e1a7 693f c849 6c3f
000002d0: a0c9 693f 7b51 283f 13a0 5a3f 0473 333f
000002e0: f10a 273f 6a38 413f 1772 673f fbf8 263f
000002f0: 2251 093f 9d71 2c3f 0c0c 133f 3a40 383f
00000300: 0fc7 4b3f f055 113f 7c67 683f 8800 653f
00000310: 717c 213f aa48 0c3f a158 673f 0480 1d3f
0.67370856 0.61094666 0.7363637 0.8098096 0.55187535 0.60687983 0.93340665 0.92326796
0.9354779 0.9020107 0.87458605 0.8310329 0.93424857 0.57416046 0.9296158 0.9446773
0.87821746 0.9400651 0.6553178 0.9139764 0.9288081 0.941457 0.8987278 0.522606
0.79671127 0.88037705 0.9205849 0.8376277 0.9426524 0.65999824 0.87410975 0.62389576
0.5310253 0.5898984 0.6080421 0.88713396 0.9219371 0.75429505 0.5569369 0.5550454
0.64777535 0.920605 0.9159489 0.9498688 0.5872957 0.84918946 0.9256228 0.91751593
0.719924 0.95047516 0.7646002 0.9398063 0.7637864 0.9622711 0.9389519 0.9096508
0.8931196 0.9255334 0.93254167 0.7492757 0.7252827 0.6736349 0.9285821 0.95626503
0.66807526 0.610721 0.91513604 0.91598064 0.9157744 0.77471745 0.630077 0.6741828
0.8261634 0.6563774 0.91498864 0.9152501 0.90738916 0.83951914 0.8944266 0.93487674
0.9403612 0.664237 0.9118959 0.9031683 0.8124861 0.9175169 0.9085923 0.65432936
0.9271876 0.5822728 0.8952125 0.8907704 0.94200414 0.5978557 0.8689164 0.88331914
0.7893419 0.88695467 0.75788313 0.9451691 0.5584443 0.6543095 0.6060951 0.8609707
0.91877747 0.93762654 0.7059714 0.9333969 0.93816537 0.9011873 0.90383875 0.92871135
0.7852378 0.9096764 0.62506205 0.93623114 0.94250214 0.92313695 0.71383864 0.90437764
0.92435974 0.5851765 0.67445296 0.8663806 0.6118959 0.5511059 0.9191888 0.9304936
0.9271438 0.73732936 0.85332364 0.9435925 0.53738964 0.92487884 0.92640764 0.8768839
0.8850851 0.6464488 0.8867428 0.6039176 0.52422005 0.60091615 0.9212939 0.8754943
0.93836784 0.94431597 0.8991955 0.9412955 0.5679539 0.741265 0.5366342 0.9185842
0.9395395 0.64548516 0.85862935 0.55329525 0.5515259 0.8868003 0.93287694 0.938283
0.94086057 0.5079703 0.82012856 0.5916135 0.6093416 0.9457528 0.65720737 0.6521904
0.66042984 0.57831115 0.8885054 0.8385679 0.95307475 0.9169614 0.9316869 0.952329
0.9328003 0.9238407 0.9127179 0.9230008 0.9132328 0.6574933 0.85400504 0.70097375
0.6525107 0.75476706 0.9040846 0.65223664 0.53639424 0.6736086 0.5744026 0.71973
0.79600614 0.56771755 0.90782905 0.89453936 0.6308051 0.54798377 0.9036961 0.6152346
