models/good_ResNet.pt (torch, 461820 bytes, 25 tensors)

conv1.weight f4 [64, 1, 3, 3]
00000000: c4cc 193e 0d25 1fbd 494f 933b 54c8 3ebe
00000010: 0d65 633d e450 2fbd d4b5 003e b8a6 eb3d
00000020: c411 f13d b1ba 48be 18ce aa3e 8929 803e
00000030: 1436 46bd ff35 dd3c 9dd9 17bc a95a 87bd
00000040: cc78 603e 9863 3e3e 16fc 543e b4eb 113e
00000050: bbcf 73bc d02d aa3d e57f 8ebe aabe dcbd
00000060: 6e58 74be 11ef a3be 2142 9ebd 4bf2 9c3d
00000070: 636f 8bbe 7495 54be 2309 883e 10ca bfbc
00000080: cbb5 073e a741 3f3e 382e 8cbe 28bd 37be
00000090: 743d 40be 8376 803d f7d4 79be f298 c53d
000000a0: 189d 90bd 3550 17be 1645 993e aa38 293e
000000b0: 6bcf 583e 4f77 8f3d 9f4c 7bbe aa49 853e
000000c0: b296 b93d 72d7 003d ccb7 803d 265e 92bc
000000d0: 5901 923c 6170 92bc bd59 18bd 2d8a c8bd
000000e0: a982 1fbd 2da4 933e a956 a93e f5c2 61be
000000f0: 8741 7abe 3ceb 6b3e 9274 aebd 8cf8 a4be
00000100: 6447 73be e5ff 92be 2232 6b3e 2b04 06be
00000110: c88f 48be 45e0 f33d 5fa9 733d 01f0 c53c
00000120: 6f80 ec3b 40a3 86bd 46c7 c5bc fa5b 7bbd
00000130: 0dd4 833e 042d 4e3e 5cc7 e1bd e832 a4be
00000140: fcc1 31be d8d4 51be 93dc 603e 1c82 8dbe
00000150: d165 643e 7c6b 843c 6455 b5bc c911 90bd
00000160: aaca 79bd 638f 81bc b97a 8bbe 3352 12be
00000170: 399b 553e 9b94 c4bc 0b66 293e e911 6b3e
00000180: cea9 ca3d 84ae b8bd ad9b 01be f439 9ebe
00000190: 9422 80be c340 3fbe ef36 a43e cd4c 39be
000001a0: dbf0 c03d 2310 9fbe 7b6e 76be 47b0 5fbd
000001b0: 13d0 cdbc de41 743d 16c9 2c3e 81a4 76bd
000001c0: 1ece 6dbd c7dc e0bd ca52 5abe af00 8b3e
000001d0: d827 8b3e b489 8dbe f9a2 993e 9836 45bd
000001e0: 8c15 903e 3c2e 8c3e e769 58be ad8a d13d
000001f0: 781c c53c a1f0 24be ffc9 08bd 79d8 a4be
00000200: 092b 893e 1eb8 503e cec7 35be bdf5 983e
00000210: fe7c 23be 90ca 24be 30bc 95bd fb67 2d3e
00000220: a17e 913e 7ee2 efbd 9672 0dbe 7efb 8abe
00000230: e976 3a3e d4f0 96be 700b 96be a3fd 993e
00000240: bfad 5b3e 49fb 983c 4709 3abe b9a2 ab3c
00000250: e491 87be 3e9b 9c3e bcbb 723e 34de 4a3e
00000260: 6d05 c23c 2afd 1dbe d7d3 433e 0b5b 3cbe
00000270: 012a 21be 8abe 86be 2daf ec3b 1532 a83e
00000280: 0b33 0abe 2a63 22be 4d7a a53e 74e0 333e
00000290: 2bb8 a53e 1bc5 71be fdf4 643d 4c3e 823d
000002a0: a813 bb3c 61ff 5a3e fce6 99be d508 433e
000002b0: e284 a6be 0305 3cbd 09a9 49be bccc 7cbd
000002c0: f0d0 5ebe 5826 093c 8b33 9ebe 9a60 113e
000002d0: 7fe9 6fbd ec48 9bbe a947 fa3d d9d8 8ebc
000002e0: 2995 ecbd 295b 393e 86e3 4ebe 2e60 9e3d
000002f0: 7fa8 453d cec3 83be a388 883e 344b 91be
00000300: e8c4 513e b8a5 003e 2500 8e3e 5a66 a83e
00000310: bb7d 9cbc 5d42 14be 06b4 403c e3a8 aabe
00000320: 379c df3d 0d51 633e 981a 29be aec6 723e
00000330: fe1e a0be 74ad 853e b44d 99bd fbed 4f3e
00000340: 36bc f73d aed8 12be 97c7 023e 68bf 773e
00000350: 14f3 79be 8867 9a3e 442d d4bc 8a2c 4f3e
00000360: d916 4dbe a3c8 4abe 09a0 66bd 8ee2 92be
00000370: 22b4 693e bcb9 d43d 872a 57be b897 febc
00000380: 1477 95bd 2075 253c bf14 683d 996c 47bd
00000390: ea38 f1bd 51c6 9e3e 7113 d6bd d781 ef3d
000003a0: 3701 a0bd 9702 1abe e5d9 e33d 9270 143d
000003b0: 28ea 5cbd 142c 193e 395c 0fbe e2ae 043e
000003c0: c826 45be 642a 37bd 6fbc 3bbe 9924 203e
000003d0: 92e2 94be dbb9 04be 8cbd 993e d7d9 49be
000003e0: d1e9 74be 1702 a1be f8f4 4d3e 0862 f4bc
000003f0: ffdc 0dbe 5f33 c6bd cce0 15be 18e4 cdbd
0.15019518 -0.038853694 0.0044955355 -0.18631107 0.05551629 -0.042801753 0.12569362 0.115064085
0.11770967 -0.19602467 0.33360362 0.2503169 -0.048391417 0.027003286 -0.009268192 -0.06609089
0.2192108 0.1859268 0.20799288 0.1425007 -0.01488107 0.08309519 -0.2783195 -0.10778554
-0.23861858 -0.3201833 -0.07727457 0.07663401 -0.2723342 -0.20760137 0.2656947 -0.02341178
0.13252942 0.18677388 -0.27379012 -0.17943251 -0.18773443 0.06272604 -0.24397646 0.09648313
-0.07061213 -0.1477669 0.2993552 0.16525522 0.21172874 0.07005178 -0.24540947 0.26032764
0.09061946 0.031455465 0.062850565 -0.01786716 0.017822908 -0.017875852 -0.037194956 -0.0979198
-0.038942967 0.28836194 0.3307393 -0.22047026 -0.24439059 0.23038954 -0.08518328 -0.32220876
-0.23757702 -0.28710857 0.22968343 -0.13087527 -0.19586098 0.119080104 0.059487697 0.024162294
0.007217459 -0.06574106 -0.024142873 -0.061367013 0.2574772 0.2013436 -0.11024353 -0.32070088
-0.17359155 -0.2049135 0.21959142 -0.27638328 0.22304465 0.016164534 -0.022135444 -0.07034642
-0.06098429 -0.015815442 -0.27242067 -0.14289169 0.20859994 -0.023996642 0.16542833 0.22956051
0.09895669 -0.09017661 -0.12657042 -0.3090359 -0.2502638 -0.18677048 0.3207316 -0.18095703
0.094209395 -0.31067 -0.24065582 -0.05461147 -0.025123632 0.05963313 0.16873583 -0.060215477
-0.058057897 -0.1097961 -0.21320644 0.2714896 0.27178836 -0.27644122 0.3000715 -0.048147768
0.2814144 0.27379024 -0.21134149 0.102315284 0.024061427 -0.16107418 -0.033395763 -0.32196406
0.26790646 0.20382735 -0.17752 0.29874983 -0.1596565 -0.16092896 -0.073112845 0.16934197
0.28416923 -0.11713122 -0.13813242 -0.27144998 0.18209423 -0.29480612 -0.293056 0.30076322
0.21452998 0.01867451 -0.18167602 0.020951616 -0.26478493 0.3058719 0.23704427 0.19811326
0.023684228 -0.15428606 0.19123779 -0.18394105 -0.1573868 -0.26317245 0.007223031 0.3285071
-0.13496034 -0.1585814 0.3231987 0.17566091 0.32367072 -0.23610346 0.0558977 0.063595384
0.022836521 0.21386482 -0.3005904 0.19046338 -0.32523257 -0.045903217 -0.19693388 -0.061718687
-0.21759391 0.008370958 -0.308987 0.14197007 -0.05857229 -0.30329072 0.12220699 -0.017437385
-0.115518875 0.18101181 -0.20203981 0.077331886 0.048256394 -0.25735325 0.26666746 -0.28377688
0.2048527 0.12563217 0.27734485 0.32890588 -0.019102922 -0.1447844 0.011761671 -0.33331975
0.109184675 0.22198887 -0.16514051 0.23708603 -0.31273645 0.26108897 -0.07485524 0.20305626
0.12096445 -0.14340469 0.1277145 0.2419411 -0.24409133 0.30157113 -0.02590049 0.20231834
-0.20028247 -0.198031 -0.056304965 -0.28688473 0.22822621 0.103869885 -0.21012317 -0.031078205
-0.07298103 0.010098726 0.05666041 -0.04868755 -0.117784336 0.31010678 -0.10452927 0.11694687
-0.07812732 -0.1504005 0.111255445 0.036240168 -0.053934246 0.1495822 -0.14000024 0.12957337
-0.19253075 -0.04471816 -0.183336 0.15638961 -0.2907911 -0.12961523 0.30027425 -0.19712006
-0.23917319 -0.31446907 0.2011298 -0.029831901 -0.13853835 -0.09677767 -0.14636534 -0.10053271

conv1.bias f4 [64]
00000000: e496 e0bd 2620 f83c 6d4d dbbd 5963 1f3e
00000010: dd9a 55be c51c 5abe fe9c 42be a0c2 4ebe
00000020: 128b 80be f453 8ebe b4f4 3abe 1da8 18be
00000030: ae78 81be 51d7 613e fcde 893e cc50 5a3e
00000040: 3114 65be 9568 ddbc 2ed5 c43d a72c eebd
00000050: f341 563e 1230 d33d a606 a4be d44c f23d
00000060: 947f d2bd 9cf9 e53d 1882 b93d 3a81 1dbe
00000070: 6879 653d fb77 0b3b c1fe 0e3e e7e6 0fbe
00000080: 85b0 07be 1ca5 9bbe 5ce2 8ebe ae04 b63d
00000090: 1b6b c83d 9b6d e93c d60b c7bd f2da 4c3e
000000a0: 14a7 513e 8923 98be 845f 023e b0aa 58be
000000b0: af79 f33d d89c 8dbd f245 2a3e 4cdd 0abe
000000c0: 0204 8b3e cd18 5ebe ceaf 953e dfaf e1bd
000000d0: 88a9 893e ee64 903e 36b7 733e be31 7f3b
000000e0: 9417 923c 5098 7a3d 82a7 22be 40d1 243e
000000f0: 9c96 55be 8739 773e e2a6 adbd aaf9 94be
-0.1096628 0.030288767 -0.10708127 0.15565242 -0.20859857 -0.21300037 -0.190052 -0.20191431
-0.25106102 -0.27798426 -0.1825741 -0.1490788 -0.25287384 0.22054793 0.26927936 0.21319884
-0.22370984 -0.027027408 0.09610973 -0.116296105 0.20923595 0.10311903 -0.32036322 0.1183106
-0.1027824 0.1122925 0.090580165 -0.15381327 0.056023985 0.002128123 0.13964368 -0.14052926
-0.1325093 -0.30399406 -0.27907073 0.08887611 0.09786054 0.028494647 -0.097190544 0.20005396
0.20473891 -0.2971461 0.12731749 -0.21158862 0.11888444 -0.06914681 0.16628245 -0.1356098
0.27151495 -0.21689148 0.2923569 -0.11019873 0.26887155 0.28202003 0.23800358 0.003893956
0.017833509 0.061180413 -0.15884212 0.16095448 -0.20858234 0.24143039 -0.08479096 -0.2909673

bn1.weight f4 [64]
00000000: 067d 7f3f ed7c 7f3f 1383 803f 0400 803f
00000010: f6ff 7f3f eb7c 7f3f ec7c 7f3f 2506 813f
00000020: 95c4 803f e97c 7f3f fdff 7f3f ffff 7f3f
00000030: fbff 7f3f f17c 7f3f fdff 7f3f def9 7e3f
00000040: dff9 7e3f 8941 803f 8e41 803f f17c 7f3f
00000050: ee7c 7f3f 8641 803f c07c 7f3f e47c 7f3f
00000060: feff 7f3f e0f9 7e3f ca76 7e3f 8a41 803f
00000070: ed7c 7f3f 8a41 803f 1183 803f fdff 7f3f
00000080: fbff 7f3f d276 7e3f d6f9 7e3f f17c 7f3f
00000090: e3f9 7e3f 8741 803f ffff 7f3f 8841 803f
000000a0: 0200 803f f8ff 7f3f e97c 7f3f 1800 803f
000000b0: 1083 803f 8741 803f 3100 803f 1583 803f
000000c0: dff9 7e3f 0000 803f 1483 803f e6f9 7e3f
000000d0: 0200 803f 1383 803f 2f77 7e3f ffff 7f3f
000000e0: dcf9 7e3f 0400 803f 1583 803f c041 803f
000000f0: def9 7e3f ddf9 7e3f 0e83 803f d476 7e3f
0.99800146 0.99799997 1.0040001 1.0000005 0.9999994 0.99799985 0.9979999 1.008
1.0059992 0.9979997 0.9999998 0.99999994 0.9999997 0.9980002 0.9999998 0.9960002
0.99600023 1.002 1.0020006 0.9980002 0.998 1.0019996 0.9979973 0.9979994
0.9999999 0.9960003 0.9940001 1.0020001 0.99799997 1.0020001 1.0039998 0.9999998
0.9999997 0.99400055 0.9959997 0.9980002 0.99600047 1.0019997 0.99999994 1.0019999
1.0000002 0.9999995 0.9979997 1.0000029 1.0039997 1.0019997 1.0000058 1.0040003
0.99600023 1.0 1.0040002 0.99600065 1.0000002 1.0040001 0.9940061 0.99999994
0.99600005 1.0000005 1.0040003 1.0020065 0.9960002 0.9960001 1.0039995 0.9940007

bn1.bias f4 [64]
00000000: 00c0 85b5 0080 5534 6213 033b 2411 03bb
00000010: b412 033b c412 033b af03 833b 3012 033b
00000020: 0000 3432 9111 03bb 5499 c43b 0074 bc35
00000030: 3a1d 03bb 9811 03bb 0040 f633 c08e c4bb
00000040: 00e0 70b4 2210 03bb 9221 03bb bb12 033b
00000050: 00a0 85b4 92fc 023b 7c12 033b 2514 033b
00000060: e307 033b 2812 833b 00c0 dbb3 0060 e834
00000070: 2111 833b cc97 c4bb 5a0c 83bb 00c0 b1b3
00000080: 0080 a1b3 6b0d 03bb 4112 033c 0000 bc32
00000090: d899 c4bb 0f11 033b 0000 d333 7ed3 02bb
000000a0: 0210 83bb 00f8 07b5 2c0d 833b 0000 5033
000000b0: fbf3 02bb c111 03bb 860c 03bb 0080 5db4
000000c0: 0050 bcb4 8b0b 03bb 6612 033b 0000 e030
000000d0: 0000 1434 aa13 03bb 9c16 03bb 5e14 03bb
000000e0: ac11 833b 8511 833b ff11 83bb f60e 03bb
000000f0: 0020 2db5 6c14 03bb 00a0 40b5 6c0e 033b
-9.965152e-07 1.9883737e-07 0.0020000567 -0.001999923 0.0020000162 0.00200002 0.003998242 0.0019999854
1.0477379e-08 -0.0019999484 0.0059997234 1.4040852e-06 -0.0020006434 -0.00199995 1.1466909e-07 -0.0059984624
-2.2433233e-07 -0.001999863 -0.0020009023 0.0020000178 -2.4889596e-07 0.001998697 0.0020000031 0.002000102
0.0019993715 0.003999967 -1.0232907e-07 4.3283217e-07 0.0039998447 -0.005999541 -0.003999275 -8.2771294e-08
-7.52043e-08 -0.0019997011 0.007999958 2.188608e-08 -0.005999785 0.0019999181 9.825453e-08 -0.0019962485
-0.003999711 -5.0652307e-07 0.003999373 4.8428774e-08 -0.001998185 -0.0019999596 -0.0019996478 -2.0628795e-07
-3.5075936e-07 -0.0019995894 0.001999998 1.6298145e-09 1.3783574e-07 -0.0020000734 -0.002000249 -0.0020001153
0.0039999094 0.003999891 -0.003999948 -0.001999793 -6.449409e-07 -0.0020001186 -7.1758404e-07 0.001999761

bn1.running_mean f4 [64]
00000000: 4d67 fe3a 06b5 203d 1e2d 3b3d 2632 073e
00000010: 9b0a 903a bc71 d838 fc4e 9f39 0efc 063d
00000020: c152 c439 43a4 9e35 3023 7a39 0137 c43d
00000030: a860 5e39 f3f9 f53d e357 413e 6b39 203e
00000040: 2c60 6c3b 670c 7c3d 3062 653d 9931 8b3d
00000050: ad5c 223e 3ed3 5c3d b46c 8b36 3e88 8a3d
00000060: 1598 733d 611d 933d 1430 a03d a89a bd3c
00000070: dfaa 343e db3c 7a3d 8285 9a3d e4bf 6c3c
00000080: 7ea9 b33a 0522 3938 f7d6 303b 683c 573d
00000090: 5abc 3b3e 6f0a aa3c cf61 503d d520 ce3d
000000a0: e421 083e 3e04 a339 3fba 833d c6c7 1f3a
000000b0: 51e5 b03d 0828 6e3c b0f8 a03d 53a0 f23c
000000c0: db7b 3d3e 2bf4 da3c 4378 913e a1b6 063d
000000d0: f2b0 b83e 0f22 103e 75bc 1d3e 636e 263d
000000e0: 9def 853c 4e70 a13d 2046 ee3b 08c3 1a3e
000000f0: d592 d43a bdf7 333e 5774 1f3d 483d 673a
0.0019409448 0.039235137 0.045697324 0.13202724 0.0010989489 0.00010320867 0.0003038569 0.03295522
0.0003744569 1.1819724e-06 0.00023854966 0.09580804 0.00021207577 0.12010565 0.18881182 0.15646903
0.0036068065 0.061535265 0.056001842 0.067965694 0.15855666 0.053912394 4.1551775e-06 0.067642674
0.05947121 0.07183338 0.0782167 0.023145035 0.17643307 0.061093193 0.07544996 0.014450047
0.0013707129 4.413912e-05 0.0026983598 0.052547842 0.18333569 0.020756928 0.050874528 0.10064856
0.13294178 0.00031092943 0.06432008 0.0006095137 0.08637489 0.014535911 0.078599334 0.029617464
0.18504278 0.026727756 0.28412065 0.032889012 0.360725 0.14075492 0.15403922 0.040632617
0.016349608 0.078827485 0.007271543 0.15113461 0.0016218076 0.17574973 0.03892931 0.00088210823

bn1.running_var f4 [64]
00000000: f39d b23e 2cac b63e 6bad b53e 67e9 b53e
00000010: baa0 b23e a186 b23e 318a b23e f02c b53e
00000020: f289 b23e fd85 b23e 3489 b23e f8b9 bc3e
00000030: 4e88 b23e cdc2 b53e c45d b43e 075d b53e
00000040: 66da b23e 0124 b63e 1815 b83e 51fa b73e
00000050: df2d b53e 6ccc b63e 0586 b23e 6d4f ba3e
00000060: 7cb4 b63e 5dee b23e 3ffd b33e 8ef9 b33e
00000070: c129 c63e 748e b53e 867b b43e 0b64 b33e
00000080: 039e b23e 7786 b23e 10be b23e 297d b73e
00000090: 99fb c43e 0372 b33e 6f07 b63e 2556 b73e
000000a0: db79 d53e 8e89 b23e 1381 b83e 3793 b23e
000000b0: bc47 c23e 26ea b33e b83e b73e 5186 b43e
000000c0: 556f b53e 6675 b43e 1794 c83e 2958 b43e
000000d0: dc9e ec3e a4e3 cf3e 36d9 b33e c8d8 b73e
000000e0: 3bef b23e c0a5 b53e 92e4 b23e df4b b93e
000000f0: 9fa6 b23e 4959 b43e 7ebc b43e 8393 b23e
0.3488613 0.35678232 0.3548387 0.35529634 0.3488825 0.3486834 0.34871057 0.35385847
0.3487087 0.3486785 0.34870303 0.36860633 0.34869617 0.35500184 0.35227787 0.35422537
0.3493225 0.35574344 0.35953593 0.35933164 0.3538656 0.35702837 0.34867874 0.36388722
0.35684574 0.34947482 0.3515415 0.35151333 0.3870373 0.35460246 0.3525049 0.35037264
0.34886178 0.34868214 0.3491063 0.35837677 0.38473204 0.35047922 0.35552546 0.3580791
0.4169453 0.3487057 0.36035976 0.3487794 0.37945354 0.3513958 0.35790038 0.35258725
0.35436502 0.35245818 0.39175484 0.3522351 0.4621495 0.40603364 0.35126656 0.35907578
0.34948143 0.3547802 0.3494001 0.36190698 0.34892747 0.3522437 0.35300058 0.34878168

conv2.weight f4 [64, 64, 3, 3]
00000000: 65b6 323d 7382 e83b d394 ed3c 9d28 09bd
00000010: 99a3 993c 5129 1dbd 6e3a 0cbd 7012 9abc
00000020: 10b8 a23c f2ac 1dbd 10b7 10bd aa32 113b
00000030: 57a9 bb3c 0a66 a6bc edf3 21bd f430 03bd
00000040: f44d 213d 8a97 0dbd c0bc fe3c 6bf9 3b3d
00000050: ba6b 013d 84d4 d73c 315d fcbc 2af1 b63c
00000060: f58d 83bb e37f fdbc 30fb f8bb 8f3d 9b3b
00000070: 35c6 003d c290 163d 3d96 eabc 7465 4bbc
00000080: 8ee1 0bbd e4ab 0a3d 23f2 1bbc f427 0dbc
00000090: 5e39 cb3c 50dd 9bbb d624 e93c c0f6 ea3b
000000a0: a4c7 1b3d 1112 d7bc d9fa b83c 2dad af3c
000000b0: 3796 1fbd f6b3 b8bc e6f2 283d 13c1 2bbd
000000c0: f536 a93c 1afe 053d 9aca 2e3d 6254 243d
000000d0: 3ab5 02bc e3e9 163d 9bb1 57bc 39f5 29bc
000000e0: 53b6 a4ba e2f9 d7bc cb04 e1bc d8dd 473c
000000f0: d22a 7e3c ed6d cdbc d4d1 9db9 5d77 603c
00000100: 9608 c5ba b958 753b 38c1 83bc dc09 1e3c
00000110: 361b 953c 1a0d 34bc 7a9f 083d ab80 3b3c
00000120: 3e24 383c 0746 603c 19cf e73c dcbf f0bc
00000130: 8845 4bbc 0862 f5bc e0a0 2c3a f825 2b3d
00000140: 6ee8 81bc e5fa 2bbc ca87 ba3c b8d0 febc
00000150: 3da6 a03c 698c 0bbd ab9e 4fbc 0448 12bd
00000160: ff19 e63b 8272 5dbc 9de0 123d 4598 063d
00000170: 7868 e83b 224b 04bd f2e4 0c3d 1603 90bb
00000180: def2 0c3d 0afe b3bc 885a 05bd a004 5fbb
00000190: e3c2 133d fbf2 8b3c cc32 153d 5c88 ee3b
000001a0: 8272 97bc 26ef 7f3b dd5d 053d 9632 fbbc
000001b0: 6451 22bd ba9a ec3c 1e6b 97bb 7776 08bd
000001c0: 20f9 aa3c fcd9 3c3c f947 d43c 6ab3 06bd
000001d0: 7b80 2fbd c4e9 08bc 8500 2fbd 8383 dc3c
000001e0: 2924 da3c ebf8 0bbd a8dd 9fbc 5fe8 8b3b
000001f0: da52 b1bb b266 933c bd8a 6d3c 4049 e73b
00000200: 44e6 1c3d f747 3d3c eab6 bdbc c8eb 7bbc
00000210: 3aea 04bd 76ec a4bc ff3e 2b3d 6fea 913c
00000220: 3475 2a3c 4f7a 24bc 62e8 1b3c 66e3 6dbc
00000230: 5ed8 803c 3f2f 18bd a0e3 aebc 40e2 d7bc
00000240: 8d1d e33c 3477 acbb eadd 1c3d 2ac6 98ba
00000250: d2e9 ca3b ccec c13c de85 853c 7728 98bc
00000260: 6592 803b 75b9 283d 0707 c43c 4d43 283d
00000270: 5cc8 473c 9071 133d 1ab4 a2bb 6a30 5bbb
00000280: 7872 133d 7c45 073d 26d5 ce3c 38df 32bb
00000290: 4c15 02bd aadb 2dbd 0d49 93ba e197 dbbc
000002a0: ee0d e23c 0f09 0a3d 6e7e 0bbd 4711 a33c
000002b0: ac66 80bc cb44 c73c 51a2 063d 58e9 ce3b
000002c0: 3feb 19bd d03f 1a3d 33f3 4d3c 769e 773c
000002d0: b59a 563b 20ae f73c 255f 313d 7c8d 823c
000002e0: 66b8 133a 5177 90bc 4f68 bd3c c814 81bc
000002f0: 88ce 4c3c 1ac1 003d 0e7d 31bd c8d4 1e3d
00000300: 2a1c 4bbb 804f 393c 46c9 a9bb d0e4 fd3b
00000310: 773a bebc 0785 7b3c ca9c 8bbc 22e9 86bc
00000320: a48e 78bc df46 08bc d830 113d 49c7 fa3c
00000330: 727b 05bc b00e 053d 9cc4 e53b dce8 023d
00000340: e62f 1f3d 7c83 d6bc a606 bc3c f1aa bb3c
00000350: 9605 d23c 1232 f3bc 3334 773c 81ba 10bd
00000360: 1e3a 473c 5c84 e63c 3fda a23b 829d 6fbc
00000370: a711 cc3c 5312 2f3d ef90 8dbc 9576 643b
00000380: f941 5dbc 7ace fcbc 4a9a 36bd b24d dabc
00000390: ca96 f8bc 06c7 a3bc de80 19bd 47a2 833c
000003a0: 8ace 133d 277c 2dbd 286c 0abd b1c9 91bc
000003b0: 9aa5 153d 6aee 21bd d128 8f3c 9b8b fc3c
000003c0: 8ada 7c3c 38a0 0a3d 9ae4 923b 3bb0 1c3d
000003d0: e43d 04bd 927b 1b3b 1bbe e1bc d844 54bc
000003e0: ff49 0c3d b697 d8bc a931 9d3b cd54 0f3d
000003f0: 1340 143d 3347 d53c ce01 8f3b 6005 4c3b
0.043630976 0.007095629 0.029001629 -0.033485997 0.018754767 -0.03836948 -0.03423541 -0.01880762
0.019863158 -0.03849501 -0.035330832 0.0022155442 0.022907896 -0.020312328 -0.039539266 -0.032029107
0.039380983 -0.034568347 0.031095862 0.04589216 0.031596877 0.026346453 -0.030806156 0.022331793
-0.0040147253 -0.03094477 -0.0075983033 0.004737563 0.031439025 0.036759146 -0.028636092 -0.012414325
-0.034150653 0.033855334 -0.009518179 -0.008615483 0.024807628 -0.004756607 0.028459948 0.007170528
0.03803219 -0.026253732 0.022580551 0.021444881 -0.038961615 -0.02254675 0.04124727 -0.041932177
0.020656088 0.032713033 0.042673685 0.040119536 -0.007977778 0.036844146 -0.013164903 -0.010373407
-0.0012566544 -0.02636427 -0.027468106 0.012198888 0.015513139 -0.02507683 -0.00030101708 0.013700333
-0.0015032466 0.0037436916 -0.016083345 0.009645905 0.018201452 -0.010989452 0.033355214 0.011444251
0.01123911 0.013688571 0.028296994 -0.02938836 -0.012406714 -0.029953972 0.00065852515 0.041784257
-0.015857901 -0.01049683 0.022769827 -0.031105384 0.019610519 -0.034069452 -0.012672107 -0.03571321
0.007022142 -0.01351607 0.03585874 0.03286006 0.007092532 -0.032298215 0.034398027 -0.004394899
0.034411304 -0.021971721 -0.03255704 -0.0034029856 0.03607453 0.017083636 0.036425397 0.007279439
-0.018487219 0.0039052456 0.032560218 -0.03066377 -0.0396284 0.028882373 -0.0046209237 -0.033316102
0.020870745 0.011526581 0.025913225 -0.032885946 -0.042847138 -0.008356515 -0.042725105 0.026918178
0.02662857 -0.034172934 -0.019514874 0.004269644 -0.005411488 0.017993305 0.01449841 0.0070582926
0.038305536 0.011552802 -0.02315851 -0.015376039 -0.03244994 -0.020132285 0.041808125 0.017811982
0.01040392 -0.010038926 0.009515854 -0.014519548 0.015728172 -0.037154432 -0.021348774 -0.026353002
0.027724052 -0.0052632336 0.03829757 -0.0011655737 0.0061924243 0.023672484 0.016299184 -0.018573983
0.0039237016 0.04119249 0.023929132 0.041079808 0.0121937655 0.035996974 -0.0049653174 -0.0033445605
0.035997838 0.03302525 0.025248121 -0.0027293693 -0.03175859 -0.042445816 -0.0011236981 -0.02680582
0.027594533 0.033700045 -0.03405612 0.0199057 -0.015673958 0.024324795 0.03286964 0.006314438
-0.037577864 0.037658513 0.01257019 0.015113464 0.0032746021 0.030234396 0.043303628 0.015936606
0.00056350825 -0.01763502 0.023121027 -0.01575698 0.012500413 0.031434156 -0.043332152 0.038777143
-0.003099213 0.011310458 -0.0051814644 0.007748224 -0.023221238 0.01535154 -0.017042536 -0.016468588
-0.015170727 -0.008317678 0.03544697 0.030612605 -0.008147107 0.03248471 0.007011963 0.031960353
0.03886404 -0.026185744 0.022952389 0.02290866 0.02563743 -0.029686961 0.015088129 -0.035334114
0.012159852 0.028139286 0.0049698646 -0.014624955 0.024910761 0.042742085 -0.017281024 0.003486072
-0.013504499 -0.030860174 -0.044580735 -0.026648376 -0.03034534 -0.019992363 -0.037476413 0.01606859
0.036085643 -0.04235473 -0.033794552 -0.01779637 0.036534883 -0.03953401 0.017475517 0.030828288
0.015432963 0.033844203 0.004482818 0.038254004 -0.032285586 0.0023724777 -0.02755647 -0.012955867
0.034250256 -0.026439529 0.0047971797 0.03499298 0.03619392 0.026034927 0.004364229 0.0031131133

conv2.bias f4 [64]
00000000: 0ec6 bf3c 1fa8 e1bc b2e5 22bd fc55 5d3a
00000010: 9f61 11bd 86e7 13ba 8ac0 10bd ebd3 df3c
00000020: 0b0f 27bd 937f 833c a810 dd3c a4b1 2a3d
00000030: d27e 07bc a566 d43a 9ae8 04bd bb30 203c
00000040: 39f0 0ebd f5bb 0e3d 6e15 abbc 823a ef3c
00000050: f2e6 cd3b f25a fdbc 06de 70bc fa01 57bc
00000060: bfef 943c 7882 2e3d 8764 a63b 863a ebbc
00000070: 6436 c0bb 3bd4 2f3c 8ec3 15bd 4bbc dabc
00000080: 6afa 35bc 569f a63a 4674 8f3c d84d 08bd
00000090: 9741 653c e5af ca3c 9e16 cabc 4450 7cbc
000000a0: f67b 473b 6936 6cbc 5f4f 54bc a0d1 e9bc
000000b0: 56cb 503a bd6c 0bbb 8867 abbb 1579 133c
000000c0: e0bd 16bd 898f c9bc 3a3e 03bd 7571 213d
000000d0: d476 0cbd 30b8 123d 4d9f a9bc 1aab 283d
000000e0: c9f5 01bd 583e f5bc 1df5 eabc 24d1 1b3c
000000f0: 7b99 e7bc c751 153d 0f1a 8fbc 701f 133c
0.02340987 -0.027545987 -0.039769836 0.00084432936 -0.03549349 -0.00056421047 -0.03533987 0.02732273
-0.04078583 0.016052043 0.026985481 0.041673318 -0.008269982 0.0016204907 -0.03244839 0.009777243
-0.034897063 0.03484722 -0.020884242 0.029202703 0.0062836343 -0.030927155 -0.014701372 -0.01312303
0.018180726 0.042604893 0.0050779018 -0.02871443 -0.005865859 0.010731752 -0.03656345 -0.026701113
-0.011107067 0.0012712281 0.017511498 -0.033277363 0.013992689 0.024742076 -0.024668988 -0.015399996
0.0030438877 -0.014417269 -0.012958377 -0.02854234 0.000796487 -0.002127453 -0.0052308477 0.009001036
-0.036802173 -0.024604576 -0.032041766 0.03941484 -0.03429301 0.035820186 -0.020705843 0.0411788
-0.03172854 -0.029936954 -0.028681332 0.009510312 -0.028271427 0.036454942 -0.01746848 0.008979663

bn2.weight f4 [64]
00000000: ffff 7f3f def9 7e3f feff 7f3f 8941 803f
00000010: ee7c 7f3f da7c 7f3f 8a41 803f 0200 803f
00000020: bfff 7f3f 8441 803f baf3 7d3f 1083 803f
00000030: ac47 813f feff 7f3f d276 7e3f 0e83 803f
00000040: 9ac4 803f 0000 803f 8c41 803f 9fc4 803f
00000050: 0b83 803f 1483 803f fdff 7f3f ddf9 7e3f
00000060: ed7c 7f3f 8241 803f 0200 803f ef7c 7f3f
00000070: e1f9 7e3f f77c 7f3f 1283 803f ffff 7f3f
00000080: ee7c 7f3f f07c 7f3f d376 7e3f ca76 7e3f
00000090: ec7c 7f3f dbf9 7e3f 0c83 803f ef7c 7f3f
000000a0: 0100 803f fdff 7f3f 8b41 803f 0100 803f
000000b0: 6dc4 803f 8341 803f 0500 803f f5ff 7f3f
000000c0: 8241 803f 1083 803f e87c 7f3f 0e83 803f
000000d0: 8b41 803f 8b41 803f 0300 803f 1383 803f
000000e0: 8941 803f e97c 7f3f fdff 7f3f df76 7e3f
000000f0: 8a41 803f 1083 803f e982 803f 9cc4 803f
0.99999994 0.9960002 0.9999999 1.002 0.998 0.99799883 1.0020001 1.0000002
0.9999961 1.0019994 0.9920002 1.0039997 1.0099998 0.9999999 0.99400055 1.0039995
1.0059998 1.0 1.0020003 1.0060004 1.0039991 1.0040002 0.9999998 0.9960001
0.99799997 1.0019991 1.0000002 0.9980001 0.99600035 0.99800056 1.004 0.99999994
0.998 0.99800014 0.9940006 0.9940001 0.9979999 0.996 1.0039992 0.9980001
1.0000001 0.9999998 1.0020002 1.0000001 1.0059944 1.0019993 1.0000006 0.99999934
1.0019991 1.0039997 0.99799967 1.0039995 1.0020002 1.0020002 1.0000004 1.0040001
1.002 0.9979997 0.9999998 0.9940013 1.0020001 1.0039997 1.0039951 1.006

bn2.bias f4 [64]
00000000: cb0f 033b dbec 02bb 4411 03bb 00c0 9e33
00000010: 3e10 033b 0070 aeb4 5e11 83bb 180c 033b
00000020: 2a0e 83bb 180e 03bb 8798 c4bb 940d 03bb
00000030: 5510 03bb 00e0 0c34 fe11 033b 0000 1933
00000040: f40f 03bb 0000 8133 8d13 03bb 0000 a932
00000050: 4035 9037 0080 7c34 180e 033b 0080 4c33
00000060: b00e 833b 0a11 833b 2811 03bb 2216 03bb
00000070: 120e 833b e305 03bb bb10 833b 0040 82b3
00000080: 4812 833b 36a2 c4bb 0070 c034 c6fa 023b
00000090: 0040 4034 349a c43b ae11 83bb 7d05 033b
000000a0: 5512 033b e010 833b e60f 833b f010 033b
000000b0: 6e5c 03bb 0000 6031 00b4 3eb6 ca0d 03bb
000000c0: f40f 83bb 0000 16b4 f711 83bb ca11 033b
000000d0: ca13 83bb 6c12 03bb 3b11 033b 0000 8b32
000000e0: 1612 033b b797 c43b 00a0 91b4 0a9b c43b
000000f0: 0000 3cb2 2611 83bb 0060 3eb4 5d99 c4bb
0.0019998427 -0.0019977603 -0.0019999305 7.392373e-08 0.0019998695 -3.2491516e-07 -0.003999873 0.0019996222
-0.003999491 -0.0019997414 -0.005999628 -0.0019997107 -0.0019998748 1.3120007e-07 0.0019999738 3.562309e-08
-0.0019998522 6.0070306e-08 -0.0020000667 1.967419e-08 1.7190934e-05 2.3515895e-07 0.0019997414 4.7613867e-08
0.0039995536 0.003999834 -0.001999924 -0.0020002206 0.00399948 -0.0019992522 0.003999797 -6.065238e-08
0.003999982 -0.0060007824 3.5844278e-07 0.0019985898 1.7904676e-07 0.0059998278 -0.0039999103 0.0019992285
0.001999994 0.0039998144 0.003999698 0.001999911 -0.0020044106 3.259629e-09 -2.841698e-06 -0.0019997233
-0.0039997045 -1.3969839e-07 -0.0039999443 0.0019999617 -0.004000162 -0.0019999994 0.0019999284 1.618173e-08
0.0019999794 0.005999531 -2.712477e-07 0.0059999274 -1.094304e-08 -0.003999847 -1.7730054e-07 -0.0059997276

bn2.running_mean f4 [64]
00000000: 3a0b 1f3e f5d0 e53d c2c8 b93d cd73 a43e
00000010: 1015 ef3d 74d8 873e 7e7c 113e aa56 173e
00000020: bdee 093e c07f 6c3e 7f9f 213e 2c94 0d3e
00000030: 0e5d 0a3e e613 4c3e ca8c e93d 6ee2 223e
00000040: fa52 0b3e c956 223e ccc1 9a3e d5aa 233e
00000050: bfcd a13e 63c9 3b3e 61e4 553e 6e3a 933e
00000060: 683d fd3d d385 0f3e 0633 2b3e 3a5d a23e
00000070: 2d1b 4e3e e808 0a3e 88c2 8f3e 33de 0b3e
00000080: dbe3 293e d25a 193e 932f e33d e57b 003e
00000090: b686 fa3d aed6 6d3e 6711 233e 1314 693e
000000a0: cb52 1d3e 2a0a 4b3e 0b2d a33e ec9c 163e
000000b0: 567f 663e ffd0 223e b537 3b3e c686 053e
000000c0: 68fd f33d 7826 653e e420 c53d 0bb2 3f3e
000000d0: e75e 9d3e 87ec 263e dc4f 643e f7fc 773e
000000e0: 1083 093e 6157 0f3e ba68 223e 64d5 843e
000000f0: 6ae5 753e 78fa 0b3e da85 6d3e 82d3 8f3e
0.15531626 0.11221496 0.09071495 0.321196 0.11673939 0.26532328 0.14207646 0.14779153
0.13469978 0.23095608 0.15783499 0.13826054 0.1351206 0.19929466 0.114038065 0.15906689
0.13605872 0.15853418 0.3022598 0.15983136 0.31602284 0.18338542 0.20887901 0.28755516
0.12365228 0.14015894 0.16718683 0.3171175 0.20127554 0.1347996 0.28078103 0.13658981
0.16590826 0.14976051 0.110930584 0.12547262 0.12232725 0.23226425 0.15924607 0.22761564
0.15363614 0.19828096 0.31870303 0.14708298 0.22509512 0.15900038 0.1828297 0.13039693
0.11913568 0.22377956 0.09625414 0.18720262 0.30736467 0.16301166 0.22296089 0.24217592
0.13428903 0.13998176 0.15860263 0.25944054 0.24013296 0.13669765 0.23195592 0.28091055

bn2.running_var f4 [64]
00000000: 6b39 f43e 1e83 c23e 99e1 d53e 48bc 353f
00000010: 0497 e53e fee3 f63e f060 eb3e 2669 ee3e
00000020: f44d 013f d250 e53e 64a3 d03e cbfc c33e
00000030: 156d c43e b9cc 003f 5af3 d43e f421 f53e
00000040: 55f0 c63e a331 eb3e 811f 413f c101 c73e
00000050: 6ae2 093f 5ff3 f63e 5533 f53e 99b6 003f
00000060: 5e4e ea3e d1ee d83e 1f64 d23e cbb8 243f
00000070: b173 113f 1472 d93e 72d9 1b3f b030 c73e
00000080: 3f21 d73e efe5 ea3e 608e c03e 47f9 d33e
00000090: e0ca eb3e f974 043f 565d 073f 8e3c 213f
000000a0: c580 e53e b9e2 e03e f8c7 293f 29d3 f63e
000000b0: d7f3 f83e bae2 0a3f 6534 f73e 2466 de3e
000000c0: 44a9 e03e ef80 193f c800 d23e 6b72 063f
000000d0: db65 203f 7a0a c73e c5ab ef3e 68d2 113f
000000e0: bfd5 c53e 494f cd3e 9e14 d73e e3fb 193f
000000f0: 007a fc3e feaa c83e 88da 123f 7e0a 043f
0.47700056 0.3799066 0.4177368 0.7099042 0.44841778 0.4822082 0.45972395 0.46564597
0.5050957 0.44788224 0.40749657 0.38278803 0.38364473 0.5031238 0.41591913 0.47877467
0.38855234 0.45936307 0.75438696 0.38868526 0.53861105 0.48232552 0.47890726 0.5027862
0.45762914 0.42369702 0.4109201 0.6434447 0.56817156 0.42469847 0.6087867 0.38904333
0.42017552 0.4587855 0.37608624 0.4140112 0.4605322 0.51740986 0.52876794 0.62983024
0.44824806 0.43922976 0.66320753 0.48207977 0.48623535 0.5425221 0.4828216 0.43437302
0.4387914 0.5996236 0.4101622 0.5251834 0.6265542 0.3887518 0.46810737 0.5696168
0.38639638 0.40099552 0.42007917 0.60149974 0.4931183 0.39192957 0.573647 0.5157851

conv3.weight f4 [64, 64, 3, 3]
00000000: 7ee1 19bb 416a 583b a2db 0dbb 0240 a53c
00000010: a0e9 1dbb 5ca3 233c 605c 02bd 5fb5 383d
00000020: 464a 07bd b09c 34bd 0d88 443c b6c0 eb3c
00000030: 413c 15bd 8966 183d c37a 0fbd d0b0 363c
00000040: 3cc2 7a3c 4966 493c a2fb ddbc 5339 c5ba
00000050: e402 24bd 53c9 9b3c 90a3 ecbc e835 203c
00000060: 76c9 993c 3f6e 6abc b77c a3bc 555d 9bbc
00000070: eedd f5bc 14bf 9fbc 62ca 413d d722 053c
00000080: 3514 773c 5ad3 adbc 3274 7a3b 7363 c0bb
00000090: 3ee3 24bb 1b90 acbc 06aa cd3c 8a9d 3ebc
000000a0: e889 50bc 33f2 5a3c 8e53 bbbc ea10 2fbc
000000b0: dc40 04bd 7742 e6bc bb5a c63c 7206 0e3b
000000c0: 1a4a b43c 3e6b a6bc 53f7 62bc e2f4 0ebd
000000d0: fc7a a13c cd46 a9bb 575a 413d 14b5 34bc
000000e0: 940e ba3c 6f03 f4bb 4211 3c3b b800 2b3d
000000f0: 3ca5 bdbb f0cb 253d 7019 103d 9649 213d
00000100: 9793 d9bc f479 9e3b 9e61 423a d611 c53a
00000110: 2c5a b8bb 9ccb 473c f2b3 9d3b 8e20 013d
00000120: 458c 8f3c 7935 10bd 48f4 01bc 3f9c 0d3d
00000130: 456d fe3c b2d3 f73c f305 3abc ea63 1c3d
00000140: 1483 e4bc b19d 10bc 5798 113d f597 0d3d
00000150: 44ac a0bc 1a42 683c 05e1 e63c 329c 123a
00000160: 8971 e9bb d50e b9bc 66e1 f33c 2c0d b93c
00000170: 6fd4 1b3d 951d 603c 5128 843c 680d 1cba
00000180: 3846 623b 751a 9f3b 7c9d 843b e088 0a3d
00000190: 9c6f b53b ed84 2abc 53c6 5abc 68ee d2bc
000001a0: 3df6 1ebc ab7e 0a3d f261 283d 0ff8 45bc
000001b0: 804e 7dbb 359c 01bd e2cd f0bc 766c bb3c
000001c0: 9034 b53c fcbd e3bc 08da 92bb 962b a33c
000001d0: 6f86 80bb c285 e13c 0ce2 13bb 1d9a e3bb
000001e0: 1ed1 9a3c b030 043b eed7 d53c 1b15 ec3c
000001f0: 04ec ad3b 9054 99bb efac c1bb 14d9 1e3c
00000200: cc5b 1b3c c0ff 8f3c 8317 1dbd 4a13 a93c
00000210: 8c8e e83c cd25 99bc 8e90 273c 3bcc b9bc
00000220: bf49 3a3d 0df2 063d ab66 133d 82b9 043a
00000230: 805b a33c 1b66 66bc f1ad 873c 3ee2 acbb
00000240: d98a 003c 87fc 8abc 39ad 8b3c 0702 e0bc
00000250: d04c 18bc 6e2d b13c 65bb a63b 96fd 4dbc
00000260: 2e3b ec3c 48d3 afbb 0008 75bc bf32 213d
00000270: dcad 6a3c eef8 86bc b696 203d 8eef 0fbb
00000280: f996 b43c 3515 283d ffc6 1b3d 7dec 71bc
00000290: ac5d 103d 7df6 4dbc eef3 aebb 6a32 1d3d
000002a0: 5fcc 0cbd df9b b83c 142a bcbc 0b17 8bbc
000002b0: 434a ca3a 114d 14bd b811 ecbc 2ae9 6d3c
000002c0: 0440 043d 69cd b63c 7553 ebbc 664b d53c
000002d0: 24d1 3bbb 7f21 0dbd ca70 283d 7dd9 e83c
000002e0: d482 bf3c d437 ffbc d7fd 5fbc 6e83 06bd
000002f0: dc06 0d3d c549 f03c f533 f13c 1078 63bc
00000300: 8722 803c c791 c23c 022c 09bd f02d ffba
00000310: b1ca 2e3d 0d47 efbc ba2f 643b faaf 003d
00000320: a6d1 183d 3595 8abc 0c28 7cbc 7103 84bc
00000330: ac77 0e3c a8e9 9a3c 8873 183d d58a 84bc
00000340: 2c82 8cbc 0359 a93c 6834 e5bc c567 1d3d
00000350: 9daf c43c 5d0c 27bd 6042 c9bc 51e9 9fbc
00000360: ee4e f8bc 4c7c 7bbc df57 2ebc 2f08 f8bc
00000370: 0dc2 203d a4dd 54bc ccca 25bd 42ce 5dba
00000380: bed3 6abc eed5 243d 7b8b debc 6611 5cbb
00000390: 1bbd c53b 0ecf 9abc 4e98 dabc 9d71 8fbc
000003a0: 9174 1cbb e928 19bd 26c7 223c d256 fd3b
000003b0: f028 c33c cd96 bd3c 43f8 b4bc 5dbe 093d
000003c0: a0cd 0c3d d679 eebb 9224 40bc 1619 28bd
000003d0: c303 62bc 9a6f 55bc 4fea 1bbd ed7b 1a3d
000003e0: e0c9 df38 2196 293d 8145 2c3c 5bc9 013d
000003f0: b8ae bdbb 174e 7ebb 4038 0dbc 921f 90bc
-0.002348035 0.0033022317 -0.0021645804 0.020172123 -0.002409555 0.009987678 -0.031826377 0.045094844
-0.033029817 -0.04409474 0.011995328 0.028778415 -0.036434416 0.03720716 -0.035029184 0.011150554
0.015305098 0.012292453 -0.027097527 -0.0015046991 -0.04004182 0.019016897 -0.028886586 0.009778477
0.018772822 -0.014308511 -0.01995693 -0.018965403 -0.03001305 -0.019500293 0.047312148 0.008125982
0.015080501 -0.021218944 0.003821623 -0.0058712303 -0.002515986 -0.021064809 0.025105488 -0.01163424
-0.012728192 0.013363409 -0.02286699 -0.010685185 -0.032288417 -0.028107865 0.024213186 0.0021671322
0.02200799 -0.020314809 -0.013852912 -0.034901507 0.019711964 -0.005165911 0.047205295 -0.0110295005
0.02271203 -0.0074466984 0.002869681 0.041748732 -0.0057875197 0.040477693 0.03518051 0.039376818
-0.026559634 0.0048363153 0.0007415059 0.0015035223 -0.0056259837 0.01219454 0.004812711 0.031525187
0.01752294 -0.035207245 -0.007931776 0.034572836 0.031057963 0.030252311 -0.0113539575 0.038181223
-0.027894534 -0.008826659 0.035545673 0.034568746 -0.019613393 0.014175916 0.02818347 0.0005592733
-0.00712413 -0.02259008 0.029770564 0.022589289 0.03804439 0.013678928 0.016132506 -0.00059529254
0.0034526717 0.004855449 0.004047094 0.03382194 0.0055369865 -0.010407669 -0.013352948 -0.025748447
-0.0097022625 0.033812206 0.041109033 -0.012083068 -0.0038651526 -0.03164311 -0.029395048 0.022878867
0.02211979 -0.027800553 -0.0044815578 0.019918244 -0.0039222757 0.027529601 -0.0022565154 -0.006945862
0.018898543 0.0020170622 0.02610394 0.028818658 0.0053076763 -0.00467927 -0.005910508 0.00969531
0.009482335 0.017578006 -0.0383525 0.02063908 0.028388284 -0.018694783 0.010227336 -0.022680392
0.045480486 0.03294568 0.035986584 0.0005063043 0.019941092 -0.01406243 0.016562434 -0.0052759936
0.007845604 -0.016966118 0.017050372 -0.027344717 -0.009295657 0.021628108 0.005088257 -0.012572667
0.028836813 -0.005365763 -0.014955521 0.039355036 0.014323678 -0.01647612 0.03920623 -0.0021962854
0.022044646 0.04103585 0.038031574 -0.014765856 0.035245582 -0.012570974 -0.0053391373 0.038378157
-0.03437459 0.022535263 -0.022969283 -0.016978761 0.0015433509 -0.03620631 -0.028817043 0.014520923
0.032287613 0.022314744 -0.028726319 0.02603693 -0.0028658593 -0.034455772 0.04112319 0.028424019
0.023377813 -0.03115455 -0.01367136 -0.032840185 0.03443037 0.029332051 0.02944372 -0.013883606
0.015641464 0.023751153 -0.033489235 -0.0019468646 0.04267377 -0.029208684 0.0034818486 0.031417824
0.03730931 -0.01691685 -0.015390407 -0.016114922 0.008695524 0.018910244 0.037219554 -0.016179482
-0.017151915 0.020672327 -0.02797909 0.03842904 0.02400952 -0.040783275 -0.024567783 -0.019520434
-0.030311074 -0.015349459 -0.010641067 -0.03027734 0.03924756 -0.012992296 -0.040476605 -0.0008461216
-0.01433271 0.04024308 -0.027166119 -0.0033579706 0.006034506 -0.01889756 -0.026683953 -0.01751023
-0.002387319 -0.03739253 0.009935176 0.007731297 0.023823231 0.023143196 -0.022091037 0.03362881
0.034375787 -0.0072777076 -0.011727469 -0.04103955 -0.013794842 -0.013027096 -0.03806525 0.03771584
0.00010671071 0.04140294 0.010514618 0.03168617 -0.0057886504 -0.003880387 -0.008619368 -0.017593179

conv3.bias f4 [64]
00000000: 468e a63c 381e 53ba ebda 353c f5ad 00bd
00000010: cee1 f3bc 138a 273d 170a aabc 685c 0d3d
00000020: 7b73 01bd 99ff fabc ffc4 8fbc 4b4e 6b3c
00000030: ea2c 9dbc 8729 283d 194b 1c3c d2f8 13bd
00000040: dff5 c63c 4646 843b e6b5 d8bb 9f41 213d
00000050: f098 11bd 9496 a7bc 321d 9fbb 2015 25bc
00000060: 1572 4f3c 2c19 8f3c e40b f43b a811 063d
00000070: 35da b0bb c7f3 a53b cd2f 193d c9a6 da3c
00000080: aa59 35bc d29e 19bd 269b 293d c850 2e3d
00000090: f361 403d 80ed 01bd 12c1 833c 2676 17bd
000000a0: d656 c2bc 7b8c cc3b 418c 1fbc 73be 29bc
000000b0: a70a 173d 5841 89bc 2638 58ba 977a 64bc
000000c0: 6cac d63c c563 6d3c 7e12 3ebc 1298 413c
000000d0: 2962 86bb da78 03bb b365 eebc 4072 8fbc
000000e0: f0be a9bb ae31 bf3b 4c50 ccbb 0d49 273d
000000f0: 31f4 b73c 13f7 bc3c 5a57 88bc 0bb3 3e3d
0.020331513 -0.0008053514 0.011099557 -0.0314159 -0.029770758 0.040903162 -0.020756764 0.034511954
-0.03160427 -0.030639457 -0.01754999 0.014361928 -0.019186456 0.04105523 0.009539389 -0.036125965
0.024287162 0.0040366976 -0.006613481 0.03936922 -0.035546243 -0.020457543 -0.0048557753 -0.010075837
0.012661477 0.017468058 0.0074477065 0.032731682 -0.005397106 0.005064461 0.037399102 0.026690857
-0.011068741 -0.03750498 0.041407727 0.042557508 0.04696841 -0.03172064 0.016083274 -0.03697791
-0.023723047 0.0062423325 -0.009738029 -0.010360348 0.036875393 -0.016754791 -0.0008248113 -0.013945243
0.026205264 0.014489119 -0.011601089 0.011816042 -0.004101057 -0.0020061047 -0.029101228 -0.017510533
-0.005180232 0.0058347797 -0.006235158 0.04084115 0.022455307 0.023067033 -0.016643215 0.046557467

bn3.weight f4 [64]
00000000: ffff 7f3f c676 7e3f 8b41 803f bef3 7d3f
00000010: 83f9 7e3f 8741 803f 1383 803f a77c 7f3f
00000020: d1f9 7e3f 1283 803f fbff 7f3f c776 7e3f
00000030: 1483 803f 8841 803f ffff 7f3f ee7c 7f3f
00000040: 0000 803f ffff 7f3f f67c 7f3f 0000 803f
00000050: 0000 803f 1483 803f e4f9 7e3f ffff 7f3f
00000060: 2006 813f 8541 803f ee7c 7f3f 8841 803f
00000070: f07c 7f3f 2306 813f 0100 803f 0400 803f
00000080: bcf3 7d3f 8b41 803f 8a41 803f e4f9 7e3f
00000090: 0d83 803f ef7c 7f3f e0f9 7e3f 7e41 803f
000000a0: d376 7e3f ffff 7f3f f5ff 7f3f eb7c 7f3f
000000b0: 93c4 803f ffff 7f3f cc76 7e3f 0200 803f
000000c0: 0200 803f 0883 803f daf9 7e3f 2806 813f
000000d0: ee7c 7f3f e1f9 7e3f ee7c 7f3f 0000 803f
000000e0: 8341 803f 1083 803f 0200 803f 0500 803f
000000f0: 8841 803f edff 7f3f def9 7e3f feff 7f3f
0.99999994 0.99399984 1.0020002 0.99200046 0.99599475 1.0019997 1.0040001 0.9979958
0.9959994 1.004 0.9999997 0.9939999 1.0040002 1.0019999 0.99999994 0.998
1.0 0.99999994 0.9980005 1.0 1.0 1.0040002 0.9960005 0.99999994
1.0079994 1.0019995 0.998 1.0019999 0.99800014 1.0079998 1.0000001 1.0000005
0.99200034 1.0020002 1.0020001 0.9960005 1.0039994 0.9980001 0.9960003 1.0019987
0.9940006 0.99999994 0.99999934 0.99799985 1.005999 0.99999994 0.9940002 1.0000002
1.0000002 1.0039988 0.99599993 1.0080004 0.998 0.99600035 0.998 1.0
1.0019993 1.0039997 1.0000002 1.0000006 1.0019999 0.99999887 0.9960002 0.9999999

bn3.bias f4 [64]
00000000: b310 83bb 008d a836 f810 033b 0018 5335
00000010: 2e0e 03bb 0080 b533 251a 03bb ab14 03bb
00000020: 4210 83bb 0000 2bb3 4213 033b 0000 66b6
00000030: a20d 033b 249a c43b df0e 833b 4ffa 023b
00000040: ed12 03bb 960d 833b 7e12 83bb 0000 20b3
00000050: d411 033b 8e11 033b fa9b c4bb 8312 833b
00000060: 0080 f8b3 a80b 83bb 4ea3 c43b 6013 033b
00000070: 6413 023b dc9a c4bb 971d 033b 9f0e 033b
00000080: c615 03bb 00b8 8235 00c0 aab3 d00d 033b
00000090: 6511 03bb 00a0 28b5 0080 5234 830f 833b
000000a0: 0048 09b5 0040 25b4 879a c43b 930f 833b
000000b0: e50d 83bb 6bc2 833b 5a11 833b 3610 033b
000000c0: 1211 833b 0080 c7b3 f40c 833b a911 03bc
000000d0: f216 033b 0080 3e33 720a 03bb 0090 ae34
000000e0: 6f0d 83bb 0020 00b4 0807 03bb ae0b 833b
000000f0: e89a c4bb e712 83bb 800e 833b 4d9a c4bb
-0.0039997934 5.0232047e-06 0.0019999128 7.863855e-07 -0.0019997465 8.4517524e-08 -0.0020004597 -0.0020001333
-0.003999741 -3.981404e-08 0.0020000492 -3.427267e-06 0.001999714 0.0059998203 0.0039995755 0.0019985621
-0.0020000294 0.0039994223 -0.004000007 -3.7252903e-08 0.001999964 0.0019999477 -0.006000039 0.0040000095
-1.1571683e-07 -0.0039991923 0.0060009127 0.0020000562 0.0019847983 -0.005999906 0.002000665 0.0019997729
-0.0020001992 9.739306e-07 -7.9511665e-08 0.0019997247 -0.0019999382 -6.281771e-07 1.960434e-07 0.003999652
-5.114125e-07 -1.5390106e-07 0.0059998664 0.0039996593 -0.003999459 0.004020979 0.003999871 0.0019998676
0.0039998377 -9.289943e-08 0.003999347 -0.007999816 0.002000269 4.4354238e-08 -0.001999524 3.25148e-07
-0.003999404 -1.193257e-07 -0.0019993205 0.003999195 -0.0059999116 -0.004000056 0.0039995313 -0.0059998394

bn3.running_mean f4 [64]
00000000: 1d1d 4e3e afa7 243e 8cfc 963e af20 e73d
00000010: 6c02 873e 6791 9e3e 3db1 253e aced 1a3e
00000020: 1f17 0a3e 736d 3c3e d87b 6e3e 6aef de3d
00000030: 39c5 843e 2b8d ab3e 5405 7a3e ff46 433e
00000040: a48a 663e 7c3d 463e 05f0 103e d231 6b3e
00000050: dff4 3a3e 394f 9d3e d2d2 0b3e 5f43 943e
00000060: 216a 5f3e 17e7 363e 87e7 a63e 3e83 8a3e
00000070: eec3 3c3e 0ee7 573e 4b2f a33e f021 503e
00000080: 515e 173e da83 733e 520a 283e a519 773e
00000090: a8fa 2d3e 56e1 203e fbb1 393e a335 653e
000000a0: 1b07 e03d b60a 3e3e ac26 823e 96aa 013e
000000b0: b310 3d3e 4c69 7e3e bd09 f93d 5d73 7c3e
000000c0: 613e 8a3e acc4 603e 2912 483e 533b 733e
000000d0: 11e8 af3e 21df 803e b54e 453e 23eb 503e
000000e0: dcad 0c3e 7265 5a3e 1071 8c3e 8e19 923e
000000f0: 3122 1e3e 1e0e 103e 5ce9 553e c0ef 623e
0.20128293 0.16079591 0.29489553 0.11285531 0.26369035 0.30970308 0.16180892 0.15129727
0.13485382 0.18401127 0.2328943 0.10885508 0.2593172 0.3350614 0.24416095 0.19070052
0.22513825 0.19359392 0.1415406 0.22968224 0.18257473 0.30724505 0.1365464 0.2895765
0.21817829 0.17861591 0.32598516 0.27053255 0.18434116 0.21084234 0.3187202 0.20325446
0.14782073 0.23780766 0.16410187 0.24130876 0.16990149 0.15710959 0.181343 0.22383742
0.10938855 0.18558773 0.2542013 0.1266273 0.18463401 0.24844855 0.121600606 0.24653383
0.27000716 0.21950024 0.19538178 0.23753099 0.3435674 0.25170234 0.19268306 0.20402198
0.13738197 0.21327761 0.2743001 0.28535122 0.1544273 0.14067885 0.20889801 0.2216177

bn3.running_var f4 [64]
00000000: 9691 153f c664 d73e bfc4 423f 880e dc3e
00000010: e9ff fc3e b4c0 5b3f 0e8b c93e aca4 d63e
00000020: 29db d73e 8412 e73e c69d 0b3f a55a d53e
00000030: 8d1b 213f ccd1 2e3f 54e6 053f 74c1 d73e
00000040: 6116 fd3e e147 073f 8406 fc3e 973c 023f
00000050: f613 e03e 3f38 373f 8c28 e23e c68d 313f
00000060: a342 ec3e ee65 003f 1ea8 2c3f 4770 383f
00000070: 1d7b f63e de7e d93e d570 203f 13b9 d93e
00000080: a9e0 e43e 1306 223f 43b4 cd3e 5ce8 003f
00000090: f2db f53e d731 d83e 08ce ee3e 9016 0f3f
000000a0: 67d9 c83e ccd6 0c3f 9d82 0f3f fccc f33e
000000b0: fd54 d93e e8e4 0a3f b06e d13e 371b f03e
000000c0: a34c 223f e972 0b3f e395 ee3e 2f53 ef3e
000000d0: dffa 0d3f 8979 f93e 493c 0f3f 4221 093f
000000e0: 60d0 fe3e ca57 e43e 2bf1 1d3f 5fe9 273f
000000f0: 11c3 e43e 4f1e ef3e 1b39 183f fd9d df3e
0.5842527 0.42069072 0.7608146 0.42979836 0.49413994 0.85840917 0.39363903 0.4192251
0.42159393 0.45131314 0.5453762 0.4167072 0.62932664 0.68288875 0.5230458 0.4213978
0.49431136 0.52844054 0.4922372 0.508737 0.4376523 0.715702 0.4417156 0.69356954
0.4614459 0.5015553 0.67444026 0.7204632 0.48140803 0.42479604 0.6267217 0.42524013
0.44702652 0.6329052 0.4017659 0.5035455 0.48019367 0.42225525 0.46641564 0.558938
0.39228365 0.55015254 0.56058675 0.47617328 0.42447653 0.54255533 0.4090476 0.46895763
0.6339819 0.54472214 0.4659873 0.46743152 0.55460924 0.48725536 0.5595136 0.5356637
0.49768353 0.44598228 0.6169612 0.6559047 0.44680074 0.4670281 0.59462136 0.43675223

conv4.weight f4 [64, 64, 3, 3]
00000000: 467a 29bd 8c2b 85bb cad6 e3bc 00cb 56bb
00000010: d28b 65bc 9e33 57bc 7452 9bbc 89bf fd3b
00000020: 7283 933c 172e 03bd c710 b5bb 239a d3bc
00000030: 5f65 9b3c 930d 4b3c 574d 21bd 47b7 dc3c
00000040: 7493 0dbd c3b0 09bd e0c3 40bc 883d e93c
00000050: 2125 cdbc ff28 a13b 7185 acbc 156e a1bc
00000060: 7684 063d abc3 073d a8f5 273d 634e 0e3d
00000070: 08c3 083d fb49 383c 1974 f5bc dde5 15bd
00000080: efec 073d 57fb d63c 8777 adbc 5b3a d9bc
00000090: 7224 87bc 858c ac3c 346b 6e3c b271 ac3c
000000a0: ed89 e8bb 6452 9e3b fda6 393b 3965 283c
000000b0: 1a6e 303b b5e7 ecbc 5ef3 403c a99c 0e3d
000000c0: fdcb d8bc 6f7c 923c 008a 583c 1ef8 173d
000000d0: bd37 163d f303 f2bc bc6b 03bb 1b09 103d
000000e0: 363e cfbc 7282 bfbc a322 0a3d 856e 03bd
000000f0: cd4f 24bd 9420 c2bc 008d 003d 84c5 e6bb
00000100: d645 90bb f196 0f3c 6038 04bd 61e6 bfbc
00000110: bcce b03c 3b4a df3c 14b5 8a3c b7b5 c8bc
00000120: 17c3 24bc 579f d53c 82a7 afbb 78c7 efbb
00000130: 5b1d d3bc 001c b4bb 4a8f ec3b f7e7 89bc
00000140: e073 1ebc f907 0f3c 06c9 863c daaa 29bd
00000150: 7ebf 8f3c 3c9a e33c f96b 073d 67b7 43bd
00000160: 9d1f 033d 2454 913c a10b 0cbd 06bd 2c3c
00000170: 1ac2 25bd e04c 263d 088b f03c c16d 153d
00000180: 2b2f 9a3c 81ed f3bb cf81 8d3c 61b2 4a3c
00000190: 90d3 d93a 45c1 c23c 28a5 2abd e0f6 a7bc
000001a0: e0ad a7b9 e141 a53c 32df ec3b f0e0 da3c
000001b0: 4e55 15bd a3f0 063d 348b 03bd 22cc afbc
000001c0: 82cd 143d 2529 0fbc a67e 03bd 49f3 21bd
000001d0: 67c2 1fbd 2ceb b3bc 1112 ea3c 7e66 1fbd
000001e0: 1855 8dbc 37ed a93b 768e ce3c 72dd a6bb
000001f0: 4c75 e8bc f3f4 d33c 28e9 77bc 2f7e c33c
00000200: 0e1a b33b a9dd 0fbc be8f 0bbd a06a 08bd
00000210: 2689 0c3d 1e1c 12bd 9f63 f5bc 55aa a13b
00000220: 51bf 3cbd 1cbb c03c 126f 21bd f642 bf3c
00000230: 75c0 8f3c 14a1 aabc 5b25 adbc 179a e0bb
00000240: eb75 af3a 1b2d dd3c 9ad2 f43c ee1e d83c
00000250: 57f4 e13b b435 babb ebb3 a0bb 6cf3 c93b
00000260: 342d 08bd 5f9c 013d 3d73 053d 9ca0 57bc
00000270: accd 713c 780e f23c 9e03 82bc 7dbb 053d
00000280: 34f6 06bd c115 8aba 4e4a f5bc 0266 e3bb
00000290: 1fb9 27bd 1a13 74bc fa70 c93c d8e4 adbc
000002a0: 429c 033c af3a d1bc 7f7f f8bc 1006 12bd
000002b0: 4c1c 86ba 756b c9bb 1ab0 aebc 7ca6 81bc
000002c0: acd8 24bd d1be 683c 3b42 dfbc e71d 0f3d
000002d0: 4b45 d4bb 8152 cc3c e1a2 b03c c561 053d
000002e0: 9541 2ebc e7e3 d4bc 6a70 01bd 39e3 523c
000002f0: ef91 c9bc 10f7 c23c 1158 d0ba f277 813c
00000300: e255 5abc aabc ebbc 8e53 413c a655 d63c
00000310: da59 393d 863e dbbc 362b d9bc cee5 9c3b
00000320: 46f7 30bc d697 b03c c581 163d 6eb6 2fbd
00000330: 1d2d f6bc b3bd e73c e463 e63c e959 923c
00000340: 262d 523c 46b1 a2bc 6a5b d73c f9ce f4bc
00000350: 895b 04bd b43e c7bc 3b41 2b3d 29b1 db3c
00000360: 34c3 42bd a907 cb3c d576 86bc dc5f 16bd
00000370: 09e1 04bb f477 03bd 394e d8bc dbfa 20bd
00000380: ddf0 14bd e269 29bd c88a 5ab9 0c54 d23c
00000390: 082c f6bc 0c57 583c e9f9 03bd 7f96 8fbc
000003a0: 444f 493b eae3 d73c b4a3 0a3c 3203 1e3d
000003b0: 5aa8 f53c ba28 173d fc9e cbbc 2fe5 c2bc
000003c0: 9d36 04bd 94f8 52bb 7a03 1a3d b282 cabc
000003d0: 34d1 25bd 8c4b ba3c b69d abbc 42e2 073d
000003e0: c5fc f4bc fe02 0d3c 14e0 e83c 8769 12bd
000003f0: 0355 4fbc 8180 1bbd 743e 203d 42be aa3b
-0.041376375 -0.004064029 -0.02781238 -0.0032774806 -0.014010387 -0.013134865 -0.018960215 0.00774378
0.018007014 -0.032026377 -0.0055256817 -0.025830334 0.018969236 0.012393373 -0.039380398 0.026942862
-0.03456445 -0.03361584 -0.01176545 0.028471723 -0.025042119 0.004918217 -0.021059724 -0.019705812
0.03284117 0.033145588 0.04100576 0.034742724 0.03338912 0.011248107 -0.029962586 -0.036596168
0.03318494 0.026242895 -0.02117516 -0.026517084 -0.01649687 0.021063099 0.014551926 0.021050308
-0.00709652 0.004831599 0.0028328293 0.01027804 0.0026921094 -0.02891908 0.011776773 0.03481737
-0.026464457 0.0178816 0.0132164955 0.037101857 0.03667425 -0.029542899 -0.0020053228 0.035164934
-0.02529822 -0.02337763 0.03372444 -0.03208782 -0.040115166 -0.023697175 0.031384468 -0.0070425887
-0.0044028563 0.008764015 -0.032280326 -0.023425283 0.021582954 0.027257076 0.016932048 -0.02450071
-0.010056279 0.026076956 -0.0053605447 -0.0073174797 -0.025770834 -0.005496502 0.00721923 -0.016834242
-0.009671181 0.008729928 0.016453277 -0.041422702 0.017547365 0.027783506 0.033061955 -0.047782328
0.03201257 0.017740317 -0.034190778 0.010543114 -0.040468313 0.040600657 0.02936317 0.036481623
0.01882132 -0.007444084 0.017273812 0.01237163 0.0016618837 0.023773799 -0.04166141 -0.020503461
-0.0003198227 0.020173015 0.0072287554 0.026718587 -0.036458306 0.032944333 -0.032115176 -0.021459643
0.0363288 -0.008737837 -0.032103203 -0.039538655 -0.039003756 -0.021962725 0.028573068 -0.038916104
-0.01725249 0.005185749 0.025214415 -0.0050923163 -0.028376244 0.025873637 -0.015131272 0.02386388
0.0054657524 -0.008780875 -0.03407263 -0.03330481 0.034310482 -0.035671346 -0.02995473 0.0049336352
-0.04608089 0.02352672 -0.039412566 0.02334736 0.017547825 -0.020828761 -0.021135977 -0.0068543064
0.0013386583 0.026999047 0.029885579 0.026381936 0.0068955827 -0.0056826714 -0.0049042604 0.0061630514
-0.033246234 0.031643268 0.032580603 -0.013160851 0.014758509 0.029547915 -0.015870865 0.032649506
-0.03294964 -0.0010535048 -0.029942658 -0.0069396505 -0.04094803 -0.014897132 0.024590004 -0.021227285
0.00803286 -0.025540678 -0.030334232 -0.035650313 -0.0010231822 -0.006146843 -0.021324206 -0.015826456
-0.040245697 0.01420565 -0.02725326 0.034940626 -0.006477987 0.024941685 0.021562042 0.032563943
-0.010635753 -0.025987579 -0.031601347 0.012871557 -0.02460572 0.02379945 -0.0015895386 0.015804265
-0.01332614 -0.028776485 0.011799706 0.026163887 0.045251705 -0.026763212 -0.026509862 0.004788137
-0.010801142 0.021556776 0.03674485 -0.042898588 -0.030050809 0.028288698 0.028123803 0.017865138
0.012828147 -0.019859921 0.026288707 -0.029883849 -0.032313857 -0.024321891 0.041810255 0.026817875
-0.04754944 0.024783926 -0.016414085 -0.036712512 -0.0020275733 -0.032096818 -0.026404487 -0.039301734
-0.036362518 -0.041360743 -0.000208418 0.025674842 -0.030050293 0.013204347 -0.032220755 -0.017527817
0.0030717412 0.026353795 0.008461881 0.038577266 0.029987503 0.036904074 -0.024856083 -0.023790924
-0.032278646 -0.003219162 0.03760097 -0.024720524 -0.040482715 0.022741102 -0.020949226 0.03317476
-0.029905686 0.00860667 0.028427161 -0.03574517 -0.012654546 -0.037964348 0.03912206 0.005210669

conv4.bias f4 [64]
00000000: e0a6 24bb 3a80 0abd 686e be3a bd48 c4bb
00000010: 94c9 bf3c 8ca1 f43c fc73 b33b 6957 0d3d
00000020: b9db 31bc ed0a 8bbb c50c 2f3c 12dc 14bc
00000030: 659c 84bc 892a 2a3c 34c7 8c3c 956b 3a3d
00000040: 30af d4bc 7c26 ea3c 066a 623b 118a bcbc
00000050: 2ca5 efb9 715f 77bc 58ac fcbc d712 1b3d
00000060: debd 3ebc 15c8 b03c 4b6f ee3c 3a28 b4bc
00000070: d29b 45bb 538c f93c cae1 ac3c 6542 06bd
00000080: fbca e6bc bde2 1abd 137a b1bc b41d 8a3c
00000090: a6bb fcbb d098 0cbd d251 f13c f7e1 ebbb
000000a0: 9eae c2bc aa85 0dbd bac7 02bd c265 1a3c
000000b0: 952e 133d f5bd ecbc e3e1 383d 902a 1b3d
000000c0: 2b51 d8bc 89d9 0e3c 6e50 4bba bb6e 103d
000000d0: 46db b2bb a0e4 4b3c fb01 013d 4e62 883c
000000e0: a8ab f13c b805 33bd 7a73 3f3d 33b9 1fbc
000000f0: 3594 d4bc 7b6d b63c f458 f7bc f9d1 e43c
-0.002512388 -0.033813693 0.0014528753 -0.0059901164 0.02341155 0.029862188 0.005476473 0.03450719
-0.010855609 -0.004243246 0.010684197 -0.009085672 -0.016187856 0.010386118 0.017184831 0.045512754
-0.025962442 0.028582804 0.0034548058 -0.023015054 -0.00045708695 -0.015098439 -0.030843899 0.037859764
-0.011641948 0.021579782 0.029105803 -0.021991838 -0.003015269 0.03046242 0.021103758 -0.032778163
-0.02817296 -0.03781389 -0.021664655 0.016859867 -0.007712799 -0.03432542 0.02945796 -0.007198568
-0.023764905 -0.0345513 -0.031928755 0.009423675 0.035933096 -0.028899172 0.045137297 0.037882388
-0.026405891 0.008718857 -0.00077558204 0.03526185 -0.0054582683 0.012444645 0.03149603 0.016648438
0.029500797 -0.043706626 0.046740986 -0.009748745 -0.025949577 0.022269001 -0.030193783 0.027932154
